lab2/ERIKSSON-OSCAR-AHRENDT-PHILIP-Lab2/problem3/neural-network-3-actor.pth (torch, 664071 bytes, 10 tensors)

weight f4 [400, 8]
-0.17704499 -0.11310485 0.33950186 0.33964944 0.24507822 0.13105528 -0.04515157 -0.12689078
0.18904375 0.3399369 -0.24957666 0.09357248 -0.1475316 -0.23142926 -0.31882527 0.08753589
0.052443065 -0.063125655 -0.13486771 -0.086794905 -0.093828954 -0.15191203 0.2878343 -0.09781142
0.06799571 -0.29925022 -0.1474938 0.29711354 -0.2215054 -0.062169474 -0.01053101 0.3425957
0.34843734 0.029059414 0.33624968 -0.17195909 0.3547115 -0.35677335 -0.011935833 0.16028637
-0.099435434 0.3097827 -0.3188322 -0.27394748 0.02978097 0.09596214 0.08646904 0.28379652
-0.14164075 -0.16540955 -0.22096524 -0.10534681 -0.052147903 -0.26671186 -0.09700953 0.0066383383
0.30440846 -0.03267113 0.27337468 0.042536482 -0.10282382 -0.31258523 0.18675691 -0.32267347
-0.21395382 -0.24076393 -0.2942583 0.1461019 0.23033822 -0.2478923 0.30735537 0.050078012
-0.20013312 0.21173802 -0.2880527 0.19038054 -0.028776959 0.15519916 -0.20868859 0.14080186
0.20233278 -0.26764485 -0.17420185 0.20472698 -0.18062061 -0.19527927 0.043956693 -0.30614197
0.2102082 0.18684524 0.033460215 0.2775436 -0.33269957 -0.27946082 -0.032540776 0.14460927
0.11192307 0.30882302 0.35164183 0.036668986 -0.036784705 -0.1764732 -0.14161722 -0.2427166
-0.05113048 -0.057906937 -0.26678446 0.33233726 -0.09930332 -0.20585136 -0.32761464 -0.12501921
0.20381454 0.31680763 -0.047257353 -0.016568668 -0.07399071 -0.1538538 0.02742912 0.15466435
-0.3260506 0.29266122 -0.092935555 -0.035162233 -0.09635528 -0.31573102 0.036008548 0.018045343
-0.3264103 0.24942528 -0.25620797 0.1628466 -0.032539897 -0.2888974 -0.1782286 0.28576463
0.3472654 -0.024084423 -0.030028878 0.1301684 -0.2970111 0.15245628 -0.34561685 0.23404007
-0.15841906 -0.15351637 0.10118097 -0.3066931 -0.25032353 0.055134572 0.2550346 0.32525086
-0.30005935 0.26845688 -0.27176383 0.003362212 0.028779276 0.24330004 -0.20675166 -0.15119404
0.30156267 -0.2906575 -0.31573966 -0.2007781 0.06809739 0.20356472 -0.24030891 -0.21527494
-0.3443582 0.025338188 -0.084649146 -0.1770104 0.096942924 -0.057238393 -0.060353495 -0.16801913
0.30452487 0.155073 -0.099666715 0.041559946 -0.16836892 -0.09232889 -0.0075362255 0.33181775
-0.17955568 -0.0004497558 -0.035676334 0.10744014 -0.24866055 0.1018663 -0.12091408 0.12716511
0.23404641 -0.014854817 0.017365402 -0.2441473 -0.14808914 -0.31348172 -0.317346 0.28199512
-0.09970391 -0.2896262 -0.03900622 0.08141756 0.11349995 0.2461823 -0.3162373 0.16428863
0.24929917 -0.258389 -0.10058165 0.1943683 -0.19875936 -0.30139706 -0.062119815 0.31695098
0.08013899 0.06074491 0.27014595 0.14019798 -0.074297786 0.06845195 0.021973055 -0.14241177
-0.047888424 0.28053594 -0.113962874 0.08932976 -0.005886031 -0.24066533 -0.33243403 -0.011042059
-0.3443526 0.008843831 -0.091067925 0.2712734 0.3825984 0.18503399 0.32754427 0.12919873
-0.20993924 -0.019548297 0.05769231 -0.0607077 -0.0134551935 0.27564988 0.15694563 -0.20160136
-0.20278753 -0.027953705 0.019435242 0.3384084 0.2810076 0.1343869 -0.3285091 0.19206199
00000000: 484b 35be 84a3 e7bd 30d3 ad3e 88e6 ad3e
00000010: c9f5 7a3e 5b33 063e daf0 38bd a8ef 01be
00000020: af94 413e 360c ae3e 0691 7fbe eea2 bf3d
00000030: 8612 17be cbfb 6cbe 113d a3be 0446 b33d
00000040: 8ace 563d 0648 81bd c31a 0abe 87c1 b1bd
00000050: 6529 c0bd d48e 1bbe 045f 933e 5b51 c8bd
00000060: 5641 8b3d 5337 99be 9d08 17be 441f 983e
00000070: 50d2 62be 6ba5 7ebd 428a 2cbc b468 af3e
00000080: 6166 b23e 020e ee3c eb28 ac3e 0b16 30be
00000090: bf9c b53e ffaa b6be 838e 43bc 1c22 243e
000000a0: cea4 cbbd d79b 9e3e f93d a3be d842 8cbe
000000b0: 39f7 f33c cc87 c43d ae16 b13d c74d 913e
000000c0: 460a 11be 1f61 29be b644 62be 11c0 d7bd
000000d0: 0a99 55bd 758e 88be efac c6bd 6b86 d93b
000000e0: 6ddb 9b3e 2ad2 05bd c4f7 8b3e bc3a 2e3d
000000f0: 4c95 d2bd 2c0b a0be 343d 3f3e 7535 a5be
00000100: b616 5bbe d28a 76be 06a9 96be bd9b 153e
00000110: c8dd 6b3e 7bd7 7dbe af5d 9d3e 9a1e 4d3d
00000120: b2ef 4cbe dad1 583e a57b 93be 1ef3 423e
00000130: a8bd ebbc 87ec 1e3e 76b2 55be 5d2e 103e
00000140: 5330 4f3e bf08 89be f861 32be f3a3 513e
00000150: 9cf4 38be 4af7 47be ef0b 343d a4be 9cbe
00000160: d240 573e 5c54 3f3e 940d 093d 321a 8e3e
00000170: 9957 aabe 7d15 8fbe 7a49 05bd 7414 143e
00000180: ec37 e53d 0d1e 9e3e 660a b43e 3832 163d
00000190: 8fab 16bd 64b5 34be 1b04 11be b38a 78be
000001a0: 326e 51bd d32f 6dbd f997 88be 1c28 aa3e
000001b0: 8a5f cbbd b3ca 52be 1bbd a7be 0905 00be
000001c0: c2b4 503e 9c34 a23e ed90 41bd 04bb 87bc
000001d0: 7188 97bd da8b 1dbe 09b3 e03c 5560 1e3e
000001e0: 1bf0 a6be b1d7 953e ff54 bebd 4606 10bd
000001f0: eb55 c5bd 7fa7 a1be b37d 133d d4d3 933c
00000200: 401f a7be 5769 7f3e b12d 83be 42c1 263e
00000210: 8e48 05bd 5cea 93be 8f81 36be be4f 923e
00000220: c5cc b13e b24c c5bc 1fff f5bc dd4a 053e
00000230: d711 98be 801d 1c3e b1f4 b0be 33a8 6f3e
00000240: 9b38 22be 6533 1dbe f837 cf3d e106 9dbe
00000250: 682a 80be cad4 613d e593 823e 4887 a63e
00000260: 61a1 99be 2e73 893e a124 8bbe 8f58 5c3b
00000270: 84c2 eb3c a523 793e b5b6 53be 9cd2 1abe
00000280: 6c66 9a3e 0fd1 94be a1a8 a1be c698 4dbe
00000290: a576 8b3d 4573 503e 8a13 76be 0971 5cbe
000002a0: b84f b0be 0892 cf3c 885c adbd 3742 35be
000002b0: 038a c63d ce72 6abd 3a35 77bd 350d 2cbe
000002c0: afea 9b3e 75cb 1e3e 101e ccbd c33a 2a3d
000002d0: e768 2cbe ee16 bdbd 71f2 f6bb 04e4 a93e
000002e0: 72dd 37be 34cd ebb9 5921 12bd 9309 dc3d
000002f0: dfa0 7ebe 479f d03d cda1 f7bd 9237 023e
00000300: dda9 6f3e 9e61 73bc e341 8e3c c001 7abe
00000310: aea4 17be ad80 a0be 2d7b a2be aa61 903e
00000320: 9031 ccbd e349 94be fcc4 1fbd 40be a63d
00000330: a972 e83d 3617 7c3e dbe9 a1be 473b 283e
00000340: 4848 7f3e 904b 84be c1fd cdbd 7c08 473e
00000350: 9387 4bbe b750 9abe 5971 7ebd 6647 a23e
00000360: e91f a43d a8cf 783d 9250 8a3e 0f90 0f3e
00000370: 7029 98bd 8930 8c3d d600 b43c 64d4 11be
00000380: a726 44bd 68a2 8f3e 5e65 e9bd 85f2 b63d
00000390: 9bdf c0bb f970 76be cb34 aabe c1e9 34bc
000003a0: fc4e b0be b7e5 103c d281 babd 59e4 8a3e
000003b0: f0e3 c33e 8d79 3d3e e2b3 a73e ac4c 043e
000003c0: 50fa 56be c023 a0bc c64e 6c3d a3a8 78bd
000003d0: 2c73 5cbc fb21 8d3e 5bb6 203e 9670 4ebe
000003e0: 89a7 4fbe 2bff e4bc a836 9f3c de43 ad3e
000003f0: 3ae0 8f3e b89c 093e 5832 a8be e6ab 443e

bias f4 [400]
0.21387921 0.039429642 -0.28299144 -0.17540827 -0.2587536 0.31523225 -0.21149628 -0.13602626
0.11823376 0.21914883 -0.014939562 0.03270027 -0.19237949 0.34654665 -0.065008536 -0.17133078
0.08356437 0.09451765 0.23648492 -0.26088387 -0.2516673 0.009899656 0.1702649 0.33783346
-0.32433915 -0.30206314 -0.013694496 0.04020168 -0.27463567 0.3077998 -0.3033751 -0.2782865
-0.05222875 -0.15981059 0.22315016 -0.16644892 0.27862597 -0.19958735 -0.101649135 -0.03168378
-0.089856856 0.25385273 -0.17747985 -0.036965165 -0.28345662 0.1475243 -0.19687282 -0.27664652
-0.18590784 0.3614944 0.3604074 0.1783022 -0.1254721 -0.27329612 0.1330287 0.075127445
-0.2918812 0.15979077 0.15325204 -0.18617862 -0.24242665 -0.124509096 0.29727614 -0.24921304
-0.028879246 0.020550918 0.217045 -0.27054465 0.09915014 -0.19486351 -0.16457926 -0.31703052
0.2602816 0.1791523 -0.27277264 -0.04023752 0.18553284 -0.07415311 0.21063887 0.23271859
-0.2821655 -0.3064429 -0.21001314 -0.22451456 -0.3430615 -0.21307434 -0.17452314 0.17109767
-0.15887113 0.031874172 0.3339184 -0.17277297 -0.12362169 -0.008721029 0.18871866 -0.07296915
-0.089658625 -0.076655544 0.024930548 0.021009164 0.027835725 -0.32633373 0.004089845 -0.1761043
0.35811484 -0.1795067 -0.08457484 0.35250577 -0.057810206 -0.031601224 0.15925889 -0.0693847
-0.16759092 -0.18091005 -0.20662871 -0.089399375 -0.28321898 0.110463865 0.12103147 0.09310374
-0.29864663 -0.2497998 -0.32983494 -0.012291833 0.26291272 -0.24510996 0.1250224 -0.3042384
-0.23849653 0.2806268 -0.17503718 0.35828793 0.29999158 -0.05384377 0.3251195 0.0115135955
0.07490971 0.061902843 0.18300188 -0.23379354 -0.057006735 -0.32505536 -0.2905203 0.03705625
-0.1290349 -0.040704112 -0.25199455 0.022494838 -0.27165833 -0.011497034 0.26097685 0.15124756
-0.07671647 0.22218849 -0.058166448 -0.0066934717 -0.18633914 0.35963157 -0.07742025 -0.14234214
0.26991054 -0.0064083054 -0.061324675 -0.30466208 0.35303453 0.12703307 0.009887043 -0.24651384
0.24967858 -0.13784483 -0.096468575 -0.037361745 0.010845125 0.12722848 -0.1949989 -0.34315598
-0.09340382 -0.07899573 -0.25007156 -0.18388274 -0.30627573 0.26717195 0.05856189 -0.21449073
-0.33191553 0.12389193 -0.025516184 -0.033776276 0.0071623526 -0.27107978 0.3584451 -0.2715925
0.03700186 -0.33780962 -0.043924607 -0.22905974 0.1427682 0.16235472 -0.22052714 0.020700358
0.28633937 0.36831936 -0.28023672 0.090083376 -0.33263496 -0.10203665 -0.14298451 0.35063058
-0.08704294 -0.24119073 0.01927635 -0.33281824 0.36508408 0.2300074 0.23620375 0.14558494
0.11181555 0.19721553 -0.18690461 0.2575377 -0.15484856 0.30027357 0.0453007 -0.24485286
-0.3064416 -0.17990284 0.18079746 0.069205284 0.10479898 0.23097816 0.22274828 0.30344757
0.33152372 -0.3176693 0.09004897 0.12605436 0.23587641 -0.22165324 0.036546864 0.043091692
-0.25277928 -0.017505622 -0.03042055 -0.10122162 0.2937071 0.26707995 0.108953215 0.14219578
0.008253436 -0.15109505 -0.32491618 0.038087748 0.2611941 0.2270585 0.28315902 0.16589153
00000000: 2703 5b3e fa80 213d 41e4 90be 3a9e 33be
00000010: 5a7b 84be 1f66 a13e 7b92 58be 784a 0bbe
00000020: 8b24 f23d 8d68 603e 11c5 74bc b8f0 053d
00000030: 21ff 44be 906e b13e 3223 85bd 5671 2fbe
00000040: cc23 ab3d 7892 c13d 1a29 723e 9292 85be
00000050: 89da 80be 2b32 223c ec59 2e3e 82f8 ac3e
00000060: c80f a6be 05a8 9abe e15e 60bc 84aa 243d
00000070: 0c9d 8cbe ef97 9d3e fb53 9bbe 917b 8ebe
00000080: d0ed 55bd 63a5 23be 7a81 643e 9671 2abe
00000090: 10a8 8e3e a060 4cbe 6c2d d0bd dac6 01bd
000000a0: df06 b8bd fcf8 813e 47bd 35be c968 17bd
000000b0: 3a21 91be 9c10 173e 0799 49be 9da4 8dbe
000000c0: a05e 3ebe cb15 b93e 5287 b83e da94 363e
000000d0: c27b 00be 78ed 8bbe ad38 083e 6bdc 993d
000000e0: 7471 95be 31a0 233e 1aee 1c3e 9ca5 3ebe
000000f0: b13e 78be a0fe febd 9434 983e b431 7fbe
00000100: 2b94 ecbc 665a a83c 0b41 5e3e d484 8abe
00000110: 3b0f cb3d 4d8a 47be 7787 28be d351 a2be
00000120: a143 853e b373 373e dba8 8bbe 19d0 24bd
00000130: 52fc 3d3e 96dd 97bd b7b1 573e c84d 6e3e
00000140: ff77 90be 15e6 9cbe af0d 57be 25e7 65be
00000150: c2a5 afbe 2930 5abe 32b6 32be 3a34 2f3e
00000160: 1daf 22be 7e8e 023d 5af7 aa3e 66eb 30be
00000170: 5e2d fdbd a6e2 0ebc 773f 413e da70 95bd
00000180: f19e b7bd 95fd 9cbd 263b cc3c 691b ac3c
00000190: bf07 e43c 3715 a7be 1b04 863b b054 34be
000001a0: d45a b73e 9bd0 37be 9335 adbd a37b b43e
000001b0: 65ca 6cbd 4970 01bd c314 233e 9119 8ebd
000001c0: f49c 2bbe 7c40 39be 7a96 53be 0517 b7bd
000001d0: 1402 91be e13a e23d 59df f73d 2cad be3d
000001e0: 36e8 98be 85cb 7fbe 20e0 a8be af63 49bc
000001f0: 7f9c 863e 1bfe 7abe df05 003e 23c5 9bbe
00000200: 6f38 74be 51ae 8f3e f23c 33be 8471 b73e
00000210: 7f98 993e 498b 5cbd 1076 a63e 85a3 3c3c
00000220: 436a 993d d68d 7d3d d864 3b3e 9367 6fbe
00000230: e57f 69bd a86d a6be 14bf 94be 4bc8 173d
00000240: ba21 04be 5bb9 26bd 6e05 81be 1847 b83c
00000250: cd16 8bbe 0e5e 3cbc c29e 853e a4e0 1a3e
00000260: 861d 9dbd 6185 633e f13f 6ebd e954 dbbb
00000270: b0cf 3ebe a121 b83e 828e 9ebd 23c2 11be
00000280: b731 8a3e c3fc d1bb 952f 7bbd abfc 9bbe
00000290: f1c0 b43e f514 023e 44fd 213c 206e 7cbe
000002a0: beab 7f3e 3227 0dbe 5191 c5bd a108 19bd
000002b0: c0af 313c 2f48 023e cbad 47be 24b2 afbe
000002c0: 814a bfbd 83c8 a1bd 6109 80be c24b 3cbe
000002d0: 2cd0 9cbe c3ca 883e 98de 6f3d 75a3 5bbe
000002e0: d5f0 a9be 0dbb fd3d 5107 d1bc fe58 0abd
000002f0: 2bb2 ea3b f8ca 8abe 1e86 b73e 2c0e 8bbe
00000300: 438f 173d 62f5 acbe 4aea 33bd a38e 6abe
00000310: d431 123e 5140 263e ded1 61be cc93 a93c
00000320: 139b 923e 5b94 bc3e 307b 8fbe a27d b83d
00000330: 214f aabe 97f8 d0bd 886a 12be da85 b33e
00000340: 9243 b2bd b4fa 76be 70e9 9d3c 2767 aabe
00000350: 4dec ba3e 0f87 6b3e 65df 713e 3814 153e
00000360: 8dff e43d def2 493e ec63 3fbe fbdb 833e
00000370: 9f90 1ebe 75bd 993e 3a8d 393d b5ba 7abe
00000380: eae5 9cbe 7338 38be f822 393e 80bb 8d3d
00000390: d9a0 d63d 8a85 6c3e 2018 643e 7b5d 9b3e
000003a0: 7abd a93e 8da5 a2be 986b b83d 6514 013e
000003b0: 9689 713e 11f9 62be 2ab2 153d ea80 303d
000003c0: 496c 81be f367 8fbc 8434 f9bc 484d cfbd
000003d0: c760 963e b4be 883e dd22 df3d c59b 113e
000003e0: 6b39 073c a9b8 1abe 6a5b a6be e601 1c3d
000003f0: 3cbb 853e 0682 683e 38fa 903e 78df 293e

weight f4 [200, 400]
-0.0026896116 0.0414379 -0.044593573 0.009118626 0.040804613 0.024520194 0.007427576 -0.041035127
0.042866502 0.040019024 -0.027740318 -0.018738495 0.014689411 0.034694377 0.057946835 0.0055089705
0.043434888 0.021834023 -0.020773835 -0.026572652 0.018168608 -0.045629915 0.026782794 0.05578694
0.009701358 0.010687103 0.005781641 -0.006181864 -0.038497947 -0.010288648 0.02576365 0.010296518
-0.016424615 -0.015270675 0.047837738 0.033039063 0.0036864602 -0.005013694 -0.023091016 -0.039582893
0.04615984 -0.013374365 0.04827998 0.050678883 0.038846206 0.032112893 -0.03668987 0.04272161
0.055835143 0.022333346 -0.022297896 -0.03238549 0.035864346 -0.0052076085 0.026487406 -0.0072997236
-0.02567182 -0.024907695 0.007323981 -0.028938292 -0.011520031 0.011983972 0.018342014 -0.0018209933
0.05005307 0.050620537 -0.028983712 0.04785363 -0.014199691 -0.012784294 0.03674506 -0.04156091
0.019949378 -0.052043512 -0.033587452 0.055287886 -0.014353439 -0.032343514 0.030653939 -0.042410795
0.049698643 -0.03218287 -0.0080891475 0.03045178 -0.021229554 0.0013636197 -0.0012039593 -0.029967215
0.0011994223 -0.04144423 -0.029807333 -0.032167833 0.043978874 -0.031667765 0.02887522 -0.03567301
0.055042353 -0.033582415 0.025288632 -0.018153885 0.0041061086 0.031451363 -0.02537439 0.041961826
0.010136503 0.026232041 -0.03153293 -0.009751942 -0.050889052 0.0377322 0.021854253 0.012955623
-0.024658037 -0.037214153 -0.004132536 0.046284363 -0.021352284 0.04974191 -0.02983719 0.020055974
0.044609215 0.006270476 -0.010531103 0.0451389 -0.04088981 -0.032059528 0.024322813 0.019844921
0.025087798 -0.0339201 0.0029124175 0.031400636 0.018787427 0.040444344 0.02730275 0.02635644
-0.023958601 -0.02639669 0.03125989 0.009583296 -0.015987672 0.03718763 -0.003750311 -0.034848824
0.028980883 0.0039414586 -0.051290024 -0.021953953 0.0397471 8.643965e-05 0.03153072 0.0057427897
-0.0003894247 0.021851134 0.0037090583 0.031834032 0.04363902 0.017085543 -0.034813665 0.027088365
-0.001996787 -0.012780747 -0.041813556 -0.004108062 -0.034610037 0.025915423 -0.044128615 -0.005045512
-0.023013296 -0.016000895 0.0056442353 0.056365203 0.042114764 0.040790148 -0.04085881 0.044628248
-0.011223504 0.0103113325 -0.033581622 0.030958226 -0.017413415 0.0587647 -0.040199153 0.034701467
0.024171019 0.04480175 0.034835186 0.000788172 0.03931389 0.02969208 -0.0037093281 -0.03728307
-0.047995538 0.03992946 0.04520905 0.035614613 -0.011121306 0.031770736 -0.010904464 0.008228605
0.050207287 -0.0022178777 0.0386894 -0.029136438 -0.0032296837 -0.009366903 -0.035178684 0.022779418
-0.03571721 0.020963812 0.05140919 0.009477072 0.039428845 0.0049827695 -0.03238708 -0.021702947
-0.036946654 0.0547297 0.044031188 0.038037702 0.033525713 -0.0063857976 -0.02397648 0.03666523
-0.028359292 0.0076548643 0.03469644 -0.03513679 -0.038243853 0.004552768 -0.05948736 0.060659405
0.0066880602 0.047296364 -0.00965243 0.036768436 -0.029535815 -0.034040328 -0.041780364 0.04096085
-0.036498476 0.02530103 0.024361935 -0.027696813 0.02714767 0.033304837 0.044001285 0.010349224
0.0040726904 0.00070801406 0.014560596 -0.003470976 -0.014545631 0.005072702 0.007371637 -0.009482965
00000000: 3244 30bb caba 293d c0a7 36bd 4a66 153c
00000010: bd22 273d 93de c83c 0663 f33b 7314 28bd
00000020: c994 2f3d fdea 233d aa3f e3bc 7981 99bc
00000030: dbab 703c b11b 0e3d a959 6d3d 9884 b43b
00000040: c8e8 313d 44dd b23c e42d aabc e4ae d9bc
00000050: 55d6 943c 6fe6 3abd 9767 db3c d980 643d
00000060: 72f2 1e3c f518 2f3c ec73 bd3b 3c91 cabb
00000070: 06b0 1dbd b891 28bc 4a0e d33c bab2 283c
00000080: ea8c 86bc da31 7abc 81f1 433d f853 073d
00000090: 8a98 713b ea49 a4bb 5f29 bdbc ac21 22bd
000000a0: 1a12 3d3d 2720 5bbc 3ac1 453d a994 4f3d
000000b0: 331d 1f3d cf88 033d 1e48 16bd dbfc 2e3d
000000c0: 64b3 643d 6cf4 b63c 14aa b6bc a6a6 04bd
000000d0: 7ee6 123d 96a4 aabb 1efc d83c 8532 efbb
000000e0: b54d d2bc 390b ccbc 01fe ef3b ff0f edbc
000000f0: 83be 3cbc 6c58 443c fe41 963c 65ae eeba
00000100: 7304 4d3d 7b57 4f3d 406f edbc 2b02 443d
00000110: d2a5 68bc 3775 51bc fd81 163d c63b 2abd
00000120: e16c a33c 942b 55bd ff92 09bd 8d75 623d
00000130: b02a 6bbc a27a 04bd f81d fb3c f1b6 2dbd
00000140: ce90 4b3d 2fd2 03bd 5888 04bc 0376 f93c
00000150: 9ae9 adbc 7cbb b23a 2cce 9dba ce7d f5bc
00000160: ef35 9d3a 6dc1 29bd 822e f4bc 6bc2 03bd
00000170: 3123 343d 0fb6 01bd ba8b ec3c dd1d 12bd
00000180: 1774 613d b78d 09bd 1b2a cf3c 75b7 94bc
00000190: 898c 863b 25d3 003d f4dd cfbc 2ae0 2b3d
000001a0: 9313 263c 94e4 d63c ac28 01bd 9cc6 1fbc
000001b0: 0a71 50bd 148d 1a3d b107 b33c d243 543c
000001c0: a7ff c9bc de6d 18bd 396a 87bb ac94 3d3d
000001d0: fcea aebc 2cbe 4b3d 1f6d f4bc 6d4c a43c
000001e0: 27b8 363d 9178 cd3b a68a 2cbc 91e3 383d
000001f0: 137c 27bd da50 03bd a340 c73c d191 a23c
00000200: ed84 cd3c ceef 0abd 42de 3e3b f49d 003d
00000210: 17e8 993c f8a8 253d 04aa df3c 76e9 d73c
00000220: d444 c4bc df3d d8bc 5f0a 003d 4203 1d3c
00000230: 94f8 82bc 0e52 183d c7c7 75bb a4bd 0ebd
00000240: 5169 ed3c 5a27 813b 7d15 52bd c7d8 b3bc
00000250: dbcd 223d ef46 b538 5b26 013d 032e bc3b
00000260: b32b ccb9 2601 b33c ac13 733b 6764 023d
00000270: d4be 323d fbf6 8b3c c698 0ebd 6be8 dd3c
00000280: 87dc 02bb 5766 51bc b144 2bbd ec9c 86bb
00000290: 41c3 0dbd 954c d43c 35c0 34bd d354 a5bb
000002a0: 6186 bcbc 4f14 83bc 47f3 b83b 33df 663d
000002b0: 8880 2c3d 9213 273d 915b 27bd 1ccc 363d
000002c0: cae2 37bc ddf0 283c e28c 09bd 1b9c fd3c
000002d0: 94a6 8ebc 41b3 703d dea7 24bd 2023 0e3d
000002e0: 4d02 c63c 0a82 373d 57af 0e3d 549d 4e3a
000002f0: 9a07 213d ce3c f33c 3318 73bb 22b6 18bd
00000300: f896 44bd 138d 233d 202d 393d a1e0 113d
00000310: 2336 36bc 0822 023d a3a8 32bc 45d1 063c
00000320: 28a6 4d3d d059 11bb c778 1e3d 8aaf eebc
00000330: 1aa9 53bb a477 19bc 8617 10bd e79b ba3c
00000340: 364c 12bd 4dbc ab3c 7192 523d b945 1b3c
00000350: 2480 213d 8046 a33b 51a8 04bd 61ca b1bc
00000360: 6055 17bd 402c 603d 0c5a 343d 6ccd 1b3d
00000370: 4252 093d f43f d1bb 536a c4bc 482e 163d
00000380: bf51 e8bc a8d5 fa3b db1d 0e3d 98eb 0fbd
00000390: 96a5 1cbd 632f 953b 05a9 73bd ff75 783d
000003a0: 8427 db3b d5b9 413d 3a25 1ebc 809a 163d
000003b0: 18f5 f1bc df6d 0bbd e321 2bbd 90c6 273d
000003c0: 6d7f 15bd 1b44 cf3c ae92 c73c 6de4 e2bc
000003d0: ca64 de3c a76a 083d b13a 343d cb8f 293c
000003e0: 3474 853b 059a 393a 918f 6e3c 5079 63bb
000003f0: cc50 6ebc e938 a63b c68d f13b 705e 1bbc

bias f4 [200]
0.007616478 -0.0059759174 -0.03546873 0.007828956 -0.0068818433 -0.005967551 -0.031862896 -0.036418118
-0.021188168 -0.031812284 -0.018827252 -0.041115154 -0.006352526 0.034972623 0.00038098203 -0.006089407
0.013698344 0.013810919 -0.005325205 -0.02646783 0.03808368 -0.019100914 -0.043786168 0.0355225
0.0038977906 0.049897626 0.02966411 -0.040650483 -0.020859163 -0.04445048 0.013009327 -0.022228519
-0.029484292 0.017099315 -0.010582459 -0.045379326 0.02052542 0.028946027 0.0047381995 -0.02513999
0.017293286 -0.039716206 0.039188225 0.029378334 -0.0092529 -0.028067851 0.024407012 0.0076286066
0.026724234 -0.0058778273 -0.003654493 -0.027372276 -0.003214539 -0.04249138 0.01150182 -0.018912816
0.008579452 0.048427135 0.037725 0.006472341 0.0016466997 0.023250869 0.0048709163 -0.033168193
0.029162612 -0.0057451157 0.0023100513 -0.01752981 0.030244352 -0.024046067 -0.030609127 0.033363514
0.03173463 -0.02785266 0.011797558 0.003926942 -0.00484978 -0.040221855 -0.0096997265 -0.013667916
-0.002322281 0.020254795 0.026916152 -0.00612534 -0.011068162 0.05317262 -0.04836836 0.0436965
-0.014547774 0.011911483 -0.024751274 0.0048233923 -0.043333262 0.0023220852 -0.0037154828 0.0049636518
0.027466236 0.010593416 -0.034174215 -0.041459527 0.040136613 -0.032786064 -0.032344118 -0.021982834
-0.031014536 0.0043266895 0.027455835 0.02830846 -0.051765602 -0.010406485 -0.0010389686 -0.018529758
0.03871215 0.04077386 -0.019979056 -0.017432787 -0.0049238056 0.033831894 -0.0384703 -0.02127451
0.039040215 0.03621584 -0.00087124517 0.051915366 0.015410405 0.025866743 0.030463817 0.044485755
0.05787734 -0.03947783 0.025392208 -0.043036014 0.016442433 0.035756957 -0.031810217 0.040313244
0.019050173 -0.041114062 0.05069723 0.028914249 0.03889071 2.9307272e-05 0.047804013 0.032849964
0.040978577 -0.012998304 0.013269843 0.02873543 -0.0076167793 -0.044011537 -0.030446611 0.018261217
0.03164216 0.042533517 0.022229377 -0.047112435 0.025076292 -0.020446526 0.03819266 0.041235328
0.04769465 -0.034541886 0.027964976 -0.03776853 -0.035185203 0.0038935652 -0.019088691 -0.0032713057
0.029814567 -0.013534454 0.030096935 0.037531022 0.038801212 0.03190143 0.029213047 -0.039226707
-0.03645788 0.024134029 0.009443092 0.0133167505 -0.0026917416 0.054951355 -0.0039287624 0.04682362
-0.03537298 -0.0044379737 -0.04234731 -0.042677756 0.043086138 -0.0014086108 0.026152082 0.052335028
0.00017718987 -0.013016426 0.035196133 0.011980123 0.047927093 0.03623578 0.033408783 -0.013231823
00000000: a693 f93b a1d1 c3bb a947 11bd 0545 003c
00000010: 1681 e1bb 728b c3bb ab82 02bd 2a2b 15bd
00000020: cf92 adbc 994d 02bd 9c3b 9abc 5d68 28bd
00000030: da28 d0bb 743f 0f3d 8bbe c739 a689 c7bb
00000040: 056f 603c 3147 623c 0f7f aebb 10d3 d8bc
00000050: a2fd 1b3d 8579 9cbc 2059 33bd 0a80 113d
00000060: 1372 7f3b 7461 4c3d 2602 f33c 1f81 26bd
00000070: d6e0 aabc b511 36bd 1325 553c 9518 b6bc
00000080: 0b89 f1bc dd13 8c3c 0d62 2dbc acdf 39bd
00000090: ed24 a83c 3820 ed3c e642 9b3b 61f2 cdbc
000000a0: a6aa 8d3c 76ad 22bd d583 203d d5aa f03c
000000b0: 7a99 17bc 8dee e5bc 37f1 c73c 64f9 f93b
000000c0: c8ec da3c ca9a c0bb 3880 6fbb d33b e0bc
000000d0: 04ab 52bb 710b 2ebd 2172 3c3c 0def 9abc
000000e0: d490 0c3c 885b 463d 8885 1a3d ee15 d43b
000000f0: 13d6 d73a 9b78 be3c 359c 9f3b 5fdb 07bd
00000100: 6ee6 ee3c 8641 bcbb 3b64 173b ad9a 8fbc
00000110: 01c3 f73c 42fc c4bc febf fabc 2ea8 083d
00000120: 2cfc 013d 432b e4bc 8b4a 413c 94ad 803b
00000130: e7ea 9ebb acbf 24bd 9aeb 1ebc 65ef 5fbc
00000140: 6931 18bb 62ed a53c 437f dc3c 13b7 c8bb
00000150: 3c57 35bc 88cb 593d e71d 46bd 1afb 323d
00000160: c959 6ebc 6128 433c 2fc3 cabc 8c0d 9e3b
00000170: 387e 31bd 202e 183b 757f 73bb 21a6 a23b
00000180: df00 e13c 0290 2d3c 43fa 0bbd 77d1 29bd
00000190: 4a66 243d ae4a 06bd 447b 04bd 5815 b4bc
000001a0: 3212 febc e7c6 8d3b 0feb e03c 25e7 e73c
000001b0: 2b08 54bd f67f 2abc 002e 88ba b8cb 97bc
000001c0: a290 1e3d 7e02 273d 1eab a3bc 34cf 8ebc
000001d0: e057 a1bb 5093 0a3d 0993 1dbd e247 aebc
000001e0: a2e8 1f3d 1057 143d 4664 64ba 35a5 543d
000001f0: ec7b 7c3c 7ee6 d33c 418f f93c b236 363d
00000200: ca10 6d3d 81b3 21bd 5203 d03c 8846 30bd
00000210: 48b2 863c e375 123d 6e4b 02bd 801f 253d
00000220: 1c0f 9c3c 3867 28bd e6a7 4f3d 93dd ec3c
00000230: dd4b 1f3d e3d8 f537 24ce 433d af8d 063d
00000240: 27d9 273d d7f6 54bc c169 593c 9166 eb3c
00000250: 2d96 f9bb 7145 34bd 2c6b f9bc 8c98 953c
00000260: 369b 013d a037 2e3d 621a b63c f8f8 40bd
00000270: cc6c cd3c 797f a7bc e86f 1c3d 60e6 283d
00000280: 775b 433d cb7b 0dbd ce16 e53c 2db3 1abd
00000290: 5c1e 10bd 2f2b 7f3b e35f 9cbc 6763 56bb
000002a0: ae3d f43c 9dbf 5dbc d98d f63c 21ba 193d
000002b0: 05ee 1e3d 13ab 023d 3350 ef3c 2fac 20bd
000002c0: dc54 15bd bab4 c53c 33b7 1a3c 802e 5a3c
000002d0: ee67 30bb ac14 613d d9bc 80bb 20ca 3f3d
000002e0: 42e3 10bd 6c6c 91bb 5f74 2dbd dfce 2ebd
000002f0: 177b 303d 23a1 b8ba e43c d63c 415d 563d
00000300: 0bcc 3939 d942 55bc d229 103d 4748 443c
00000310: 334f 443d f86b 143d a6d7 083d 4aca 58bc

weight f4 [2, 200]
-0.06535649 0.028563978 0.045491226 -0.031043794 0.060823623 -0.028729834 -0.05997165 -0.010239934
-0.03157537 0.061629474 0.03961125 -0.04268854 -0.0014640547 0.06347155 0.032684352 -0.07798165
-0.03580517 -0.07701315 0.003847461 0.061288282 0.055618398 -0.058640823 0.05329342 -0.040262114
0.022807319 0.029793791 0.01867269 0.011070579 0.05170996 -0.07090706 -0.08150694 -0.039187662
-0.023052521 0.07135104 0.03017984 0.017819175 -0.07242972 0.076108195 -0.039353102 0.010221532
-0.016832037 0.050304633 0.07496947 0.009464148 -0.013758636 0.04486748 -0.0070709707 -0.018782847
0.026504496 -0.012874609 0.06520756 0.045273278 0.0067541567 0.036946584 0.035598684 0.019912902
0.019608429 -0.024067117 -0.034666374 0.023855643 -0.0017049483 0.021552581 -0.063889615 -0.015565587
0.07040123 0.009918662 0.07209426 -0.06908163 -0.009710507 -0.04018326 -0.023533009 -0.07728249
-0.041825492 -0.02134924 -0.074832566 -0.039405696 0.038410876 0.05987918 0.0640976 -0.041316397
0.029608805 -0.036340583 0.032220688 0.044348076 0.033492927 0.047319394 0.055831276 0.007236141
0.01539253 0.049714796 0.053970765 0.0813998 -0.0769727 0.042219575 0.05617106 -0.06821913
-0.039799698 -0.04445922 0.05512019 0.0038403901 -0.069577076 0.024678873 0.009425639 0.022229338
-0.06534328 0.012005508 -0.011050675 -0.05528411 -0.05561019 0.009599939 0.04629039 0.02278194
0.03377008 0.03705639 0.07171828 -0.066364534 -0.016087597 0.026147591 0.06204734 -0.046255443
0.042611063 0.024921617 -0.02334417 -0.015239028 -0.041373417 0.037040677 -0.019230979 -0.062186755
-0.017271122 -0.044734295 0.058926176 -0.06800401 0.059576456 0.064746715 -0.052023754 -0.00611893
0.0006231616 0.07365269 0.07687367 0.03758443 -0.0517003 0.06080017 -0.03513515 -0.032672096
-0.04973743 -0.053300824 -0.023622947 0.0754211 -0.03149226 -0.061803825 -0.005186647 0.013646851
0.024630418 -0.060851708 0.019638706 0.06556583 0.055916898 0.0550503 0.017462654 -0.030839687
0.0647394 0.022307511 -0.03675411 -0.06393144 0.038078535 0.072109096 0.020958638 0.04095031
-0.07220462 -0.043871034 -0.0472114 0.037982274 0.033079088 -0.037577383 0.015568572 -0.054883547
-0.067197606 -0.01745123 -0.040995385 0.016825702 0.008227994 0.0814599 -0.048893172 0.00065493234
0.07679131 0.017580744 0.053657666 0.069143735 -0.0588814 0.07137103 0.011898614 0.008498737
0.043112557 0.04620408 0.04392705 -0.035532515 -0.06346814 -0.04900212 -0.055207524 -0.024373643
-0.06652544 -0.02896398 0.081178896 -0.04413528 -0.04131374 -0.036914714 0.0012028656 -0.056694575
-0.044992153 -0.009015001 -0.05306828 0.053541284 -0.06373886 -0.0031019838 0.038425695 -0.039312467
0.0252417 0.013796691 -0.036503732 -0.08481593 -0.0460097 0.007834565 0.010169414 0.08179373
-0.07292773 -0.036567923 0.016538486 0.005286031 0.01996653 0.029623061 0.047679678 0.03600589
-0.06908497 -0.077933006 -0.036243156 -0.072253935 -0.043822426 0.017211143 0.073845826 0.022282945
-0.03237516 -0.06274435 -0.0042663016 -0.0653327 0.030525569 -0.022169538 -0.06724605 -0.041722845
0.007231785 0.024753213 -0.018616706 0.06392309 -0.08114356 -0.036089897 0.08525343 -0.0649082
00000000: a0d9 85bd 01ff e93c 0255 3a3d 8e4f febc
00000010: 3122 793d d45a ebbc d5a4 75bd 65c5 27bc
00000020: 2d55 01bd 306f 7c3d 683f 223d 2eda 2ebd
00000030: 86e5 bfba 5ffd 813d 07e0 053d d8b4 9fbd
00000040: 71a8 12bd 12b9 9dbd af25 7c3b 6c09 7b3d
00000050: 1ed0 633d 5c31 70bd 334a 5a3d e3e9 24bd
00000060: 6ad6 ba3c 1c12 f43c 78f7 983c 6061 353c
00000070: d3cd 533d b837 91bd 1ced a6bd 3e83 20bd
00000080: a4d8 bcbc 7e20 923d b63b f73c 85f9 913c
00000090: 0856 94bd 9dde 9b3d b830 21bd 3678 273c
000000a0: 57e3 89bc 3b0c 4e3d 9889 993d 840f 1b3c
000000b0: e76b 61bc f6c6 373d 9ab3 e7bb 7cde 99bc
000000c0: f51f d93c 06f0 52bc 8b8b 853d 7970 393d
000000d0: f951 dd3b 4d55 173d edcf 113d 6220 a33c
000000e0: dba1 a03c 6728 c5bc 54fe 0dbd e96c c33c
000000f0: 9278 dfba 0a8f b03c 8fd8 82bd ce06 7fbc
00000100: 852e 903d e281 223c 28a6 933d ab7a 8dbd
00000110: d118 1fbc 3497 24bd 4cc8 c0bc 4846 9ebd
00000120: 3551 2bbd 9ae4 aebc d141 99bd de67 21bd
00000130: b954 1d3d df43 753d 9a45 833d 623b 29bd
00000140: 2a8e f23c ddd9 14bd d7f9 033d 54a6 353d
00000150: e12f 093d fbd1 413d 56af 643d 261d ed3b
00000160: f330 7c3c bea1 4b3d 7310 5d3d f0b4 a63d
00000170: dda3 9dbd 6fee 2c3d a013 663d 79b6 8bbd
00000180: 0205 23bd df1a 36bd b5c5 613d 0eaf 7b3b
00000190: 6d7e 8ebd 592b ca3c ff6d 1a3c 4d1a b63c
000001a0: b3d2 85bd c0b2 443c e40d 35bc 9771 62bd
000001b0: 83c7 63bd 1049 1d3c fe9a 3d3d 31a1 ba3c
000001c0: 7f52 0a3d 71c8 173d 09e1 923d 21ea 87bd
000001d0: 23ca 83bc 7933 d63c 5a25 7e3d 5976 3dbd
000001e0: f088 2e3d 6b28 cc3c 463c bfbc 1ead 79bc
000001f0: 2c77 29bd f7b7 173d 498a 9dbc 8ab7 7ebd
00000200: 2b7c 8dbc 4f3b 37bd 935c 713d b045 8bbd
00000210: 7106 743d ed99 843d dc16 55bd 4e81 c8bb
00000220: ab5b 233a 39d7 963d f16f 9d3d 22f2 193d
00000230: b2c3 53bd 9909 793d e0e9 0fbd 2dd3 05bd
00000240: 7ab9 4bbd f751 5abd e984 c1bc 6176 9a3d
00000250: 07fe 00bd 0226 7dbd c0f4 a9bb 0b97 5f3c
00000260: bbc5 c93c a43f 79bd 5ae1 a03c 6147 863d
00000270: 1e09 653d 6c7c 613d d70d 8f3c 83a3 fcbc
00000280: 1796 843d 3ebe b63c 7a8b 16bd 7dee 82bd
00000290: 3df8 1b3d efad 933d 73b1 ab3c 83bb 273d
000002a0: 04e0 93bd 1db2 33bd be60 41bd 4d93 1b3d
000002b0: f07d 073d beea 19bd 5313 7f3c 92cd 60bd
000002c0: e69e 89bd e2f5 8ebc c7ea 27bd 0ed6 893c
000002d0: b5ce 063c 73d4 a63d 3544 48bd c4af 2b3a
000002e0: c344 9d3d 7e05 903c 24c8 5b3d 3b9b 8d3d
000002f0: 9f2d 71bd f92a 923d 67f2 423c 493e 0b3c
00000300: cb96 303d 7d40 3d3d daec 333d 8b8a 11bd
00000310: 96fb 81bd 72b6 48bd 4921 62bd 3cab c7bc
00000320: 7d3e 88bd de45 edbc 1f41 a63d 32c7 34bd
00000330: 9938 29bd e233 17bd 79a9 9d3a 9238 68bd
00000340: b149 38bd a8b3 13bc 205e 59bd 1b4e 5b3d
00000350: 8589 82bd a74a 4bbb 4364 1d3d 1c06 21bd
00000360: aec7 ce3c 840b 623c f084 15bd f9b3 adbd
00000370: ab74 3cbd 8c5c 003c 9d9d 263c 7983 a73d
00000380: 225b 95bd 3fc8 15bd b87b 873c 7136 ad3b
00000390: d990 a33c 10ac f23c c44b 433d ea7a 133d
000003a0: 6c7c 8dbd 579b 9fbd b473 14bd dff9 93bd
000003b0: 257f 33bd 62fe 8c3c 7b3c 973d b98a b63c
000003c0: d19b 04bd 1c80 80bd 55cc 8bbb 27cd 85bd
000003d0: c210 fa3c e49c b5bc 4cb8 89bd 93e5 2abd
000003e0: 9cf8 ec3b 40c7 ca3c 1082 98bc 1cea 823d
000003f0: 982e a6bd 00d3 13bd 5a99 ae3d 97ee 84bd

bias f4 [2]
-0.031523224 0.03748452
00000000: 7f1e 01bd 5e89 193d

weight f4 [200, 400]
-0.0040361956 0.004508905 0.02494381 -0.03117715 0.02013444 -0.018597638 -0.02610644 0.030294994
-0.012261276 -0.049479514 -0.0303947 -0.050159957 0.020239918 0.00291039 -0.026019165 0.046219174
0.049156927 -0.01858452 -0.008376341 0.008402977 0.042753078 -0.035549156 -0.027745388 0.004915473
0.028360646 -0.016914194 0.030124579 -0.016079482 0.018713703 -0.00979184 0.0007811206 0.0044927592
-0.029685987 0.044497233 -0.025302527 0.043794382 0.028738007 0.0002903611 0.016848449 0.03980261
-0.04764423 -0.050191555 -0.028350765 0.04594753 0.03255335 0.022225827 0.01138254 0.01366518
-0.04420019 -0.04406715 0.040142436 -0.002993969 -0.00916137 -0.00650596 0.0012974091 -0.009339141
0.029346133 0.02563817 -0.04342703 -0.0011163711 -0.005779697 0.016337669 0.028271578 -0.030222984
0.049547236 0.01159986 0.04155976 -0.015215178 0.0052969297 0.038478136 0.03180093 0.04087933
0.033304643 -0.0011706286 0.018447861 -0.034364805 -0.045690477 0.020568129 -0.0037678084 0.048205607
0.03714612 -0.022672944 -0.048616078 0.023693064 0.049230013 0.019042728 -0.009928157 0.017546358
-0.0043404987 0.03162741 -0.011942359 0.019364143 -0.008606245 -0.030321645 0.032326747 0.0014177519
-0.04266336 0.023791049 -0.031534053 -0.011938791 -0.02436745 0.039889384 -0.02161161 -0.012163406
0.048248082 0.040515408 0.01005452 0.012757456 0.013399681 -0.011542016 -0.023397278 0.03965107
0.02639195 -0.020132259 0.0005699672 -0.035373632 -0.016124582 -0.037451003 0.012192414 0.034015644
0.03821316 -0.0047653383 -0.0036790583 -0.024929289 -0.042027783 -0.017484343 -0.004853179 -0.03968607
0.0059303506 -0.009603658 -0.0018779029 0.011373244 -0.0005982261 0.016730621 -0.027227923 -0.036058355
-0.019651862 -0.048347916 0.017538691 -0.026422605 -0.04595607 0.0019555145 0.011088918 0.02501058
0.050574746 0.0117735965 0.014335157 0.024230616 0.023520112 -0.0088923825 -0.00082357565 -0.047502287
-0.012759314 -0.023649862 0.02438942 0.034254342 0.010176531 0.027036143 -0.050562367 -0.013797417
0.013333298 0.0044151107 0.007128956 -0.024559092 -0.0062873806 0.015430521 0.018116161 0.006949804
-0.048631176 -0.013718743 -0.013636814 -0.032362327 -0.026091184 0.008708769 -0.012333181 -0.049358536
0.032392606 0.013045413 -0.050982606 0.03203105 0.0016205721 0.039455377 -0.049791303 -0.003546701
-0.017353065 -0.027616208 -0.0074432264 -0.04488957 -0.0008466305 0.019226577 -0.009787142 0.014695044
-0.022605142 0.018349187 0.049910076 0.032666914 -0.027542159 -0.048250142 -0.006123055 -0.024689173
0.023556506 0.019634763 -0.030505037 -0.011624829 0.039000213 0.01166803 -0.022339197 0.040438507
0.008848045 0.037600458 0.040793415 -0.0270964 0.00806409 -0.016847726 0.02462417 -0.045808047
-0.050261326 0.026868809 -0.03619299 -0.04657187 -0.043225788 0.0036636663 0.046816822 0.0072596767
0.033040166 0.031950444 -0.03316173 -0.035899617 0.011436167 -0.04972342 -0.014774596 -0.049286798
0.007316362 -0.0019683877 0.005631702 0.024999142 0.01667563 0.02474174 0.025549045 0.012496476
-0.024926485 0.051128667 -0.030655716 0.02465339 -0.0056016394 -0.003989987 -0.031772293 0.040171742
-0.04532583 -0.039562806 0.00063317426 -0.043475173 -0.0021787928 0.026574155 -0.03253459 -0.02023124
00000000: 1042 84bb 70bf 933b f656 cc3c 3967 ffbc
00000010: fbf0 a43c 135a 98bc 2cdd d5bc 352d f83c
00000020: 85e3 48bc 08ab 4abd 4efe f8bc 8774 4dbd
00000030: 2fce a53c 3ebc 3e3b 2526 d5bc 5150 3d3d
00000040: c658 493d 903e 98bc ec3c 09bc a4ac 093c
00000050: da1d 2f3d fe9b 11bd 4c4a e3bc fa11 a13b
00000060: 9654 e83c a38f 8abc d2c7 f63c 1eb9 83bc
00000070: 7b4d 993c f46d 20bc 1ec4 4c3a ff37 933b
00000080: 0730 f3bc bb42 363d 3f47 cfbc bd61 333d
00000090: f86b eb3c 9b3b 9839 c205 8a3c 1008 233d
000000a0: 9926 43bd a995 4dbd dd3f e8bc 7a33 3c3d
000000b0: a956 053d f012 b63c d57d 3a3c ebe3 5f3c
000000c0: 420b 35bd c27f 34bd 656c 243d 7736 44bb
000000d0: 9219 16bc f32f d5bb d30d aa3a 3203 19bc
000000e0: 4d67 f03c 2407 d23c 8be0 31bd 3353 92ba
000000f0: 9d63 bdbb 93d6 853c cc99 e73c 3196 f7bc
00000100: 0bf2 4a3d 570d 3e3c 913a 2a3d 1549 79bc
00000110: de91 ad3b 409b 1d3d b141 023d 1671 273d
00000120: 736a 083d c76f 99ba f81f 973c 1cc2 0cbd
00000130: f025 3bbd 7e7e a83c 56ed 76bb 3e73 453d
00000140: 8826 183d 9cbc b9bc a721 47bd f517 c23c
00000150: 69a5 493d 7fff 9b3c b5a9 22bc 61bd 8f3c
00000160: be3a 8ebb be8b 013d e2a9 43bc 8da1 9e3c
00000170: 3501 0dbc 1965 f8bc 0d69 043d dcd3 b93a
00000180: c6bf 2ebd 72e5 c23c da29 01bd eb9a 43bc
00000190: 3f9e c7bc 0d63 233d d50a b1bc 0649 47bc
000001a0: c89f 453d 7cf3 253d b7bb 243c a604 513c
000001b0: 568a 5b3c b91a 3dbc a6ab bfbc 2969 223d
000001c0: ee33 d83c 68ec a4bc da69 153a f1e3 10bd
000001d0: b317 84bc 3966 19bd b1c2 473c fd53 0b3d
000001e0: 6785 1c3d 8e26 9cbb 5b1c 71bb 8238 ccbc
000001f0: 5325 2cbd 533b 8fbc 6b07 9fbb dc8d 22bd
00000200: 6353 c23b a958 1dbc f723 f6ba d856 3a3c
00000210: 46d2 1cba a80e 893c 180d dfbc edb1 13bd
00000220: f1fc a0bc 7708 46bd 4dad 8f3c 3874 d8bc
00000230: 6f3c 3cbd 1728 003b 4bae 353c fde2 cc3c
00000240: 7727 4f3d 0be6 403c 02de 6a3c 497f c63c
00000250: 40ad c03c 5bb1 11bc 3ae5 57ba c291 42bd
00000260: 710c 51bc 5bbd c1bc 52cc c73c 484e 0c3d
00000270: 77bb 263c e77a dd3c 7c1a 4fbd 900e 62bc
00000280: e873 5a3c a2ac 903b 049a e93b 2630 c9bc
00000290: 5f06 cebb 4cd0 7c3c 5868 943c 2ebb e33b
000002a0: 7c31 47bd 94c4 60bc f26c 5fbc 5c8e 04bd
000002b0: 2ebd d5bc 3aaf 0e3c 1c11 4abc 2d2c 4abd
000002c0: 1cae 043d 6ebc 553c 23d3 50bd fe32 033d
000002d0: 6069 d43a f69b 213d f7f1 4bbd c56f 68bb
000002e0: 0428 8ebc 633b e2bc 4fe6 f3bb 20de 37bd
000002f0: 69f0 5dba 0e81 9d3c 405a 20bc 7bc3 703c
00000300: 6b2e b9bc 0951 963c 826e 4c3d becd 053d
00000310: 18a0 e1bc f1a1 45bd e8a3 c8bb f340 cabc
00000320: 93f9 c03c 15d9 a03c b3e5 f9bc 1176 3ebc
00000330: b0be 1f3d 442b 3f3c b100 b7bc d9a2 253d
00000340: 64f7 103c f002 1a3d ff16 273d 45f9 ddbc
00000350: 3f1f 043c 3e04 8abc a1b8 c93c 38a1 3bbd
00000360: d2de 4dbd fa1b dc3c 1a3f 14bd 25c2 3ebd
00000370: 860d 31bd 1f1a 703b ffc2 3f3d 95e2 ed3b
00000380: 2055 073d 78de 023d 98d4 07bd 7a0b 13bd
00000390: c35e 3b3c c9aa 4bbd 2611 72bc f4e0 49bd
000003a0: 18be ef3b 1100 01bb 248a b83b 00cb cc3c
000003b0: 559b 883c 31af ca3c 3b4c d13c 05be 4c3c
000003c0: a132 ccbc 4b6c 513d b221 fbbc e8f5 c93c
000003d0: f58d b7bb 70be 82bb aa23 02bd 208b 243d
000003e0: 94a7 39bd 9c0c 22bd 9bfb 253a 0613 32bd
000003f0: 14ca 0ebb 0bb2 d93c fe42 05bd fcbb a5bc

bias f4 [200]
-0.0045361645 0.053670295 0.032963853 0.04393414 0.040604834 0.05799736 0.041545775 0.006591752
0.0067731696 0.062596574 0.02280878 -0.025279103 -0.011991047 0.041991144 -0.03624938 0.04109955
0.04179815 0.043529816 0.02942478 -0.032628775 0.030414646 -0.004001661 -0.022650346 -0.025090406
-0.036153898 0.004001825 0.058875196 -0.008643751 0.011320124 -0.00035085474 0.0274189 0.007995876
-0.025264159 0.03259068 0.017754123 -0.014365368 -0.054062393 -0.023732802 -0.009989902 0.054478735
-0.032122225 0.015885772 0.014887903 0.026464555 -0.012950615 0.0063262545 -0.007244268 -0.007684363
0.02126421 -0.041628134 0.04202923 0.012644573 0.009056098 -0.023437846 0.023190776 0.023899507
0.060925778 0.04420906 0.057220865 0.00082957203 0.035336927 -0.017510042 -0.0021255987 0.028712828
-0.025300061 -0.03991922 -0.029160842 -0.020200547 0.030279957 0.045566205 0.069118895 0.043932706
0.003814081 0.0068925284 -0.0154734645 -0.00028893218 -0.001021231 0.03522226 -0.008535069 0.006559976
0.0017729336 -0.0066258437 -0.039933495 0.017924769 -0.03282344 -0.0378232 0.04427431 -0.0507727
-0.026567291 -0.045758598 0.048678115 0.05283846 -0.040491186 0.014522811 -0.04310233 -0.028343245
0.022944964 -0.005043514 0.011288742 0.013623855 0.01632454 0.03393481 0.06283945 -0.035733897
-0.015015088 -0.019531734 0.002787738 -0.04226565 0.0017376771 -0.0029207433 0.024209242 -0.03640586
-0.03679312 -0.015829505 0.013456375 -0.051095545 0.034532484 0.011613144 -0.026640428 0.06271895
0.0444716 -0.018632114 0.065942675 -0.023296684 -0.007454242 0.006537647 -0.046938892 0.04354511
-0.03725692 0.033761583 0.04797122 0.024547298 -0.03405444 0.033435967 -0.0086207455 0.04211581
-0.038034864 -0.037670806 0.0055846768 -0.004723406 -0.01413208 -0.007235387 -0.027617881 0.010178489
-0.0037956706 -0.036650673 0.019303495 -0.027692046 0.012045058 0.011731749 0.014669169 0.06250884
0.024397355 -0.0018031099 0.0018868919 -0.006647523 -0.045954794 0.035741232 -0.033000976 -0.0018695447
-0.037815023 0.0020892597 -0.007920824 0.047460876 0.008893961 -0.037797898 -0.035049338 0.038165636
-0.014473934 0.04447768 -0.025670098 -0.0234458 -0.040663216 0.046598364 0.034577113 0.0598028
0.0048515154 0.033905324 -0.04910708 -0.03412215 0.015241716 0.040280342 0.033816345 0.00021009892
0.0405233 -0.018165857 0.0064722537 -0.00717319 -0.019658474 -0.017117456 -0.04460218 0.048108738
-0.015407146 0.06574816 0.05642373 0.048053533 0.039514523 0.046490397 -0.04611471 -0.02101059
00000000: 1ba4 94bb 62d5 5b3d 1b05 073d 49f4 333d
00000010: 4151 263d a48e 6d3d e72b 2a3d a0ff d73b
00000020: 77f1 dd3b a232 803d 7bd9 ba3c 1f16 cfbc
00000030: 1976 44bc e8fe 2b3d 3b7a 14bd 0058 283d
00000040: 8934 2b3d 524c 323d 3c0c f13c c0a5 05bd
00000050: 2328 f93c 5e20 83bb 388d b9bc 658a cdbc
00000060: 1c16 14bd be21 833b 1e27 713d 859e 0dbc
00000070: 0b78 393c edf2 b7b9 9a9d e03c 2201 033c
00000080: c8f6 cebc ce7d 053d 1871 913c b85c 6bbc
00000090: 8770 5dbd 4b6b c2bc b0ac 23bc 1825 5f3d
000000a0: 9892 03bd e122 823c 64ec 733c 32cc d83c
000000b0: d12e 54bc 784c cf3b 5361 edbb 1ccd fbbb
000000c0: 4832 ae3c 4382 2abd d826 2c3d 2f2b 4f3c
000000d0: 0760 143c ba00 c0bc 95fa bd3c e6c8 c33c
000000e0: 4f8d 793d 8f14 353d 6d60 6a3d a377 593a
000000f0: 74bd 103d 3871 8fbc a14d 0bbb 2a37 eb3c
00000100: 1342 cfbc 5682 23bd b8e2 eebc 9e7b a5bc
00000110: ac0d f83c a1a3 3a3d 358e 8d3d c8f2 333d
00000120: a9f5 793b b8da e13b 6a84 7dbc d27b 97b9
00000130: d3da 85ba 3745 103d add6 0bbc 11f5 d63b
00000140: c861 e83a 9b1d d9bb 4e91 23bd f7d6 923c
00000150: df71 06bd 80ec 1abd fb58 353d 09f7 4fbd
00000160: a6a3 d9bc 5e6d 3bbd b462 473d 246d 583d
00000170: 16da 25bd 16f1 6d3c 128c 30bd 1830 e8bc
00000180: 14f7 bb3c 1044 a5bb 6af4 383c 9736 5f3c
00000190: 0bbb 853c 3aff 0a3d f8b1 803d b55d 12bd
000001a0: d801 76bc 0401 a0bc 7cb2 363b bf1e 2dbd
000001b0: c5c2 e33a f169 3fbb 7652 c63c 501e 15bd
000001c0: 62b4 16bd e1ac 81bc 2178 5c3c 9049 51bd
000001d0: ef71 0d3d 0e45 3e3c 073d dabc cb72 803d
000001e0: da27 363d 60a2 98bc f40c 873d b0d8 bebc
000001f0: b742 f4bb c239 d63b ff42 40bd 5b5c 323d
00000200: b69a 18bd 9649 0a3d 787d 443d 6a17 c93c
00000210: ab7c 0bbd 27f4 083d 073e 0dbc a181 2c3d
00000220: 72ca 1bbd b44c 1abd aaff b63b cdc6 9abb
00000230: 3d8a 67bc d316 edbb e53e e2bc adc3 263c
00000240: c9c0 78bb 041f 16bd 5d22 9e3c 6eda e2bc
00000250: a358 453c 8636 403c f456 703c a204 803d
00000260: f6dc c73c 5456 ecba 9651 f73a 77d3 d9bb
00000270: 183b 3cbd 6665 123d 082c 07bd 830b f5ba
00000280: ede3 1abd f6eb 083b 58c6 01bc 5666 423d
00000290: fab7 113c f8d1 1abd e58f 0fbd 9253 1c3d
000002a0: 1424 6dbc 3a2e 363d 194a d2bc 6811 c0bc
000002b0: 798e 26bd eddd 3e3d bba0 0d3d c8f3 743d
000002c0: 76f9 9e3b 4fe0 0a3d 8124 49bd abc3 0bbd
000002d0: 64b8 793c 00fd 243d 0283 0a3d 004e 5c39
000002e0: c3fb 253d 90d0 94bc 3315 d43b 140d ebbb
000002f0: cf0a a1bc e839 8cbc c7b0 36bd ab0d 453d
00000300: 416e 7cbc f9a6 863d 921c 673d c8d3 443d
00000310: fbd9 213d b76c 3e3d c7e2 3cbd 671e acbc

weight f4 [2, 200]
-0.02222924 0.0063498844 -0.06404167 0.020266777 -0.046208136 -0.05788392 0.068567544 0.020586586
-0.0056691132 -0.0652081 0.008519999 -0.080068074 0.03842608 -0.07983832 0.027054964 -0.046183072
-0.030796453 0.0049876887 -0.035828725 0.01756705 0.020739557 -0.08817371 -0.06381896 0.05284244
0.033404253 0.022832787 -0.09446408 -0.004885701 0.05944716 0.009092819 -0.019400908 -0.08491768
-0.081872724 0.04041838 0.003216796 -0.048597537 0.04031915 -0.055442106 0.07030445 -0.060296696
0.008127387 -0.09443137 -0.05178321 0.010344853 0.06106872 -0.056868374 -0.09322038 -0.002381533
0.040910568 0.018718852 -0.00093706907 -0.004214409 0.0154294055 -0.071748346 -0.044527736 -0.021102468
-0.056168824 -0.02964155 -0.07347731 -0.023414915 -0.022973573 -0.04567138 -0.082176484 -0.030085701
-0.03039167 0.009982445 0.03839344 0.024863077 -0.01905821 -0.024169344 -0.020837855 -0.04960351
0.016029721 -0.07805606 0.0648005 0.06497038 0.051454052 -0.03842115 -0.095916346 -0.025064765
0.006593601 -0.061316114 0.009925517 0.0067087836 0.009629709 0.0374804 -0.02404935 0.0230462
0.0045652143 0.041962367 -0.03995382 -0.0738101 0.006369096 -0.0042613964 0.06527209 -0.023214947
-0.0088490825 0.035787523 -0.07566835 0.044680666 -0.028460197 -0.069610775 -0.0061279684 -0.014294446
0.041147713 0.037279118 0.033614498 -0.004650841 -0.077550426 0.062228844 -0.04476161 0.06350942
-0.023159657 -0.021174308 0.039140277 0.04201102 0.06077612 -0.025414975 0.03578331 -0.09305928
-0.06778542 0.030274332 -0.04351866 0.044511616 -0.061999325 -0.07341749 0.051488437 -0.05140181
0.009390268 0.014525342 -0.026180355 -0.011143511 0.057886228 -0.0037359952 -0.025115907 -0.071109235
0.071901605 0.020055892 -0.042263664 -0.014886915 0.029736847 0.02428461 0.0042183977 0.062355947
0.051061027 0.059051346 -0.059475288 0.00036365938 -0.002842919 0.026248017 0.01606326 -0.030974548
-0.008136221 -0.018703336 0.037011035 -0.0704456 0.027111292 0.058986075 -0.0041074567 0.0038962723
-0.076326676 -0.041472755 0.039414473 0.05974367 -0.039924014 0.058994547 0.05827089 0.04383755
-0.07783263 -0.04456952 -0.060017195 -0.080018066 0.046933033 0.06728409 -0.016459664 -0.054961376
0.075068384 -0.060233727 0.06201284 0.045872737 -0.089211494 -0.006755204 -0.02382993 -0.0065982267
0.0018136359 0.03214912 -0.06732579 0.022157177 0.04402881 -0.02184033 0.038404234 0.0384204
0.04354741 -0.08538251 -0.009008382 0.026043992 -0.010604983 -0.029485958 0.022780806 -0.055407807
0.051762156 -0.07104611 -0.03747702 0.0042689303 0.04457988 -0.031533595 0.046908613 0.012122323
-0.039464276 -0.052553594 0.037949767 0.008108018 -0.0071827653 -0.0033095086 0.04858327 -0.039676595
-0.014436221 0.05393263 -0.07875034 -0.07787699 0.06472299 -0.07333056 -0.0070834784 -0.056178987
-0.025492797 -0.004330011 -0.013025356 0.060925897 0.049764723 -0.059475698 -0.041081913 0.011149555
0.034125388 0.057842765 -0.06444861 0.0541936 0.054871563 -0.062460627 -0.00084962323 -0.03513669
-0.060023904 0.00228745 -0.032297883 -0.061093368 -0.06396996 -0.020933822 -0.083097935 0.042225745
0.06441644 -0.06340576 0.021360885 0.0074561555 -0.07198489 -0.033297863 -0.02970176 -0.0557141
00000000: 181a b6bc b112 d03b 4728 83bd 8306 a63c
00000010: be44 3dbd b017 6dbd 246d 8c3d 33a5 a83c
00000020: f8c3 b9bb d38b 85bd 7797 0b3c bbfa a3bd
00000030: aa64 1d3d 4682 a3bd 5fa2 dd3c 762a 3dbd
00000040: d848 fcbc c46f a33b 24c1 12bd c6e8 8f3c
00000050: 01e6 a93c 6b94 b4bd 84b3 82bd 5071 583d
00000060: e6d2 083d d30b bb3c 6276 c1bd 3b18 a0bb
00000070: de7e 733d 0cfa 143c a7ee 9ebc 52e9 adbd
00000080: e3ac a7bd be8d 253d e2d0 523b 360e 47bd
00000090: b125 253d 4317 63bd c8fb 8f3d abf9 76bd
000000a0: bb28 053c 3c65 c1bd a21a 54bd 757d 293c
000000b0: 3223 7a3d d0ee 68bd 54ea bebd 7e13 1cbb
000000c0: d791 273d 4758 993c a4a5 75ba 0619 8abb
000000d0: 9ecb 7c3c ccf0 92bd b762 36bd 15df acbc
000000e0: 4811 66bd d6d2 f2bc 467b 96bd a3d0 bfbc
000000f0: 1333 bcbc ea11 3bbd 254c a8bd 4a76 f6bc
00000100: f4f7 f8bc 698d 233c 7142 1d3d a7ad cb3c
00000110: f71f 9cbc cafe c5bc 26b4 aabc 0d2d 4bbd
00000120: c350 833c dbdb 9fbd 20b6 843d 310f 853d
00000130: 7cc1 523d 7f5f 1dbd ca6f c4bd 9f54 cdbc
00000140: 220f d83b 9b26 7bbd a39e 223c 5bd5 db3b
00000150: edc5 1d3c 0c85 193d 2403 c5bc 62cb bc3c
00000160: cb97 953b bbe0 2b3d 9ea6 23bd c029 97bd
00000170: dab3 d03b 2fa3 8bbb 60ad 853d 462d bebc
00000180: befb 10bc f095 123d 02f8 9abd 1303 373d
00000190: 5c25 e9bc 1890 8ebd 20cd c8bb 4133 6abc
000001a0: 818a 283d fdb1 183d 5baf 093d 1566 98bb
000001b0: c2d2 9ebd ace3 7e3d f357 37bd 3a11 823d
000001c0: 52b9 bdbc be75 adbc 8e51 203d bf13 2c3d
000001d0: 61f0 783d 1133 d0bc 8591 123d dd95 bebd
000001e0: 15d3 8abd e001 f83c 9f40 32bd d051 363d
000001f0: 01f3 7dbd e95b 96bd 8ae5 523d b48a 52bd
00000200: a3d9 193c b3fb 6d3c 2f78 d6bc 4693 36bc
00000210: 1c1a 6d3d 99d7 74bb e0bf cdbc b8a1 91bd
00000220: 2641 933d 414c a43c aa1c 2dbd 3fe8 73bc
00000230: b09a f33c 85f0 c63c 7c3a 8a3b f368 7f3d
00000240: 5e25 513d d3df 713d 5c9c 73bd 89a9 be39
00000250: 4450 3abb 1506 d73c 1997 833c 56be fdbc
00000260: c94d 05bc bd37 99bc e298 173d c845 90bd
00000270: 8018 de3c 629b 713d d897 86bb 9a58 7f3b
00000280: 2951 9cbd 56df 29bd 1271 213d c7b5 743d
00000290: 5d87 23bd 44a4 713d 75ad 6e3d 018f 333d
000002a0: b766 9fbd 878e 36bd 97d4 75bd 83e0 a3bd
000002b0: da3c 403d 3ecc 893d 6bd6 86bc 2e1f 61bd
000002c0: 74bd 993d a4b7 76bd 2d01 7e3d 0de5 3b3d
000002d0: 84b4 b6bd c25a ddbb fc36 c3bc f035 d8bb
000002e0: 86b7 ed3a ccae 033d 1be2 89bd f882 b53c
000002f0: 8e57 343d 7eea b2bc c24d 1d3d b65e 1d3d
00000300: c55e 323d 07dd aebd e597 13bc 365a d53c
00000310: 86c0 2dbc 898c f1bc d09e ba3c 4cf3 62bd
00000320: 8e04 543d 9f80 91bd 8181 19bd 62e2 8b3b
00000330: 6499 363d 5f29 01bd 3f23 403d b59c 463c
00000340: 4ba5 21bd 7042 57bd 3771 1b3d 7ed7 043c
00000350: 675d ebbb 57e4 58bb 40ff 463d ed83 22bd
00000360: e685 6cbc 76e8 5c3d dc47 a1bd f97d 9fbd
00000370: 7d8d 843d 552e 96bd 861c e8bb f01b 66bd
00000380: 45d6 d0bc c4e2 8dbb 4e68 55bc 6f8d 793d
00000390: 18d6 4b3d ca9c 73bd 8245 28bd a0ac 363c
000003a0: 10c7 0b3d 89ec 6c3d a2fd 83bd 1cfa 5d3d
000003b0: 01c1 603d b7d6 7fbd 40b9 5eba 7deb 0fbd
000003c0: a0db 75bd 0be9 153b c94a 04bd 0a3d 7abd
000003d0: af02 83bd 687d abbc 402f aabd e7f4 2c3d
000003e0: c4ec 833d e1da 81bd 06fd ae3c c452 f43b
000003f0: d06c 93bd 5763 08bd 1b51 f3bc 7834 64bd

bias f4 [2]
-0.08286349 -0.018671557
00000000: 55b4 a9bd 18f5 98bc
