lab2/zip/neural-network-3-critic.pth (torch, 339031 bytes, 5 tensors)

weight f4 [400, 8]
-0.16370389 -0.31688473 0.23679131 -0.00082880585 0.4275179 0.14597444 -0.9201419 -0.21464074
0.14202385 -0.14083089 -0.089601286 0.2692185 0.011903913 0.34442845 0.2907294 -0.6156017
0.68727434 -0.3237532 -0.02598812 0.04911714 -0.08348116 -0.17826004 -0.27124783 -0.25482965
-0.80960995 -0.4642981 -0.31575224 0.005159107 0.3108782 -0.15809551 0.23406848 0.17179704
0.5816728 -0.33838475 -0.13035698 -0.24627683 -0.17948276 -0.20775895 -0.2940013 -0.25875056
-0.04312945 -0.65538704 0.36457527 0.44548294 0.5197428 -0.019988963 -0.21267621 0.18032505
0.17276646 -0.33876842 -0.3382108 -0.07766434 0.035277177 0.27099797 0.069660805 -0.024859829
-0.9135251 0.042206 -0.55293226 0.14540331 0.33775207 0.042298567 -0.24915805 -0.3093512
-0.021165056 -0.6644723 -0.56498617 -0.6789115 0.34168345 0.6970228 -0.058296055 0.12678473
-0.15988384 -0.40716514 0.9141848 -0.112992145 -0.27979323 -0.4659163 0.19508873 -0.4973452
0.009704077 -0.60453916 0.18961798 0.30865642 0.14822875 -0.0016974977 -0.7970197 0.15359876
0.2962329 -0.35698676 -0.13483152 -0.045070417 -0.12348963 -0.18835321 -0.1497294 -0.08974983
0.18906821 0.037320837 -0.64914817 0.43517378 -0.45170984 -0.58314663 -0.41732338 0.060852695
0.5936673 -0.31171447 0.094269104 0.50609547 0.0011041274 -0.24461466 -0.35873324 0.41478747
0.12637801 -0.73514414 -0.057131886 -0.2430405 -0.1575314 -0.222328 -0.22372441 -0.41257304
0.14542991 -0.36752784 0.3352074 -0.14241031 -0.12086752 -0.3538079 -0.5790981 0.053385425
-0.8595362 -0.17499143 -0.4873315 -0.41505224 0.15793936 -0.008205245 -0.011862823 -0.088005304
-0.57626706 -0.041793574 -0.122152574 -0.21818836 0.5885345 0.396694 -0.029758824 -0.027516032
0.0959857 -0.63521403 0.035547454 0.39719275 0.1633361 -0.12662683 -0.8806202 -0.06674774
0.16510864 -0.73172146 -0.6088193 -1.0747051 0.31326762 0.036604214 0.22021851 0.016544327
0.087338716 -0.34867355 0.29655677 0.22813195 0.09611504 -0.14307821 -0.22971746 0.20983222
-0.3555337 -0.61944157 0.31319618 -0.24910533 -0.019787166 -0.015720729 -0.26023662 -0.6597421
0.111289755 0.3511078 0.07133331 1.4041886 0.24172182 0.48277202 0.32794613 0.29824173
-0.28433317 0.24585405 0.032543834 -0.78627884 0.86724824 0.20195909 -0.65874827 -0.010152669
0.09870679 -0.013383356 -0.06234367 0.16105177 -0.024716884 -0.002289521 -0.27826905 -0.06459611
0.9760097 -0.8107217 0.29471228 -0.62683934 -0.29384992 -0.10855225 0.06213193 0.12026097
0.73043233 -0.22611125 0.44959724 -0.1925256 -0.21670862 -0.09130391 0.27850774 0.028856048
0.05330451 -0.5107269 0.29340872 0.030301342 -0.26456237 0.12290564 -0.5676563 0.05656824
-0.07580499 -0.68105793 -0.051034007 0.5381774 -0.0818046 0.12182982 -0.2985426 0.2899482
-0.7356201 -0.52221143 -0.46813184 -0.2975389 0.3573427 -0.13021962 0.28911713 -0.3296999
0.43375587 0.12183606 -0.30126545 -0.48148462 0.9042333 -0.23813817 -0.2870461 -0.01569239
0.06507414 -0.6116805 -0.07451762 0.72741926 -0.10947689 -0.040900372 0.18248932 0.08689955
00000000: fea1 27be b73e a2be 6c79 723e 3844 59ba
00000010: a0e3 da3e 537a 153e 6b8e 6bbf c8ca 5bbe
00000020: b36e 113e f935 10be e180 b7bd 02d7 893e
00000030: a108 433c ed58 b03e 7cda 943e 1398 1dbf
00000040: 36f1 2f3f fbc2 a5be 0ae5 d4bc 0e2f 493d
00000050: 2cf8 aabd cd89 36be ffe0 8abe 0879 82be
00000060: 9942 4fbf 7bb8 edbe 47aa a1be ba0d a93b
00000070: 6d2b 9f3e cae3 21be a6af 6f3e 90eb 2f3e
00000080: 82e8 143f c440 adbe 4d7c 05be fe2f 7cbe
00000090: 54ca 37be c3be 54be 5787 96be f47a 84be
000000a0: 82a8 30bd 72c7 27bf 9ca9 ba3e 5716 e43e
000000b0: dd0d 053f e5bf a3bc cbc7 59be 21a7 383e
000000c0: b1e9 303e 0e73 adbe f729 adbe 7b0e 9fbd
000000d0: cd7e 103d 3fc0 8a3e 53aa 8e3d d7a6 cbbc
000000e0: c8dc 69bf 33e0 2c3d f88c 0dbf 9be4 143e
000000f0: d7ed ac3e 4341 2d3d 4a23 7fbe 4863 9ebe
00000100: 5762 adbc db1a 2abf efa2 10bf 25cd 2dbf
00000110: 22f1 ae3e 1670 323f d8c7 6ebd dbd3 013e
00000120: 97b8 23be f377 d0be 0408 6a3f 6d68 e7bd
00000130: 0f41 8fbe 958c eebe 57c5 473e 08a4 febe
00000140: d9fd 1e3c 14c3 1abf 372b 423e 3708 9e3e
00000150: 47c9 173e 927e deba 7c09 4cbf fe48 1d3e
00000160: d7ab 973e f8c6 b6be 4611 0abe c29b 38bd
00000170: 22e8 fcbd aadf 40be aa52 19be c2ce b7bd
00000180: 199b 413e bcdd 183d 932e 26bf 19cf de3e
00000190: 8346 e7be 1949 15bf 69ab d5be ad40 793d
000001a0: 95fa 173f 0a99 9fbe 2910 c13d 798f 013f
000001b0: 5eb8 903a 447c 7abe e2ab b7be 065f d43e
000001c0: 3d69 013e 6832 3cbf 2003 6abd 9cdf 78be
000001d0: e94f 21be f4a9 63be 0318 65be c63c d3be
000001e0: 94eb 143e 9c2c bcbe 4ea0 ab3e 02d4 11be
000001f0: 6489 f7bd 4f26 b5be c63f 14bf adaa 5a3d
00000200: 900a 5cbf f430 33be 8483 f9be ba81 d4be
00000210: dbba 213e 4b6f 06bc 495c 42bc 203c b4bd
00000220: 3d86 13bf bd2f 2bbd 212b fabd c56c 5fbe
00000230: 32aa 163f 7a1b cb3e c7c8 f3bc 4d69 e1bc
00000240: 2794 c43d 639d 22bf 359a 113d d95c cb3e
00000250: 9441 273e 77aa 01be 5370 61bf 0ab3 88bd
00000260: 3d12 293e 1952 3bbf 95db 1bbf f08f 89bf
00000270: 9d64 a03e 4dee 153d f680 613e f887 873c
00000280: a4de b23d 5785 b2be 4ad6 973e 6c9b 693e
00000290: f6d7 c43d 1883 12be 0e3b 6bbe 42de 563e
000002a0: 8308 b6be b993 1ebf 405b a03e 7815 7fbe
000002b0: b218 a2bc c2c8 80bc bc3d 85be dce4 28bf
000002c0: e2eb e33d 67c4 b33e 3317 923d 74bc b33f
000002d0: ed85 773e e52d f73e 8ee8 a73e 24b3 983e
000002e0: 1e94 91be 2ac1 7b3e af4c 053d 9249 49bf
000002f0: fb03 5e3f 5dce 4e3e baa3 28bf 6157 26bc
00000300: c926 ca3d dd45 5bbc 135c 7fbd c1ea 243e
00000310: 107b cabc ca0b 16bb 4879 8ebe f74a 84bd
00000320: c6db 793f 758b 4fbf 87e4 963e 8b78 20bf
00000330: 7f73 96be a450 debd 0d7e 7e3d 624b f63d
00000340: 9dfd 3a3f b589 67be 9c31 e63e 6e25 45be
00000350: dde8 5dbe 8bfd babd 9198 8e3e 8563 ec3c
00000360: d455 5a3d 00bf 02bf ab39 963e 853a f83c
00000370: b874 87be f4b5 fb3d ec51 11bf 19b4 673d
00000380: a63f 9bbd d059 2ebf 0909 51bd fec5 093f
00000390: 2c89 a7bd ea81 f93d 93da 98be 1774 943e
000003a0: 9951 3cbf a6af 05bf faae efbe 0557 98be
000003b0: 9ff5 b63e 4b58 05be 2907 943e 6dce a8be
000003c0: 4015 de3e 2f85 f93d 773f 9abe 2785 f6be
000003d0: d57b 673f 7eda 73be b5f7 92be 548d 80bc
000003e0: 9745 853d 1897 1cbf b29c 98bd 2638 3a3f
000003f0: 6b35 e0bd 2687 27bd 7bde 3a3e 64f8 b13d

bias f4 [400]
-0.16391712 -0.15435286 -0.073407546 -0.17728561 -0.16855347 0.35109705 -0.059755523 0.017322857
-0.11639333 -0.24376205 0.37184247 -0.19147915 -0.18557541 0.042883113 0.22271283 -0.009563263
-0.14303733 -0.21376842 0.48736793 -0.33167768 -0.08339195 0.35435772 0.20867744 0.14335318
-0.108767465 -0.10525926 -0.13948067 -0.117462136 0.26365903 -0.17104472 -0.4313312 0.32987833
-0.14145438 -0.04809436 -0.39027047 -0.08079005 0.09937403 0.37378109 0.4723255 0.22041382
0.39708534 -0.09082822 0.28539902 -0.15195198 -0.13040842 -0.20566332 -0.1511534 -0.09307512
-0.15527093 0.12832619 -0.20055358 0.15925862 -0.41251704 -0.006217923 0.20449433 -0.20444693
0.008081206 -0.16661194 0.38078004 -0.10734293 -0.22939327 0.15820964 -0.26221874 0.2792469
-0.09377501 -0.12587251 -0.3156793 -0.4659493 -0.09598461 0.058178693 -0.1252041 -0.10928497
0.31846455 0.22345535 -0.12930945 0.3457185 -0.13068666 -0.29236108 -0.1716041 0.442152
0.24789271 0.03619129 0.47763768 -0.12913835 -0.02945906 0.1203602 -0.0938264 0.40081578
-0.32823873 -0.0003891458 -0.30605814 0.1360617 -0.07471067 0.047388747 0.13128246 -0.11013989
-0.11731265 -0.20704637 -0.08064838 0.3647926 0.023648864 -0.18115552 0.15341346 -0.04374185
-0.13052039 0.6549558 -0.008323695 0.22042137 -0.049848203 0.42744413 -0.07485422 -0.10992962
-0.2522405 -0.2570194 -0.32193896 -0.13734826 -0.07752174 0.4985119 0.004390912 -0.4127269
0.30302408 -0.018268133 -0.04374757 0.044609576 -0.089758866 0.23081957 -0.1594618 -0.38035822
-0.27062207 0.21797453 -0.13408309 0.020717273 -0.027233412 -0.04414773 -0.13016304 -0.06028824
0.22940752 0.3594494 -0.059804678 -0.00607023 -0.1271353 -0.3910947 0.20406333 -0.23542665
-0.3076913 0.014955398 -0.11822659 -0.23275277 -0.121647574 -0.08459141 -0.121475644 -0.34517068
0.18710053 -0.06972322 -0.164397 0.15300944 -0.22600827 0.060482137 -0.2615043 0.1320471
-0.121185474 0.37527493 -0.21006563 0.3528902 -0.18672182 -0.19670038 0.25308976 0.15546426
0.39333478 0.02453309 0.377681 -0.46441314 -0.14006908 -0.18082993 0.33750194 0.44948116
-0.14507866 0.27172256 -0.23291467 -0.18700038 -0.17134471 0.16306554 -0.24630117 -0.19515811
-0.09128177 -0.04985819 0.04389389 -0.058914185 -0.32549122 -0.33261043 -0.2147505 -0.069113605
0.3155243 -0.054788034 -0.28331044 -0.17626174 -0.17908096 -0.1300685 -0.10717346 -0.32518652
0.12649685 -0.22421038 -0.017550541 -0.15012792 -0.30849507 -0.126268 0.21014398 -0.04064939
0.19678716 -0.049151924 -0.19012366 0.17453225 0.11482674 0.008130568 -0.08401142 -0.22928381
0.18466707 -0.18085289 -0.0054673366 -0.31561407 -0.18848011 -0.21945098 0.3937205 0.37828943
0.07550972 0.08620435 0.14099433 -0.07856724 -0.33815983 -0.07055237 0.28109032 0.26755026
-0.12315082 0.024686018 0.0398827 0.3686911 -0.026688688 -0.11679305 0.3133262 0.17144859
-0.009185942 -0.10545057 0.15100087 -0.1910153 0.2525152 0.33461115 -0.09879229 -0.10300651
-0.012261833 0.061936494 0.009635205 -0.38720772 -0.37811697 0.16505952 -0.18468694 0.09285456
00000000: e4d9 27be ad0e 1ebe b256 96bd 5c8a 35be
00000010: 4899 2cbe fec2 b33e 35c2 74bd aae8 8d3c
00000020: a05f eebd c29c 79be 2362 be3e 1c13 44be
00000030: 7b07 3ebe 34a6 2f3d d50e 643e 3baf 1cbc
00000040: 6178 12be 1ce6 5abe 4a88 f93e a8d1 a9be
00000050: 66c9 aabd 606e b53e 8aaf 553e 2dcb 123e
00000060: 7ac1 debd 2b92 d7bd 05d4 0ebe fd8f f0bd
00000070: 51fe 863e 5926 2fbe 71d7 dcbe d0e5 a83e
00000080: 6bd9 10be 97fe 44bd 88d1 c7be 4175 a5bd
00000090: 9d84 cb3d 3c60 bf3e a6d4 f13e 29b4 613e
000000a0: c54e cb3e 2504 babd d21f 923e 4d99 1bbe
000000b0: c989 05be 6899 52be f5c7 1abe 2b9e bebd
000000c0: 58ff 1ebe f167 033e eb5d 4dbe b114 233e
000000d0: 6f35 d3be b8bf cbbb f666 513e 895a 51be
000000e0: 0967 043c 529c 2abe 9af5 c23e 9cd6 dbbd
000000f0: 12e6 6abe b501 223e 8941 86be 73f9 8e3e
00000100: 1d0d c0bd b9e4 00be b8a0 a1be e890 eebe
00000110: 9493 c4bd c84c 6e3d 8135 00be ccd0 dfbd
00000120: c90d a33e 7bd1 643e b269 04be 0402 b13e
00000130: b9d2 05be 5ab0 95be fcb8 2fbe bf61 e23e
00000140: 96d7 7d3e 513d 143d ed8c f43e d83c 04be
00000150: 2054 f1bc 697f f63d 0e28 c0bd ba37 cd3e
00000160: e80e a8be 4406 ccb9 a7b3 9cbe c253 0b3e
00000170: e801 99bd b41a 423d e96e 063e 0691 e1bd
00000180: 9d41 f0bd f703 54be fa2a a5bd 18c6 ba3e
00000190: 43bb c13c d580 39be 6b18 1d3e a72a 33bd
000001a0: 23a7 05be 2fab 273f 1b60 08bc 24b6 613e
000001b0: a12d 4cbd f5d9 da3e 2b4d 99bd c822 e1bd
000001c0: ab25 81be 0c98 83be 2fd5 a4be 06a5 0cbe
000001d0: b8c3 9ebd f43c ff3e a4e1 8f3b f150 d3be
000001e0: f925 9b3e 0da7 95bc a730 33bd 88b8 363d
000001f0: 7fd3 b7bd f75b 6c3e f449 23be 50be c2be
00000200: fa8e 8abe b734 5f3e 144d 09be 45b7 a93c
00000210: 9b18 dfbc 40d4 34bd 7649 05be cdf0 76bd
00000220: cee9 6a3e c009 b83e c0f5 74bd c8e8 c6bb
00000230: c22f 02be 913d c8be faf5 503e af13 71be
00000240: b789 9dbe 7c07 753c c820 f2bd be56 6ebe
00000250: 5d22 f9bd 433e adbd 39c8 f8bd 36ba b0be
00000260: 4897 3f3e 0ccb 8ebd b057 28be 82ae 1c3e
00000270: b66e 67be 1ebc 773d e4e3 85be 5b37 073e
00000280: 1730 f8bd 0924 c03e 721b 57be 06ae b43e
00000290: 0134 3fbe d36b 49be fb94 813e 0632 1f3e
000002a0: 2d63 c93e 9ef9 c83c 675f c13e 8fc7 edbe
000002b0: 456e 0fbe 7b2b 39be 0ecd ac3e 6522 e63e
000002c0: 808f 14be 381f 8b3e 2f81 6ebe 077d 3fbe
000002d0: fd74 2fbe a7fa 263e 6036 7cbe 87d7 47be
000002e0: f0f1 babd 1a38 4cbd 14ca 333d 0050 71bd
000002f0: c9a6 a6be ea4b aabe 8ee7 5bbe 6f8b 8dbd
00000300: 678c a13e 6b69 60bd 110e 91be f57d 34be
00000310: 0061 37be ad30 05be c27d dbbd d97e a6be
00000320: 6488 013e 6897 65be 27c6 8fbc 22bb 19be
00000330: 11f3 9dbe 664c 01be fc2f 573e fa7f 26bd
00000340: 9382 493e 8753 49bd c7af 42be 95b8 323e
00000350: 482a eb3d 1336 053c 2e0e acbd 60c9 6abe
00000360: 5d19 3d3e 8031 39be 5827 b3bb 2b98 a1be
00000370: ee00 41be c2b7 60be bc95 c93e 27af c13e
00000380: d7a4 9a3d e88b b03d d160 103e dce7 a0bd
00000390: 4923 adbe c37d 90bd 12eb 8f3e 59fc 883e
000003a0: 7f36 fcbd 553a ca3c 0b5c 233d 14c5 bc3e
000003b0: 3ca2 dabc 3231 efbd 4b6c a03e 3890 2f3e
000003c0: a280 16bc 78f6 d7bd f99f 1a3e 8499 43be
000003d0: ac49 813e 2752 ab3e 9d53 cabd 14f5 d2bd
000003e0: dbe5 48bc 1fb1 7d3d fbdc 1d3c 1740 c6be
000003f0: 8c98 c1be 5d05 293e 931e 3dbe 882a be3d

weight f4 [200, 400]
0.10308772 0.16351703 -0.40954036 -0.7004836 -0.32986557 0.17546147 0.1910845 -0.21623999
0.2560678 -0.23657103 0.15534696 -0.29523665 0.425835 -0.20049436 -0.04358982 -0.085816
-0.43403432 -0.14516082 0.45611352 -0.13582954 -0.319555 0.2803577 -0.37661195 0.49983332
-0.013795561 -0.44231105 -0.26377633 -0.005233192 -0.16389082 -0.4460333 0.26941907 -0.21113135
-0.32394397 0.14137556 0.22309922 -0.2280972 -0.12849951 0.11828332 0.057970747 -0.32781997
-0.14356644 0.0527406 -0.031328347 0.25775647 -0.32842654 -0.12614754 -0.43220648 0.21497808
0.40695745 -0.058481343 -0.5309354 0.57471263 -0.22978812 -0.21312188 0.080759056 -0.42804176
-0.5672335 0.43750104 0.31725818 -0.5025935 0.6297751 -0.18062806 0.27666628 0.30406645
0.42112792 -0.09959707 -0.52825004 0.058007725 0.46465388 0.1673914 -0.35677573 0.39463675
0.4990519 -0.2775636 -0.47602072 0.19768366 -0.3743298 0.59785634 -0.121666744 0.13346373
0.069362395 -0.17130522 -0.07542 -0.114124924 -0.08239111 -0.06541972 0.38139752 0.19744453
-0.09055739 0.21317531 0.05866203 -0.040421616 -0.66011906 0.5277108 -0.099927686 -0.31139433
-0.49179852 0.4279762 0.25258827 0.2691025 0.23396395 -0.030832639 -0.09744155 -0.5267838
-0.25033712 -0.11455101 0.22840352 0.51859623 0.33368927 0.34443521 -0.11361875 -0.24181148
-0.17910479 0.6603504 -0.06944142 0.035942614 0.33276093 -0.094606295 0.06895287 0.101631194
0.4825227 0.06440061 0.039134704 -0.2530576 -0.10028692 0.24901357 0.026870353 -0.20900355
0.17590076 0.1593192 -0.020208862 0.030669916 0.3188498 -0.42455095 -0.052073274 -0.5623463
-0.11230325 0.1523109 -0.4178532 0.36974654 0.5697645 0.07857544 0.12719446 -0.16775443
0.026191214 0.61340845 0.22205622 0.26079282 0.20871589 -0.14012384 0.20709418 0.17714433
0.19895673 0.36662644 0.6023297 0.21097499 -0.04455196 0.45180398 -0.12882142 0.37681514
0.48719355 0.44051376 0.371092 -0.2865309 -0.068399735 0.17641708 0.6772336 -0.27520725
0.09985406 0.120457254 0.053921912 -0.49870867 0.37139517 0.1904272 0.1795302 -0.15675603
0.053015266 0.43399507 0.46283466 -0.43537056 0.14968589 0.10450205 -0.09063829 -0.061331827
-0.10164812 -0.070845895 0.13093239 -0.17862673 -0.28102577 0.40920043 0.03667367 0.04212175
-0.51446325 -0.07461472 0.6169618 -0.19897337 -0.26984736 0.64965373 0.31399167 0.05790286
-0.15906763 -0.54061216 0.0066851983 -0.38387716 -0.18319666 0.31620312 0.06104571 -0.73935574
0.023995224 -0.31220853 -0.55803525 -0.11285067 0.14840731 -0.5118383 -0.27542537 0.48942897
0.1917233 -0.05256673 0.4977906 0.40114167 -0.15180592 -0.038101565 0.13169934 -0.394719
0.045806594 -0.08685152 -0.26423106 -0.20350935 -0.40734604 0.05162156 0.19509266 0.16032997
-0.4462616 0.2512887 0.3608071 0.4320681 0.09102246 0.55351925 0.054132134 0.13590446
0.3016427 0.054887347 0.48095188 -0.08542197 0.1007245 -0.19248062 0.5163294 -0.12969013
0.01076799 0.5095934 -0.25149488 0.2976103 -0.4309526 0.61590046 0.07684881 0.054788183
00000000: a81f d33d 0271 273e 46af d1be e552 33bf
00000010: 24e4 a8be 2cac 333e a8ab 433e 046e 5dbe
00000020: 521b 833e ad3f 72be 4613 1f3e 4229 97be
00000030: 0c07 da3e 654e 4dbe 3d8b 32bd 4dc0 afbd
00000040: bf39 debe 0aa5 14be b687 e93e e616 0bbe
00000050: b79c a3be 0b8b 8f3e 48d3 c0be 27ea ff3e
00000060: c706 62bc 9876 e2be b10d 87be 327b abbb
00000070: ffd2 27be 7a5e e4be 4cf1 893e d132 58be
00000080: fcdb a5be c1c4 103e 1f74 643e 5092 69be
00000090: 6095 03be 863e f23d bc72 6d3d 05d8 a7be
000000a0: 1503 13be 8706 583d 2752 00bd a8f8 833e
000000b0: 8627 a8be d22c 01be 2b4a ddbe 3723 5c3e
000000c0: ba5c d03e 228a 6fbd 62eb 07bf 5e20 133f
000000d0: 944d 6bbe 9f3c 5abe 0165 a53d 4a28 dbbe
000000e0: 3736 11bf 2300 e03e aa6f a23e f8a9 00bf
000000f0: f138 213f 90f6 38be 34a7 8d3e 99ae 9b3e
00000100: 149e d73e 8cf9 cbbd 653b 07bf 8299 6d3d
00000110: 1de7 ed3e a768 2b3e 4fab b6be d40d ca3e
00000120: bb83 ff3e d11c 8ebe fdb8 f3be 966d 4a3e
00000130: 28a8 bfbe 1d0d 193f 6a2c f9bd b7aa 083e
00000140: df0d 8e3d a36a 2fbe cd75 9abd 54ba e9bd
00000150: acbc a8bd c6fa 85bd 8946 c33e e62e 4a3e
00000160: 2776 b9bd a14a 5a3e 9947 703d 2391 25bd
00000170: 90fd 28bf 0e18 073f e3a6 ccbd 146f 9fbe
00000180: 04cd fbbe b21f db3e 4053 813e cec7 893e
00000190: 3f94 6f3e bb94 fcbc 6f8f c7bd 4edb 06bf
000001a0: 302c 80be b899 eabd 9de2 693e b9c2 043f
000001b0: 52d9 aa3e d059 b03e f2b0 e8bd 6e9d 77be
000001c0: 3f67 37be b90c 293f 4e37 8ebd 9038 133d
000001d0: a45f aa3e f2c0 c1bd 2a37 8d3d 0424 d03d
000001e0: 370d f73e 78e4 833d b64b 203d c490 81be
000001f0: 3b63 cdbd 6afd 7e3e 371f dc3c 0705 56be
00000200: 541f 343e 9324 233e 0e8d a5bc 7a3f fb3c
00000210: 4840 a33e be5e d9be c94a 55bd edf5 0fbf
00000220: 3fff e5bd 63f7 1b3e dbf0 d5be 6b4f bd3e
00000230: 16dc 113f 29ec a03d 443f 023e d1c7 2bbe
00000240: f58e d63c 5608 1d3f b562 633e a386 853e
00000250: 9eb9 553e a07c 0fbe 7f10 543e 5365 353e
00000260: 50bb 4b3e 76b6 bb3e 4732 1a3f d409 583e
00000270: 1e7c 36bd da52 e73e c3e9 03be eaed c03e
00000280: 6f71 f93e 058b e13e c5ff bd3e 2eb4 92be
00000290: 2915 8cbd aea6 343e 2e5f 2d3f f7e7 8cbe
000002a0: 4980 cc3d 4bb2 f63d 39dd 5c3d be56 ffbe
000002b0: 8227 be3e 59ff 423e c4d6 373e a784 20be
000002c0: 8926 593d 9a34 de3e aaf8 ec3e e4e8 debe
000002d0: 4247 193e 2c05 d63d 91a0 b9bd 1537 7bbd
000002e0: e42c d0bd a717 91bd 2413 063e ede9 36be
000002f0: 9ce2 8fbe b882 d13e 2137 163d db87 2c3d
00000300: ddb3 03bf 9acf 98bd 35f1 1d3f adbf 4bbe
00000310: 6f29 8abe b54f 263f 84c3 a03e 8d2b 6d3d
00000320: a0e2 22be 8f65 0abf 820f db3b 8c8b c4be
00000330: e897 3bbe 60e5 a13e 110b 7a3d 6b46 3dbf
00000340: a291 c43c ccd9 9fbe 66db 0ebf 411e e7bd
00000350: 16f8 173e d607 03bf 8e04 8dbe 6f96 fa3e
00000360: 1d53 443e 3650 57bd 69de fe3e 7162 cd3e
00000370: 0373 1bbe 6310 1cbd 31dc 063e 9c18 cabe
00000380: b29f 3b3d 36df b1bd 4b49 87be c164 50be
00000390: a98f d0be 2171 533d 5fc6 473e 8a2d 243e
000003a0: 677c e4be eaa8 803e b5bb b83e 0838 dd3e
000003b0: fc69 ba3d 70b3 0d3f a8b9 5d3d 8a2a 0b3e
000003c0: e970 9a3e 8ed1 603d 533f f63e b7f1 aebd
000003d0: a648 ce3d a419 45be 2a2e 043f 7dcd 04be
000003e0: 396c 303c b774 023f f0c3 80be 6160 983e
000003f0: d2a5 dcbe a7ab 1d3f e962 9d3d 9369 603d

bias f4 [200]
0.70670736 0.013156264 -0.1872461 0.36859795 0.1736292 -0.034895178 -0.052851237 -0.04923773
-0.0038923994 -0.0908648 0.0043576877 0.014430145 -0.06445791 0.41431484 -0.011861027 -0.0061793523
-0.09748905 0.50271916 0.0009496589 0.05849991 -0.042553015 0.02731724 -0.0127813285 -0.043184042
-0.22773634 0.028763399 0.11735955 0.5820538 -0.029146692 -0.040451586 -0.0060555455 -0.08428054
-0.028507533 0.7169705 0.7282495 -0.020326339 -0.051054202 -0.040193025 -0.053549875 -0.08679527
0.15745343 0.010775738 -0.0380087 -0.053439394 0.60618246 0.022240128 0.0030876275 -0.094210654
-0.008964042 -0.012849364 -0.009241471 -0.01581856 -0.0037655078 0.34112772 0.7491835 -0.0078082224
0.10832124 0.51651233 -0.021672191 -0.036061347 0.003020467 -0.11807505 0.38971734 0.025209455
-0.052410115 0.2680335 -0.031393517 0.015182325 0.6745291 0.28439856 -0.1417525 -0.07365898
0.5772193 -0.10366073 -0.052680068 -0.054586645 0.8089867 0.5693466 0.747247 0.02182112
0.26933944 0.040352568 -0.10407515 -0.05120326 -0.11267664 0.012432713 -0.036677796 0.16125439
-0.02855704 0.026364552 -0.015637478 -0.033234056 0.034649186 -0.032402232 -0.08374579 -0.12688084
0.016780125 -0.104163185 -0.04767124 0.016093457 -0.13727637 -0.12223108 0.44994274 -0.072866045
-0.08345179 -0.093652375 0.4417117 -0.05760867 -0.035777654 -0.02217506 0.4405811 -0.10766699
-0.037478887 0.56830937 -0.013161272 -0.036850274 -0.07879562 -0.10201991 -0.04692159 -0.074796125
0.14790119 -0.024638735 -0.18589447 -0.037004918 0.5184838 -0.09486316 -0.0845979 -0.042646095
-0.13563427 0.72089636 -0.037201174 0.013761033 -0.029243303 0.83468866 -0.022716844 -0.0063376008
0.38368475 -0.02340215 -0.056273673 -0.074582465 -0.066832796 -0.022976639 -0.0018929676 0.0074486947
-0.0077105546 0.07634584 0.5718445 -0.024951104 -0.051293958 0.0017618684 0.036452793 -0.08635882
-0.041561898 -0.08526585 0.7808232 -0.06763164 -0.035632156 -0.07804472 -0.038720373 -0.118869096
-0.06339784 -0.04107901 -0.12886836 0.37986183 -0.026639612 -0.07767347 -0.1003875 0.11450451
0.45169654 0.018137004 -0.06303326 -0.085823625 -0.023465483 0.42728218 -0.08026105 -0.090776846
-0.06074541 -0.12646075 -0.11562963 -0.042893395 -0.1471706 -0.03460624 -0.05256356 -0.09252051
-0.038551997 -0.018884124 -0.07952772 -0.10532467 0.33234826 -0.08404645 -0.015766362 -0.04428227
0.038052976 0.57074946 -0.018647436 -0.07888038 0.34534705 -0.045780566 0.6415009 -0.06596178
00000000: c6ea 343f 5f8d 573c 71bd 3fbe dfb8 bc3e
00000010: dacb 313e 3fee 0ebd 8a7a 58bd 81ad 49bd
00000020: a017 7fbb 5317 babd efca 8e3b 6a6c 6c3c
00000030: 8202 84bd 1321 d43e c154 42bc 2a7c cabb
00000040: 57a8 c7bd 34b2 003f 88f2 783a 9a9d 6f3d
00000050: 124c 2ebd 68c8 df3c c768 51bc c0e1 30bd
00000060: b733 69be 38a1 eb3c 345a f03d 7a01 153f
00000070: 0bc5 eebc 90b0 25bd 996d c6bb 479b acbd
00000080: a188 e9bc 618b 373f 8f6e 3a3f 6c83 a6bc
00000090: 361e 51bd 71a1 24bd 1d57 5bbd b8c1 b1bd
000000a0: 793b 213e b98c 303c 03af 1bbd 44e3 5abd
000000b0: c62e 1b3f ee30 b63c cb59 4a3b 84f1 c0bd
000000c0: ebdd 12bc 2486 52bc 8a69 17bc ed95 81bc
000000d0: bdc6 76bb 4ba8 ae3e 7dca 3f3f 1edc ffbb
000000e0: 87d7 dd3d 273a 043f e189 b1bc 10b5 13bd
000000f0: 07f3 453b 55d1 f1bd 0889 c73e 0f84 ce3c
00000100: fdab 56bd b03b 893e 7d96 00bd 49bf 783c
00000110: f0ad 2c3f b09c 913e 9127 11be 85da 96bd
00000120: a5c4 133f 144c d4bd 0ec7 57bd 3f96 5fbd
00000130: c119 4f3f b3c0 113f 944b 3f3f 35c2 b23c
00000140: dce6 893e bc48 253d 5a25 d5bd 82ba 51bd
00000150: 03c3 e6bd 94b2 4b3c 753b 16bd df1f 253e
00000160: 74f0 e9bc 79fa d73c 2b1a 80bc 6f20 08bd
00000170: 4eec 0d3d 34b8 04bd ea82 abbd 0ded 01be
00000180: 7976 893c 8253 d5bd eb42 43bd 6dd6 833c
00000190: 2d92 0cbe 4a54 fabd e55e e63e cb3a 95bd
000001a0: c6e8 aabd d1cc bfbd 0928 e23e 12f7 6bbd
000001b0: 978b 12bd 79a8 b5bc d993 e13e 8380 dcbd
000001c0: 7683 19bd b97c 113f 60a2 57bc 50f0 16bd
000001d0: 995f a1bd d1ef d0bd da30 40bd b62e 99bd
000001e0: 6973 173e 2cd7 c9bc 1f5b 3ebe 7892 17bd
000001f0: 5bbb 043f 9e47 c2bd aa41 adbd acad 2ebd
00000200: b6e3 0abe aa8c 383f 4260 18bd f575 613c
00000210: a78f efbc 28ae 553f ad18 babc a6ab cfbb
00000220: 5472 c43e deb5 bfbc 397f 66bd b1be 98bd
00000230: a2df 88bd 8139 bcbc 741d f8ba 2e14 f43b
00000240: d2a8 fcbb 355b 9c3d 6764 123f 4266 ccbc
00000250: 9d19 52bd 7eee e63a 864f 153d e5dc b0bd
00000260: cf3c 2abd dd9f aebd 07e4 473f 7582 8abd
00000270: 06f3 11bd e9d5 9fbd 4199 1ebd a471 f3bd
00000280: bad6 81bd 7742 28bd 11f6 03be 407d c23e
00000290: 513b dabc 4513 9fbd f697 cdbd 5781 ea3d
000002a0: c544 e73e 0e94 943c 9517 81bd 4cc4 afbd
000002b0: af3a c0bc bbc4 da3e e85f a4bd 36e9 b9bd
000002c0: 2ed0 78bd ed7e 01be 3acf ecbd fcb0 2fbd
000002d0: e4b3 16be 46bf 0dbd e34c 57bd 657b bdbd
000002e0: b3e8 1dbd e1b2 9abc 6edf a2bd 76b4 d7bd
000002f0: 8d29 aa3e 8c20 acbd 7528 81bc 5361 35bd
00000300: 70dd 1b3d a31c 123f 82c2 98bc 098c a1bd
00000310: 54d1 b03e 6784 3bbd 6739 243f f816 87bd

weight f4 [1, 200]
0.37861586 -0.0013656549 0.0010510458 0.50795317 0.17865443 0.0339295 -0.1632328 -5.577744e-05
0.013450168 -0.0964945 -0.0029692824 0.04039257 -0.051352452 0.23908404 -0.020166682 0.02399313
0.017211352 0.3480676 -0.00037428865 0.045732442 0.023441132 0.015542716 0.007220047 0.013829902
-0.23233289 -0.012075496 -0.0077162893 0.29724923 -0.2183699 0.0023491832 0.105113775 -0.005715031
-0.06245505 0.6078836 0.562459 0.03385261 -0.036967494 -0.017621405 0.043557208 0.0036446024
0.21286285 0.011943255 -0.0038326764 -0.043459084 0.3768548 0.03467886 0.0099159 -0.19160132
0.0076261475 0.038435776 0.002781871 0.010610908 0.009934272 0.15565956 0.4591413 0.03390058
0.5353684 0.5410988 0.036408994 -0.016206976 0.008475272 -0.13779974 0.21343589 0.08508367
-0.01799564 0.0575649 0.016367711 0.033247843 0.4677002 0.1853597 -0.08699993 0.01964174
0.29449615 -0.035418436 -0.058981065 0.0016995699 0.4622168 0.29008502 0.5413276 0.010040056
0.15545706 0.013697332 -0.0864669 0.039176483 0.005664255 0.056436587 0.0836025 0.2882413
-0.020998172 0.02115445 0.009823058 0.030860603 0.10177828 0.024527555 -0.07126538 -0.18138148
0.007613861 -0.056133665 0.061085604 -0.0065364856 -0.077539295 -0.07443318 0.19253978 -0.1806282
-0.05140502 -0.15345228 0.3600787 0.028714914 0.021566574 0.014562857 0.10789246 -0.19700159
-0.024337329 0.31171092 0.024553152 -0.049985003 0.0132242665 -0.07839295 0.028508423 0.016352417
-0.3749659 -0.0049361135 -0.01313629 0.0065206075 0.29442587 -0.181795 0.008850531 0.0010322324
-0.08441592 0.40764013 -0.0067981123 0.03503245 -0.048657503 0.6088311 0.010548306 0.01166225
0.22709516 0.031773973 0.018630225 -0.014092963 0.018009791 -0.015034678 0.01871962 0.004054193
-0.048090782 0.016969545 0.32828826 0.0026998112 -0.009128938 0.017002681 -0.013112258 -0.14792292
-0.14125663 -0.0014344745 0.46442756 -0.18728682 -0.001318784 0.0027006774 0.03802668 0.019051602
-0.023834057 0.04698626 -0.083751634 0.10987337 0.014859952 -0.08707819 0.021718554 -0.38656995
0.26279694 -0.0027138153 -0.16060397 -0.16158421 0.01672047 0.2515183 -0.19677685 0.016471671
0.010846293 -0.14308257 -0.10053933 -0.013749545 -0.16040131 0.03670641 0.021487629 -0.06707002
0.014685719 0.008299458 0.017293073 -0.19260293 0.11252594 -0.05324774 -0.011902273 0.0137480395
-0.00064188155 0.2483398 0.03004104 -0.0053368015 0.26639864 0.010642514 0.41186887 0.017127227
00000000: f0d9 c13e c6ff b2ba 3fc3 893a 3809 023f
00000010: 30f1 363e a9f9 0a3d 8026 27be 92f2 69b8
00000020: 185e 5c3c e99e c5bd 4b98 42bb ae72 253d
00000030: f356 52bd 72d2 743e 9934 a5bc 3e8d c43c
00000040: d2fe 8c3c eb35 b23e 2c3c c4b9 f151 3b3d
00000050: 9e07 c03c e0a6 7e3c 2596 ec3b d096 623c
00000060: ace8 6dbe 4dd8 45bc edd8 fcbb 0d31 983e
00000070: 5c9c 5fbe c1f4 193b e445 d73d 2845 bbbb
00000080: ded0 7fbd 429e 1b3f 50fd 0f3f 09a9 0a3d
00000090: 3a6b 17bd c45a 90bc 0b69 323d 48da 6e3b
000000a0: b8f8 593e a4ad 433c a42d 7bbb 2702 32bd
000000b0: 1df3 c03e 6c0b 0e3d 4d76 223c 2333 44be
000000c0: c3e4 f93b d56e 1d3d 0d50 363b 60d9 2d3c
000000d0: 5bc3 223c 3865 1f3e 9214 eb3e 56db 0a3d
000000e0: e70d 093f 7385 0a3f 9921 153d 7ec4 84bc
000000f0: dedb 0a3c 601b 0dbe f08e 5a3e 5940 ae3d
00000100: 986b 93bc 2cc9 6b3d 9415 863c e42e 083d
00000110: 6776 ef3e efce 3d3e 052d b2bd b7e7 a03c
00000120: 33c8 963e ec12 11bd 2196 71bd 1ac4 de3a
00000130: aea7 ec3e 0686 943e 7294 0a3f 0c7f 243c
00000140: 2330 1f3e c66a 603c 8f15 b1bd 8577 203d
00000150: 379b b93b 0d2a 673d ca37 ab3d 5d94 933e
00000160: 5c04 acbc 194c ad3c e4f0 203c 60cf fc3c
00000170: 2271 d03d 03ee c83c 95f3 91bd 11bc 39be
00000180: b27d f93b 6aec 65bd e634 7a3d 0430 d6bb
00000190: eccc 9ebd 6c70 98bd 2629 453e 99f6 38be
000001a0: 128e 52bd 9822 1dbe 3c5c b83e 8a3b eb3c
000001b0: 62ac b03c 0d99 6e3c b9f6 dc3d c9ba 49be
000001c0: 145f c7bc 9398 9f3e b123 c93c 13bd 4cbd
000001d0: 98aa 583c 7c8c a0bd 7f8a e93c 81f5 853c
000001e0: 88fb bfbe 1fbf a1bb 9839 57bc d2aa d53b
000001f0: fdbe 963e 7828 3abe d101 113c f94b 873a
00000200: 41e2 acbd 35b6 d03e b3c2 debb 307e 0f3d
00000210: 174d 47bd 5bdc 1b3f cdd2 2c3c 0613 3f3c
00000220: a28b 683e 6d25 023d 6a9e 983c 2ce6 66bc
00000230: 4589 933c 0354 76bc e359 993c 09d9 843b
00000240: d7fa 44bd b703 8b3c 6615 a83e 51ef 303b
00000250: 8b91 15bc 3549 8b3c ccd4 56bc 1b79 17be
00000260: 94a5 10be fa04 bcba 73c9 ed3e 1ec8 3fbe
00000270: 0cdb acba d9fd 303b ddc1 1b3d 1b12 9c3c
00000280: a43f c3bc aa74 403d fa85 abbd 4a05 e13d
00000290: 2877 733c 0d56 b2bd 1ceb b13c 7fec c5be
000002a0: 528d 863e 44da 31bb 5e75 24be 5576 25be
000002b0: 5ef9 883c 02c7 803e df7f 49be 99ef 863c
000002c0: a6b4 313c 3d84 12be 90e7 cdbd c645 61bc
000002d0: 3e40 24be 7659 163d d306 b03c 025c 89bd
000002e0: 5f9c 703c 73fa 073c 34aa 8d3c b439 45be
000002f0: 0074 e63d 4d1a 5abd c001 43bc 753f 613c
00000300: f143 28ba ca4c 7e3e a118 f63c 56e0 aebb
00000310: 6765 883e f05d 2e3c 7ae0 d23e 664e 8c3c
