lab2/zip/neural-network-2-critic.pth (torch, 22679 bytes, 5 tensors)

weight f4 [64, 10]
000000 dc bf 16 bd 5a b0 30 3e f4 38 2d bf e9 99 1a bf
       -0.036804065 0.17254773 -0.6766503 -0.603911
000010 82 09 0a be 0f 95 ea be 1a b9 fe be ff b9 62 bf
       -0.1348019 -0.45816848 -0.49750596 -0.8856506
000020 77 0d 32 bf 61 a9 98 bc ec a9 05 3f b0 f0 4c 3f
       -0.69551796 -0.018635454 0.52212405 0.8005476
000030 30 06 00 bf b4 23 c1 be 0a d7 0f 3f ef 21 64 bf
       -0.5000944 -0.37722552 0.561875 -0.8911428
000040 09 b0 aa bf 77 0e 49 be 32 41 01 be a7 cb f0 3c
       -1.3334972 -0.19634424 -0.12622526 0.029393984
000050 b8 3b c1 3d 6d 65 0b 3e 5b 0b 01 bf a6 bf 39 bf
       0.094352186 0.1361291 -0.5040795 -0.7255806
000060 92 25 47 3f 23 fc 43 3e ff 4c a5 bf a2 67 59 3e
       0.777917 0.19139151 -1.2914122 0.21230939
000070 17 3e 8b 3e d7 5e 08 3c 09 fa e7 bc 82 0f b7 3e
       0.27195808 0.008323393 -0.028317468 0.3575402
000080 40 65 89 3e 1d f6 0e 3e 45 4e 91 bf c3 3c ca 3e
       0.2683506 0.13961072 -1.1352011 0.39499483
000090 c6 84 c6 3e 28 94 ab bf 3b 25 8d 3d 7f f9 38 bc
       0.38773173 -1.3404589 0.06891867 -0.011289953
0000a0 4a 56 80 bc 05 de 99 3e 22 ae 4e 3f 1e 45 c8 be
       -0.015666146 0.300522 0.80734456 -0.39115232
0000b0 01 67 73 3d 12 9c 51 bf ff 33 0f be 2b 70 25 3f
       0.059424404 -0.8187877 -0.13984679 0.6462428
0000c0 de 79 7e 3e bc e3 05 3d 84 f0 86 be 5c 43 12 bf
       0.24851176 0.032687888 -0.26355374 -0.5713403
0000d0 e5 30 23 3c b7 e7 f6 be ee 49 dd be 7c f5 a2 be
       0.009960388 -0.4822366 -0.43220466 -0.31827915
0000e0 51 7d e2 3e 5f 34 64 3e 30 9c 0f bd 3a 4e 4c be
       0.44236234 0.22285603 -0.03506106 -0.19951716
0000f0 8a 30 17 3d e8 9e db be b8 d8 1e 3f 5e 0e 72 40
       0.036911525 -0.42894673 0.62049437 3.782127
000100 95 bc c3 3e 2e 3e 96 bd 4e a4 98 3e a6 55 5f 3f
       0.38229814 -0.073360786 0.29812855 0.87240064
000110 41 2d 20 3e 24 ae 9e 3c d5 e1 bf 3d 64 42 ba be
       0.15642263 0.019370146 0.09369246 -0.36378777
000120 08 28 fd 3d 66 7c 67 3f b3 a3 29 be dd 98 b4 3e
       0.12361151 0.9042419 -0.16566353 0.35272875
000130 55 87 42 be 33 b7 3c 3e 94 8f 2f bf 72 1d 16 3c
       -0.18996938 0.1842926 -0.6857846 0.009162294
000140 1d 96 20 3c c0 9e 01 be f7 3a 51 3e a7 44 59 be
       0.009801415 -0.12658215 0.2043265 -0.21217595
000150 f6 93 47 3f 98 ff ab 3e 73 be b9 3e 49 88 8b be
       0.77960145 0.3359344 0.36278114 -0.27252415
000160 14 fc 42 3e 2f b4 38 bd 65 1f b2 be d0 9a c8 3e
       0.19041473 -0.04509371 -0.34789577 0.39180613
000170 7a d5 40 3f 32 88 0f 3f 4b f6 85 bf 67 9d 39 bf
       0.7532574 0.5606719 -1.0465788 -0.725058
000180 95 08 a3 bf f6 e3 77 be de 6c 1c 3d 89 be 22 3d
       -1.2736994 -0.24208054 0.03818976 0.03973249
000190 2e ba 55 3e 13 39 fd be ce ae b6 bf bf 56 31 bf
       0.20871803 -0.49457607 -1.4272096 -0.6927299
0001a0 9d 3b ff 3e 1d e5 af 3d c7 07 19 3e 6d e7 c4 be
       0.4985017 0.08588622 0.14944373 -0.38457814
0001b0 74 6d 03 3d e8 15 69 3c d5 22 7f bf 1a b4 6c be
       0.032086805 0.014226414 -0.99662524 -0.23115578
0001c0 1c 14 d6 be b1 40 33 be 0d ee 02 3f 99 49 01 be
       -0.41812217 -0.17505147 0.51144487 -0.12625732
0001d0 c9 3a 31 bd eb 9a 04 3f f4 44 3d bc fe 0b 73 bb
       -0.043268953 0.51798886 -0.011552084 -0.0037086005
0001e0 d8 91 46 be 19 4e 30 be 7e a8 e4 be ff a6 28 be
       -0.19391572 -0.17217292 -0.446598 -0.16469954
0001f0 cf fc 44 3f 30 19 e3 3e f2 93 f8 3e 64 af 01 3f
       0.76948255 0.44355154 0.48550373 0.5065825
000200 5f 9f 3b 3c 19 4e 76 bc d3 2d b9 3e 8a 4a dc be
       0.011451571 -0.015033268 0.36167774 -0.4302562
000210 bb 23 48 bf c3 f2 4e bd fa ad 5a bf ac 01 ea be
       -0.7817952 -0.050524484 -0.8542172 -0.457044
000220 1b c2 dd bd a0 b6 c9 3e ce a3 8c 3c 16 41 4c 3c
       -0.10828038 0.39397144 0.017167952 0.01246669
000230 18 f3 5b 3e a9 ea a5 be e1 84 a0 be cd a1 4f 3e
       0.21479452 -0.32405594 -0.3135138 0.20276566
000240 cf 7a 27 40 45 f0 a4 bc 4d 56 ce bd 89 5e 38 be
       2.6168706 -0.0201341 -0.10075054 -0.18004812
000250 93 fa 8a 3c d7 76 b3 bb dc 9f d5 bd 9b 3b 2e bf
       0.016965186 -0.0054768133 -0.104308814 -0.680597
000260 61 52 03 3d 98 28 18 3f 56 80 ce be 06 7f d7 3e
       0.032060985 0.5943694 -0.40332288 0.420891
000270 4d e8 2f be 22 30 53 3e 59 eb fd be 3b 4f 2f bd
       -0.1717846 0.2062383 -0.4959362 -0.04280017
000280 29 03 66 bc 9b 99 5f 3e 79 1a 4b bf 40 0b 9b bf
       -0.014038839 0.2183594 -0.7933727 -1.2112808
000290 52 f1 d5 3e 2a 30 9c 3f c0 bd be 3e c7 e1 36 3e
       0.41785675 1.2202199 0.37254143 0.17859565
0002a0 e0 0f 3c bc 4d 7f 2a bd bb 70 24 be 44 88 19 3f
       -0.011478394 -0.04162531 -0.16058628 0.5997355
0002b0 13 2c 4c be 5a 21 65 bf 6a 05 62 3e 53 29 09 3e
       -0.19938688 -0.89504015 0.22072378 0.1339467
0002c0 93 ec 63 3d 72 ed 7e bf 7a 17 cc bc ea ad cb 3a
       0.055645537 -0.9958106 -0.024913538 0.0015539501
0002d0 9f 3f 80 bf c3 8a 6c be 60 7f 9c be 96 15 cf be
       -1.0019416 -0.23099808 -0.3056593 -0.40446156
0002e0 83 4c a5 3e 19 ea 4c be 8d 27 99 3e 02 89 8f be
       0.32284936 -0.20011176 0.29912987 -0.28034216
0002f0 25 64 00 bc ad 3d 9e 3c 0c da 02 3f bc 1d 24 bf
       -0.007836376 0.019316519 0.51113963 -0.6410787
000300 b0 5e 83 3f 47 8d 31 bf 1f 86 a6 be 88 bb ff 3d
       1.0263271 -0.693562 -0.325242 0.124869406
000310 c2 89 88 bc 33 c4 10 3e 32 1a 95 bd 38 1a b3 bb
       -0.01666725 0.14137344 -0.07280387 -0.005465772
000320 4a 96 12 be f0 23 17 bc 1c fa dd 3f aa 46 1f bf
       -0.14315143 -0.009224877 1.7341952 -0.622172
000330 9e 72 6e 3f b7 4f da 3e bd 8a 01 3e 00 fa 4f 3e
       0.9314364 0.42638943 0.1265058 0.20310211
000340 55 ce 02 bd c8 79 3b bc 02 36 25 3e 3d 32 1c 3e
       -0.031935055 -0.011442609 0.16133884 0.1525354
000350 16 3d 34 bf e8 50 4b 3f 2d 9a be 3c 8c b8 af be
       -0.7040571 0.7942033 0.023266876 -0.34320486
000360 3a 1e fa be 7f f6 fc 3d 17 dd 0a 3d 98 f9 f0 3b
       -0.48851186 0.12351703 0.033902254 0.0073539726
000370 92 c5 e0 bc 1e 55 3d 3e 1a ae f6 be b6 08 23 40
       -0.027437959 0.18489501 -0.48179704 2.5474067
000380 dd 18 29 3f bb 08 b4 bd a8 f1 a4 bd 3c 4e a6 be
       0.66053563 -0.08790728 -0.08053905 -0.32481563
000390 f2 81 1e 3c 2c e6 10 3c 36 de bf be 11 ff 3e c0
       0.009674536 0.00884394 -0.3747422 -2.984318
0003a0 83 f9 ea 3c 65 37 37 bf 6e 42 74 be 27 7a fc 3d
       0.02868343 -0.715689 -0.23853466 0.12327986
0003b0 59 3d 45 bf 75 59 6e 3e 67 a9 07 bd 88 19 c4 bb
       -0.77046734 0.23276313 -0.03312054 -0.005984489
0003c0 54 b2 1b bf 7a 23 d9 be 82 a8 0a 3f 4b 83 20 bf
       -0.6081898 -0.4240988 0.5416337 -0.6270034
0003d0 7f 42 fb bd 1d 71 8c 3f 66 d3 3f 3d a1 8f 57 bf
       -0.122685425 1.097202 0.046832465 -0.84203535
0003e0 61 b7 23 3c 71 dc 5c bd 8e 26 4d be 2f a2 82 3e
       0.009992451 -0.053921167 -0.20034239 0.2551436
0003f0 b7 69 55 3e d9 3e 7b bf 13 8e 08 3f 60 bc 87 bf
       0.20841108 -0.9814277 0.5334179 -1.0604362

bias f4 [64]
000000 e9 a1 04 3e 0d 83 7a 3e b7 80 03 3c 9c 3b 04 3d
       0.12952389 0.24464054 0.0080262935 0.03228341
000010 4e 2a e6 bd 57 67 1f bf 10 0b 97 3d 21 33 52 be
       -0.11238538 -0.6226706 0.07375157 -0.20527317
000020 b9 7a 19 3f c1 a6 b0 3e c5 c8 ea 3e 25 27 94 ba
       0.59952885 0.34502223 0.458563 -0.001130317
000030 77 ce 9d bd 81 49 87 3e 4c cf 94 bd 50 4a 88 3e
       -0.07705396 0.26423267 -0.07266101 0.26619196
000040 70 ae b2 3e 99 88 27 bd cc c1 b7 be f2 59 b0 be
       0.3489871 -0.040901754 -0.35890043 -0.34443623
000050 99 f3 92 bd fd ca 27 bf 09 d9 2c 3c 31 14 b2 3e
       -0.07175369 -0.6554411 0.010549792 0.3478103
000060 83 63 ab 3e ef 2d cf 3e 45 78 48 3d 70 61 00 3f
       0.3347436 0.40464732 0.048942823 0.5014868
000070 81 07 a7 3d cc 97 50 3d bb 6b e4 be aa 36 2b bd
       0.08155728 0.050926015 -0.44613442 -0.04180018
000080 aa 28 9c 3e 7f 31 0c 3e 87 75 5d 3e e7 78 80 3d
       0.30499774 0.13690756 0.21626864 0.0627306
000090 a3 11 b8 be 08 48 47 3e f5 a3 e1 be 14 e7 84 3d
       -0.35950956 0.19461071 -0.44070402 0.06489387
0000a0 d6 52 7b be b5 5d c9 bd f4 44 82 3a 3b 4b b5 3d
       -0.24543318 -0.09832326 0.0009938763 0.0885224
0000b0 6b 44 ae be 90 52 75 be 23 6c de 3e 0c 81 55 3c
       -0.34036574 -0.23957276 0.43441877 0.013031255
0000c0 ce ff 72 be 50 9a 63 bd 94 29 03 bf e8 76 f6 3e
       -0.23730394 -0.055567086 -0.5123532 0.48137593
0000d0 f8 b4 d4 bd 9c 93 2f 3d 05 57 67 be ae 04 b1 be
       -0.103860795 0.04286538 -0.22591789 -0.34573883
0000e0 89 95 fe 3d f7 bb 52 be 49 b0 ad bd 37 f1 00 bf
       0.12430865 -0.20579515 -0.08480889 -0.50368065
0000f0 e7 3a 9b be ab 85 53 3e 42 d0 d4 3e cb da bd 3d
       -0.30318376 0.20656459 0.41565138 0.09270247

weight f4 [64, 64]
000000 d2 3a 9c 3d 7f 3c 00 bd 0c 81 39 3c 4b a1 46 3d
       0.076284066 -0.031307694 0.011322271 0.048493665
000010 41 c5 fe 3c f9 f0 31 3d c8 15 34 3d ed a5 5b bd
       0.031099917 0.0434427 0.043966085 -0.053625036
000020 90 ae 1e be eb 1d 4e bd 1e ce b3 bd 27 0f 4f 3d
       -0.15496278 -0.0503215 -0.08779548 0.05055156
000030 8e 3a 8e 3d 43 0b 4c bd 28 af 3c bd 92 39 e4 3c
       0.06944762 -0.049815428 -0.04606548 0.027859483
000040 26 7d ed bb 9d 25 d7 bd 3f 39 62 3d 04 5f be 3d
       -0.007247585 -0.10505221 0.055230375 0.092954665
000050 30 db 89 3d 3c 35 34 3d 5d d2 fe bd 05 1e b6 bd
       0.0673126 0.04399608 -0.12442467 -0.088924445
000060 f7 8e d5 bd e7 00 c1 bd dd a0 9a 3d d5 c1 16 be
       -0.10427659 -0.09424 0.075502135 -0.14722379
000070 0a 5b 84 bd 4f 15 7d bd 68 fc 63 3d 1a 97 16 bc
       -0.06462677 -0.0617879 0.055660635 -0.009191299
000080 16 32 65 bd 24 11 9c bd 34 91 b4 bc f2 ad b2 3c
       -0.05595597 -0.07620457 -0.022041894 0.02181146
000090 28 9b 2f 3b 89 cb 8c 3d 29 e3 8f bd 04 67 97 3d
       0.0026795361 0.06874759 -0.07025749 0.073926955
0000a0 76 d3 29 bc 58 dc 35 3c c0 c3 a8 bb 1d 15 15 3d
       -0.010365358 0.011099897 -0.0051502883 0.03639709
0000b0 ba 19 0f bd 4f 71 5f 3d 0b 13 de bd 04 2b 84 3d
       -0.034936644 0.05455142 -0.10843476 0.06453517
0000c0 5c 7f 6e bd 1c 82 8e bc 39 80 49 bc fb 5c 89 3d
       -0.058226928 -0.017396025 -0.012298637 0.06707188
0000d0 49 bb 3d bd 17 cc 2e bd bf 97 a7 bd cb 45 d5 3c
       -0.046321187 -0.042675104 -0.0818324 0.026034256
0000e0 df fd 07 be c3 d7 02 be f9 1d 87 bd 87 27 9b 3d
       -0.13280438 -0.12777619 -0.06597514 0.075758986
0000f0 31 c7 f2 bd 33 c5 27 3d b6 f3 e5 bd e7 0a e7 bd
       -0.11854399 0.04095955 -0.11228125 -0.11281376
000100 be 8a c9 3d cc e8 87 3e b9 97 66 3e ad d2 b7 3e
       0.09840916 0.26544797 0.22518815 0.3590292
000110 13 dd b0 bd fc 5b b5 be 8c 1f 2a bd a4 69 1b 3e
       -0.086359166 -0.3542174 -0.04153399 0.15177017
000120 07 4c 92 3e 72 32 61 3d fd 19 61 3e fd 10 f4 be
       0.2857363 0.05497975 0.2198257 -0.4766921
000130 c8 c2 d0 be 57 49 28 3f 8f 3a 36 3f e3 bd 4d 3e
       -0.40773606 0.6573691 0.71183103 0.20091967
000140 17 19 40 3e a7 a8 e2 3e ef df 7a bd a2 30 9e be
       0.18759571 0.44269297 -0.061248716 -0.3089648
000150 37 12 8a 3e e8 8e a2 bf d2 e5 8a 3f a7 fd 3e 3f
       0.26967022 -1.2699862 1.0851386 0.7460579
000160 17 ce da 3e 17 3f e8 3e d8 96 b4 3d 03 0d 01 3f
       0.4273536 0.45360634 0.08817834 0.5041048
000170 e5 e3 94 be 40 31 77 3f b4 14 0d 3e 73 c0 c5 3e
       -0.2908012 0.96559525 0.13777429 0.3862339
000180 4e df cc 3e 06 e8 80 3e 42 0d b5 3d 75 8b be bc
       0.40014118 0.2517702 0.08840419 -0.023259858
000190 10 02 1c bf 00 46 65 3e e0 0e f3 be e7 32 53 3e
       -0.6094065 0.22389984 -0.47472286 0.20624886
0001a0 3a ac 2b be 6c c3 55 bd 07 22 83 3f ec 06 2e 3d
       -0.16764918 -0.052188322 1.0244759 0.04248707
0001b0 c2 eb 9a 3d ec f7 19 bf 68 d5 21 3f 39 ab f3 bd
       0.075644985 -0.60143924 0.6321626 -0.118978925
0001c0 8f 53 cd 3d de 52 ec be 3e 8a 1d be 71 b4 38 be
       0.10025703 -0.46156973 -0.15384766 -0.18037583
0001d0 6d ae ca 3e 42 98 0c 3e 9d fc f1 be 33 d3 7b be
       0.395862 0.13729957 -0.4726304 -0.24592285
0001e0 81 7a c9 3e 58 c5 a3 be 84 df 68 3e 35 e7 c9 be
       0.39351276 -0.319865 0.22741514 -0.3943421
0001f0 06 9e 95 be 7e e8 6e 3e c0 1d d3 3e 96 6e 08 3e
       -0.29222125 0.23330876 0.41233635 0.13323435
000200 2e bd 28 be 68 6c 17 bd 59 bd 4b be 50 31 04 3f
       -0.16478416 -0.03696862 -0.19896449 0.51637745
000210 4d 75 7c 3e cb a8 e6 bd 71 6f 76 3e 06 bc 92 bd
       0.24654122 -0.112626635 0.24065949 -0.07164769
000220 73 06 65 3e 1a 80 65 3f 1d a1 ad bc 23 07 3f be
       0.22365741 0.8964859 -0.021194989 -0.18655066
000230 f4 4b 3f bf 0f ee 1c 3e 7a 14 4b 3f 2c e4 94 3e
       -0.7472527 0.15325187 0.7932812 0.2908033
000240 a7 14 a4 bf 0a c0 22 bf 34 da 9b 3e 66 84 c4 3e
       -1.2818803 -0.6357428 0.30439913 0.38382262
000250 92 48 42 bf be 3e 0f c0 14 e6 0b 3f bc df 5d 3e
       -0.75891984 -2.2382045 0.54647946 0.21667379
000260 95 4e ad 3e ce 7c 93 bd bc 8d 73 bf 17 bd b8 be
       0.33849016 -0.07201539 -0.95138144 -0.36081764
000270 15 2e 22 be 60 e1 2d 3e 3c 99 36 3e 28 9f 5f bf
       -0.15837891 0.16980505 0.17831892 -0.8735223
000280 46 94 8f bf 48 ec 8e 3e 6c d9 9d 3e 9a c5 09 3e
       -1.1217124 0.27914643 0.30829942 0.13454285
000290 d9 e4 be 3e 7b ee 6f bf de 52 c1 be 26 05 86 3e
       0.37283972 -0.9372327 -0.37758535 0.26175803
0002a0 9c 40 b5 bf 39 4a 92 be 55 09 15 3f 5f 09 f1 be
       -1.4160342 -0.28572252 0.58217365 -0.47077462
0002b0 06 a9 27 bf cf 86 a6 be 7f b8 e5 bd 82 cc 29 3e
       -0.65492284 -0.32524726 -0.112168305 0.1658192
0002c0 10 05 21 bd 9a 1b 5e 3e 8a f7 97 be d6 f7 cc bd
       -0.03931147 0.21690217 -0.29681045 -0.100082085
0002d0 d2 0b 83 3e 7f 30 e9 3d f9 ed a2 3d e1 a6 22 3f
       0.25594956 0.11386203 0.07955546 0.63535887
0002e0 b8 94 2d 3f ee f6 4f bd 7f 14 0c bf 08 d3 e0 bd
       0.6780505 -0.0507726 -0.54718775 -0.10977751
0002f0 99 2b 8d 3e f8 3d c4 bf 3a ad 24 3f 93 0e 2f 3f
       0.27572325 -1.5331411 0.6432682 0.68381613
000300 ef df 4c 3e f7 71 91 bf 8f ae 36 bf 49 1b b8 3e
       0.20007299 -1.1362904 -0.71360105 0.35958317
000310 1e 3c de bd 07 28 19 be 4c 1c 65 bf 51 41 25 3e
       -0.1085131 -0.14956675 -0.894963 0.16138197
000320 a2 0e 3e 3e 90 ad bf 3d 31 9e ab bb b6 b7 3c bf
       0.1856027 0.09359276 -0.0052373637 -0.7371782
000330 a4 7a ad 3e 7a 7c c5 3d 40 45 25 bf 8a cf 03 3e
       0.3388263 0.09642883 -0.6455879 0.12872139
000340 46 8b 14 3e c9 e9 7f bf c4 67 a3 be e5 34 67 be
       0.14506254 -0.999661 -0.31915104 -0.22578771
000350 e9 58 f9 bc cd 98 92 bd 40 75 0a 3f 23 f0 74 be
       -0.030437903 -0.07158051 0.5408516 -0.2391973
000360 c8 48 3c 3f 9d ef 7e be ba 47 73 be 78 82 bd 3e
       0.73548555 -0.24896093 -0.2375783 0.37013602
000370 2d 73 00 3e 15 6b a3 bd 02 31 51 be b3 59 de bf
       0.12543936 -0.07979409 -0.20428851 -1.7371124
000380 ff 43 d2 3e 77 89 29 bf a2 1e bb 3e 67 f5 1b be
       0.41067502 -0.6622538 0.36546808 -0.15230332
000390 0e c0 2a bd 35 bc f7 bc a6 27 7f be ce 45 23 3f
       -0.041687064 -0.030241111 -0.24917468 0.6377839
0003a0 e3 98 f9 3e 45 fb 78 bf 62 cd 21 bf 83 7f 90 3d
       0.48749456 -0.97258407 -0.63204014 0.07055571
0003b0 92 22 b4 3f ee d1 9c bf d1 15 0d 3d 37 4c aa bf
       1.407305 -1.2251565 0.034444634 -1.3304509
0003c0 50 c5 c2 be c6 a6 d3 3e 00 e7 06 bf 99 66 1a 3e
       -0.38041162 0.41338176 -0.5269623 0.150782
0003d0 6e 57 e3 be 06 3c a2 3c 36 b8 98 be 20 5c 00 be
       -0.4440264 0.019804012 -0.29828042 -0.12535143
0003e0 e9 d4 e5 be c9 58 c9 3e a7 7f 94 bf 2b b7 02 3f
       -0.44889 0.3932555 -1.1601456 0.5106074
0003f0 b6 9e 85 bd de c3 31 3e 04 ae 87 3d 4e 71 82 3e
       -0.06524412 0.17359874 0.06624988 0.2547707

bias f4 [64]
000000 74 30 c0 bd 2b 28 c6 3e 89 51 fc 3e e1 dd 84 bd
       -0.09384242 0.3870252 0.49280956 -0.064876325
000010 5d ce 4e 3e 74 63 ba be dd fe a8 3d 89 6d 9a be
       0.20195909 -0.36404002 0.08251736 -0.30161694
000020 e5 2d 88 3e 26 d8 69 bd ef f0 46 3e c4 9a d1 be
       0.26597515 -0.0570909 0.19427846 -0.4093839
000030 ce 92 bb 3e 83 af 67 be c7 55 43 3e fc cf da 3e
       0.3663544 -0.22625546 0.1907569 0.42736804
000040 57 af 47 3b 49 fd de 3a 28 88 b6 bb a6 f8 23 3e
       0.00304695 0.0017012741 -0.0055704303 0.1601282
000050 fd b2 f5 3e 64 41 b5 3e c6 2f 8d 3d 82 51 0c be
       0.4798812 0.35401452 0.06893878 -0.13702968
000060 fb 69 55 be b7 74 dc 3c 9a 25 0b 3e c9 4b b2 be
       -0.2084121 0.026911123 0.13588563 -0.34823444
000070 8b bc 5e 3d 96 e4 8e 3d 7e b6 f8 3c c6 77 b8 3e
       0.054379027 0.06977193 0.030360457 0.3602888
000080 0e 28 83 be ad 5e 79 be 1b 3f 30 3e 2e 05 d0 3d
       -0.25616497 -0.24352522 0.17211573 0.10157238
000090 17 d9 1d be f6 76 c5 be 97 75 73 3e 76 0b cc bd
       -0.15414844 -0.38567322 0.23775326 -0.099631235
0000a0 c5 a3 8a 3e c3 01 83 bd 6b 16 84 3e 34 d3 48 3e
       0.2707807 -0.063968204 0.25798354 0.19611818
0000b0 54 36 76 bd 77 00 c0 3d 23 29 a0 3c f5 38 26 be
       -0.060110405 0.09375089 0.019550866 -0.16232665
0000c0 c1 a9 e1 be 3a 4d 8c 3e 05 ef 5c 3e a7 a7 80 3e
       -0.44074824 0.2740267 0.21575554 0.2512791
0000d0 0f 54 8b bd bb 83 d0 3e 82 8f 2d bc 6c 40 8c bd
       -0.06803142 0.40725502 -0.010593297 -0.06848225
0000e0 ce 04 f4 bc 01 21 aa 3d 8a 22 e1 bd 97 6b 06 3f
       -0.029787447 0.08307076 -0.10992916 0.5250792
0000f0 f8 d3 fd bb e4 3f d4 bd ff bd 69 bd 15 72 89 be
       -0.007746216 -0.10363749 -0.05706596 -0.2684485

weight f4 [1, 64]
000000 24 29 a7 b9 fd 76 58 3f 7d b1 67 40 1e 49 10 40
       -0.00031883374 0.8455656 3.620208 2.2544627
000010 c5 4c a4 bf 46 b4 e0 3f 48 cb 1c bf ce eb 5b bf
       -1.2835928 1.7555015 -0.6124768 -0.85906684
000020 d8 b2 0b c0 02 ff 05 c0 3d 07 c6 bf d4 bb eb bf
       -2.1827908 -2.0936894 -1.5470959 -1.8416696
000030 45 82 48 3f b3 a5 2d bf 7d b2 37 bf b8 c9 51 3f
       0.78323776 -0.6783096 -0.71756727 0.81948423
000040 69 24 18 bf 07 ef eb 3f 6e 22 05 40 4a e7 3f bf
       -0.5943056 1.843232 2.0802264 -0.74962294
000050 a4 76 3d 3f 55 80 48 3f 29 6b a0 bf 9e 11 02 3d
       0.74009156 0.7832082 -1.2532703 0.031755082
000060 13 fd ff bf d9 c4 14 c0 dd 6c d3 3f ac da 06 40
       -1.9999107 -2.3245146 1.6517597 2.1070967
000070 33 cb 67 bf 87 03 f2 3f 15 59 ca 3f e2 e9 d6 bf
       -0.9054443 1.8907326 1.5808436 -1.6790125
000080 cf 02 8b bf a8 ce d7 3f 16 e6 a0 bf 45 98 03 c0
       -1.0860232 1.6859941 -1.2570217 -2.0561688
000090 69 89 61 bf 2f 08 9f bf d4 d9 f3 3f 88 ec 97 3c
       -0.88100296 -1.2424372 1.9050851 0.018545404
0000a0 ad 11 3a bf 83 26 94 bf 56 4e 52 bf b4 90 c7 bf
       -0.7268322 -1.1574253 -0.8215078 -1.5591035
0000b0 b9 a7 29 bf 49 33 dc 3f 59 12 16 bf e5 d6 fb bf
       -0.6627155 1.7203151 -0.58621746 -1.9674956
0000c0 4c 3c a6 bf 0b b2 7e bf 70 2a 08 40 4a 3a 94 bf
       -1.2987151 -0.9949042 2.1275902 -1.1580288
0000d0 e9 5d 34 bf 60 0f 65 3f ad bc 69 bf 6c f3 33 bf
       -0.70455796 0.89476585 -0.9130352 -0.7029331
0000e0 2c 05 13 c0 52 67 26 bf 4b 16 b7 3d 93 89 3f 3f
       -2.2971907 -0.65001404 0.08939799 0.74819297
0000f0 5d 92 ee 3f 2a c6 b2 bf 8b 05 23 40 34 c9 e1 bf
       1.8638417 -1.3966725 2.5472133 -1.7639527
