lab2/problem2/neural-network-2-actor.pth (torch, 339927 bytes, 6 tensors)

weight f4 [400, 8]
0.23148012 -0.4244261 1.3272018 0.72217625 -0.31601042 0.39280832 -0.47359073 -0.03741736
0.11749795 -0.30348298 0.7629034 0.49284658 0.066176236 0.06805487 0.009260432 -0.1627655
0.08740636 -0.58885545 0.6879634 0.78522885 0.10909679 1.1427742 0.21415071 -0.34470123
-0.017488934 -0.17224018 -0.7290043 0.9864036 -2.0404425 0.102521084 0.32012936 -0.3556391
0.37128466 -0.1430367 0.57592463 0.20239598 1.2409678 0.7127689 0.15132864 0.21171905
-0.24714306 -0.5064062 0.55440426 1.1540442 2.2326071 0.24720068 -0.37110448 0.024396736
0.6655536 -0.758469 -0.9481155 -0.44634902 0.26477563 -0.5470806 0.0006854753 0.3717155
-0.16676871 -0.22556676 -0.33642524 0.91695213 0.15575331 1.0144451 -0.4823881 -0.0043802266
0.091031276 -0.0725232 -0.055869244 0.53664756 -0.47282466 -0.4707042 -0.49873996 -0.22698724
-0.05543761 0.08631479 0.6981846 0.38270345 -1.1100901 -0.036133084 -0.15245411 -0.67805994
-0.6732834 0.025741756 -0.48385477 -0.12649474 0.42189112 -0.19884 -0.3262955 0.1356635
-0.31338498 -0.097939596 0.017060466 -0.4643314 1.0536997 0.009933168 -0.027287126 0.16580229
0.8319651 -0.13039403 -0.34544063 -0.6091899 0.30929115 -0.10707706 -0.36117956 -0.3483568
0.17215927 -0.15492791 0.108733796 -0.3997529 0.289361 1.0381899 0.2132123 -0.19973105
-0.09447229 -0.6329629 -0.5184443 0.12168207 -0.6803843 -0.55887717 0.30247834 -0.36454412
0.7790885 -0.3105443 0.44682685 -0.1490036 -0.48102084 0.15608135 -0.27839515 -0.091238044
-0.46132833 -0.9531838 -0.7525509 1.2599529 1.2515185 0.043349005 0.30271557 -0.098682664
0.052549955 -0.5217775 -0.070520125 -0.5026424 0.49221972 -0.27277568 -0.19829558 0.04859533
-0.093186036 0.07378246 0.43531677 0.64792377 -0.32476515 -0.9792254 -0.18817993 -0.19472384
0.7776235 -0.48537913 0.04044102 0.48688462 0.54913896 -0.22597992 -0.42692605 0.18371107
-0.22972523 -0.42906135 0.5335915 0.6531721 -0.51397955 -0.48968086 0.065012455 -0.19232258
-0.055810116 -0.3621985 -0.7135014 -0.6351442 0.13961256 -0.20559688 -0.27942306 -0.16114117
0.09932149 0.17120735 0.71605676 0.11406874 0.59445226 -0.082014084 -0.009758358 -0.4113259
0.7909409 0.21868591 0.18801247 -0.17676139 -0.6704207 -0.3928245 -0.06281158 -0.19372196
-0.21255508 -0.2854046 -0.33178833 0.72523427 -1.350179 -0.56825 -0.16130129 -0.037428625
-0.3152777 0.22318463 -1.0021996 -0.5828133 0.462533 -0.22976664 -0.21693945 0.15616317
-0.06944816 -0.4681149 -0.023516294 0.3826029 1.1025829 -0.013318832 -0.11083029 -0.0063282787
-0.07481579 -0.5007879 0.9137474 0.44468138 -0.4216592 -0.8365013 -0.012567344 -0.053221118
-0.1231488 0.10009261 0.12423965 -0.34562907 -1.5065978 -0.39209414 -0.6270687 -0.30174467
0.37567425 0.15902257 0.86687464 0.9969181 -0.10653016 0.22570844 -0.58016187 0.36064878
-0.026377326 -0.48205644 0.9472491 0.8277363 -0.6816296 0.0074563534 0.106736936 -0.2668699
0.11478696 0.024453253 0.3959276 0.84596235 -0.81121397 -0.27526316 -0.3409042 0.08481612
00000000: 2009 6d3e 614e d9be c0e1 a93f 8be0 383f
00000010: 1ecc a1be 2c1e c93e 7c7a f2be f242 19bd
00000020: c4a2 f03d 1f62 9bbe a34d 433f 6356 fc3e
00000030: 6887 873d 5a60 8b3d 11b9 173c 00ac 26be
00000040: 1b02 b33d 3bbf 16bf 5f1e 303f c204 493f
00000050: 236e df3d 6d46 923f 534a 5b3e ae7c b0be
00000060: f444 8fbc bb5f 30be 07a0 3abf f284 7c3f
00000070: 9c96 02c0 93f6 d13d ffe7 a33e 5416 b6be
00000080: 0619 be3e 3678 12be cc6f 133f e440 4f3e
00000090: 08d8 9e3f 0678 363f e5f5 1a3e e1cc 583e
000000a0: 1213 7dbe d6a3 01bf 70ed 0d3f b8b7 933f
000000b0: 09e3 0e40 2d22 7d3e 6801 bebe aadb c73c
000000c0: b961 2a3f 062b 42bf b3b7 72bf dc87 e4be
000000d0: ac90 873e 790d 0cbf 78b1 333a 7e51 be3e
000000e0: 6bc5 2abe f9fa 66be ee3f acbe 60bd 6a3f
000000f0: cc7d 1f3e 56d9 813f 93fb f6be 0188 8fbb
00000100: 9b6e ba3d 0b87 94bd 26d7 64bd bc61 093f
00000110: 1316 f2be 2400 f1be d85a ffbe 586f 68be
00000120: 8c12 63bd cfc5 b03d 3abc 323f b5f1 c33e
00000130: 6f17 8ebf 4900 14bd ee1c 1cbe 5695 2dbf
00000140: 4d5c 2cbf 60e0 d23c d0bb f7be d687 01be
00000150: 1d02 d83e b79c 4bbe 3410 a7be 5feb 0a3e
00000160: ff73 a0be 8e94 c8bd 64c2 8b3c d8bc edbe
00000170: a2df 863f babe 223c 4089 dfbc 13c8 293e
00000180: aafb 543f 0386 05be 98dd b0be dff3 1bbf
00000190: 695b 9e3e 384b dbbd 87ec b8be d35b b2be
000001a0: 854a 303e 6ca5 1ebe d3af de3d 69ac ccbe
000001b0: 2027 943e 68e3 843f 5354 5a3e 4c86 4cbe
000001c0: b07a c1bd db09 22bf c4b8 04bf 7334 f93d
000001d0: aa2d 2ebf 9312 0fbf 71de 9a3e 87a5 babe
000001e0: 5872 473f aaff 9ebe 7dc6 e43e 6694 18be
000001f0: 5d48 f6be cad3 1f3e cf89 8ebe 03db babd
00000200: 3a33 ecbe db03 74bf 2da7 40bf 2346 a13f
00000210: c231 a03f ba8e 313d 89fd 9a3e 231a cabd
00000220: 9f3e 573d 3693 05bf db6c 90bd 2cad 00bf
00000230: 3904 fc3e 41a9 8bbe ff0d 4bbe e60b 473d
00000240: 52d8 bebd 421b 973d d7e1 de3e 55de 253f
00000250: 9e47 a6be 84ae 7abf 3db2 40be b065 47be
00000260: 5512 473f 9d83 f8be 7ca5 253d f148 f93e
00000270: 5f94 0c3f 4867 67be 0d96 dabe c11e 3c3e
00000280: 173d 6bbe eead dbbe 7499 083f 4936 273f
00000290: 2a94 03bf 73b7 fabe 4025 853d 36f0 44be
000002a0: 2699 64bd 1572 b9be 07a8 36bf cf98 22bf
000002b0: 98f6 0e3e fd87 52be 8a10 8fbe 3102 25be
000002c0: 1169 cb3d fb50 2f3e 7f4f 373f df9c e93d
000002d0: 062e 183f 00f7 a7bd 85e1 1fbc 4f99 d2be
000002e0: 1a7b 4a3f 33ef 5f3e 5786 403e f000 35be
000002f0: b1a0 2bbf 4b20 c9be 5ca3 80bd 0d5f 46be
00000300: 0aa8 59be 8d20 92be 29e0 a9be f4a8 393f
00000310: aad2 acbf d578 11bf 2a2c 25be c24e 19bd
00000320: 146c a1be 838a 643e 1448 80bf 4133 15bf
00000330: 20d1 ec3e f247 6bbe 6025 5ebe 3de9 1f3e
00000340: d63a 8ebd c2ac efbe 3ea5 c0bc 87e4 c33e
00000350: 7021 8d3f 3b37 5abc fefa e2bd 735d cfbb
00000360: 0539 99bd a333 00bf 59eb 693f 47ad e33e
00000370: b7e3 d7be f324 56bf 43e7 4dbc 63fe 59bd
00000380: 7035 fcbd 5bfd cc3d 5c71 fe3d 4bf6 b0be
00000390: 32d8 c0bf 90c0 c8be 9387 20bf 477e 9abe
000003a0: 6058 c03e d0d6 223e 7feb 5d3f 0636 7f3f
000003b0: 7c2c dabd 1d20 673e 7d85 14bf f5a6 b83e
000003c0: 4315 d8bc 1ad0 f6be eb7e 723f 87e6 533f
000003d0: 477f 2ebf 6d54 f43b e598 da3d 2ca3 88be
000003e0: 6d15 eb3d 3052 c83c 06b7 ca3e fd90 583f
000003f0: b8ab 4fbf 4bef 8cbe ff8a aebe 13b4 ad3d

bias f4 [400]
0.08952633 -0.18397121 0.1461364 -0.14773229 -0.13436106 -0.16941118 -0.08689492 -0.011014366
-0.4927804 -0.2379281 -0.14544821 0.015578774 -0.036128037 -0.21272942 0.09480137 0.04362981
0.0055661877 0.17543428 -0.5057804 -0.17308187 0.124231294 -0.076380454 -0.42405778 0.1339366
-0.029696308 -0.075671405 -0.16928162 0.099934325 -0.032700673 -0.15698792 0.13381417 -0.5111323
-0.22857553 -0.6416367 -0.07906772 0.08897401 -0.0002676434 0.12325571 -0.27273697 0.109544806
-0.24523295 -0.06508517 0.033565328 -0.0811544 -0.3166804 -0.33328792 0.09049015 -0.23344724
-0.13438016 -0.33169514 -0.18988357 0.1767461 -0.19554098 -0.2986759 -0.24924019 -0.28944352
0.049278833 -0.11693238 0.009468938 -0.47450554 0.21740273 -0.14601752 -0.031287868 0.10706695
0.14975373 -0.08496541 -0.33439487 -0.095851384 -0.32946748 -0.3194933 -0.18216507 -0.18437496
-0.28412107 -0.19032738 -0.38982412 0.0069924966 0.005123656 -0.22509584 -0.19457436 -0.066552095
-0.14906691 -0.29244903 -0.31930435 -0.12694909 -0.19183482 -0.073163085 -0.25790825 0.01444721
-0.08807614 0.03640519 0.3059606 0.044591784 0.014545517 -0.1111504 -0.051443256 -0.47411653
0.19355375 -0.18180567 -0.19391514 -0.41189554 -0.30669913 -0.15774338 0.017673379 -0.12927817
0.0586751 0.08280761 -0.30087903 0.099934 -0.19505082 -0.2710188 -0.29247233 -0.110440485
-0.06786381 -0.44564903 -0.15937322 -0.17795429 -0.23402397 -0.39272434 -0.48550794 -0.0698244
0.056020986 -0.013832648 0.15234102 -0.3767191 -0.37433076 -0.17478764 -0.16177656 -0.08350581
-0.27000657 0.07157686 0.04094068 -0.067365795 -0.04429217 0.13998011 -0.011628652 -0.41709366
0.053228322 -0.11266418 -0.44455126 0.10491593 -0.1369007 -0.20136619 -0.27064645 -0.16264774
-0.020081032 0.05014624 -0.30116236 0.20327203 0.058031872 -0.22887027 -0.0064967535 -0.1687943
-0.107924774 -0.5690436 -0.12078523 -0.19271399 -0.34212565 -0.05432907 0.020087214 -0.30643937
-0.11849135 -0.16364141 0.1619295 0.06154485 -0.35020077 -0.10815572 -0.13652475 -0.18411632
-0.22837819 -0.17220804 0.06729051 -0.33014634 -0.031348307 -0.14766161 -0.2221976 -0.04914308
-0.23224917 -0.06109011 -0.13667634 -0.23355871 -0.102139525 0.10207173 -0.049302187 -0.34768137
-0.11547261 -0.33983707 0.023944803 -0.07352469 -0.07578805 0.04181099 0.1547701 -0.15049125
-0.1015695 -0.14141156 -0.18434791 -0.13563098 -0.039218295 -0.17591658 0.05761986 0.018047476
-0.07430998 0.037421674 -0.27648345 0.21667711 -0.43658596 0.16085963 0.030718477 -0.3604093
0.08690206 -0.24410391 -0.17091124 -0.20570745 -0.043946885 -0.033412535 -0.13928287 -0.2874844
-0.11439282 -0.06880135 -0.029978195 -0.2771938 -0.14050603 0.17395398 0.08058487 -0.19637541
0.030978763 -0.11516291 -0.07481088 -0.11644421 -0.31494358 -0.31751502 0.14444149 0.016816597
-0.30127448 0.025051944 -0.00301353 0.15984413 0.010386506 -0.41194743 -0.2708818 -0.020682422
-0.002821795 0.07261175 0.031348925 -0.03898297 -0.18375213 -0.08716964 -0.23448837 -0.3629237
-0.22713423 -0.13726117 -0.29273325 -0.056216124 -0.30058324 -0.09914216 -0.12958148 -0.30049887
00000000: 9559 b73d f362 3cbe c8a4 153e 2247 17be
00000010: f295 09be 207a 2dbe f7f5 b1bd 9975 34bc
00000020: b64d fcbe 6da3 73be 60f0 14be 1d3e 7f3c
00000030: fefa 13bd bed5 59be 3827 c23d 2cb5 323d
00000040: 9164 b63b 0ba5 333e d37a 01bf 603c 31be
00000050: fa6c fe3d 5b6d 9cbd 1a1e d9be ad26 093e
00000060: ac45 f3bc 9cf9 9abd 2958 2dbe 5eaa cc3d
00000070: 24f1 05bd 71c1 20be 9506 093e 91d9 02bf
00000080: b40f 6abe 4e42 24bf 42ee a1bd 0138 b63d
00000090: 7d52 8cb9 7d6d fc3d 2ea4 8bbe 0759 e03d
000000a0: 591e 7bbe 604b 85bd cc7b 093d 4734 a6bd
000000b0: ef23 a2be b7a4 aabe e652 b93d cb0c 6fbe
000000c0: f49a 09be f2d3 a9be d770 42be eefc 343e
000000d0: e53b 48be 0cec 98be d238 7fbe f131 94be
000000e0: 9ad8 493d 3e7a efbd 9b23 1b3c 64f2 f2be
000000f0: d29e 5e3e 9e85 15be b527 00bd eb45 db3d
00000100: 0b59 193e 5802 aebd ce35 abbe bb4d c4bd
00000110: f6af a8be a094 a3be 7b89 3abe cacc 3cbe
00000120: 5178 91be 2ee5 42be 0797 c7be 5021 e53b
00000130: 57e4 a73b 867f 66be 803e 47be 774c 88bd
00000140: ffa4 18be e1bb 95be dc7b a3be f1fe 01be
00000150: 5970 44be 87d6 95bd 8d0c 84be feb3 6c3c
00000160: 4361 b4bd 9c1d 153d dea6 9c3e e0a5 363d
00000170: 5250 6e3c d2a2 e3bd 2ab6 52bd 67bf f2be
00000180: f432 463e 442b 3abe b191 46be f9e3 d2be
00000190: ab07 9dbe 7b87 21be c3c7 903c 7f61 04be
000001a0: 4d55 703d 0997 a93d d10c 9abe 32aa cc3d
000001b0: 67bb 47be fac2 8abe efbe 95be 9f2e e2bd
000001c0: 2efc 8abd 1c2c e4be bc32 23be a639 36be
000001d0: fba3 6fbe 2a13 c9be 7f94 f8be 1800 8fbd
000001e0: 4376 653d 55a2 62bc 49ff 1b3e 53e1 c0be
000001f0: 48a8 bfbe 88fb 32be c1a8 25be 1805 abbd
00000200: 4d3e 8abe e496 923d 6ab1 273d 14f7 89bd
00000210: b56b 35bd f256 0f3e 1a86 3ebc 4d8d d5be
00000220: f105 5a3d 7abc e6bd 399c e3be 2ade d63d
00000230: b22f 0cbe f032 4ebe 2c92 8abe 218d 26be
00000240: fa80 a4bc 2566 4d3d f431 9abe 8b26 503e
00000250: d4b2 6d3d f85c 6abe b8e2 d4bb 6ad8 2cbe
00000260: aa07 ddbd d7ac 11bf 3f5e f7bd d156 45be
00000270: 182b afbe 2988 5ebd f18d a43c 9fe5 9cbe
00000280: 98ab f2bd 9d91 27be d9d0 253e 7416 7c3d
00000290: 844d b3be bf80 ddbd 25cd 0bbe fd88 3cbe
000002a0: f9db 69be 4e57 30be 9bcf 893d f108 a9be
000002b0: 1567 00bd 9b34 17be c587 63be 414a 49bd
000002c0: bad2 6dbe a039 7abd e2f4 0bbe 042a 6fbe
000002d0: 872e d1bd fc0a d13d 17f1 49bd 4b03 b2be
000002e0: e77c ecbd 20ff adbe e427 c43c 1d94 96bd
000002f0: c436 9bbd 0042 2b3d 0e7c 1e3e 611a 1abe
00000300: ac03 d0bd 31ce 10be b3c5 3cbe d9e2 0abe
00000310: 5da3 20bd 7a23 34be cd02 6c3d 4dd8 933c
00000320: d52f 98bd 7847 193d 3d8f 8dbe 9be0 5d3e
00000330: 3288 dfbe 63b8 243e 51a5 fb3c 9187 b8be
00000340: b5f9 b13d 60f6 79be 5b03 2fbe f9a4 52be
00000350: a601 34bd 95db 08bd 2ba0 0ebe 2831 93be
00000360: c846 eabd b9e7 8cbd d594 f5bc 59ec 8dbe
00000370: d0e0 0fbe fe20 323e ae09 a53d a316 49be
00000380: 2dc7 fd3c 88da ebbd 7236 99bd 4d7a eebd
00000390: 4940 a1be 5491 a2be 78e8 133e f6c2 893c
000003a0: a640 9abe bc39 cd3c a57e 45bb 2eae 233e
000003b0: 2a2c 2a3c c6ea d2be 05b1 8abe 2f6e a9bc
000003c0: dded 38bb 78b5 943d bb67 003d 9bac 1fbd
000003d0: 8529 3cbe ff85 b2bd b81d 70be 23d1 b9be
000003e0: e095 68be 318e 0cbe 22e1 95be e142 66bd
000003f0: 0ce6 99be 0b0b cbbd 02b1 04be fdda 99be

weight f4 [200, 400]
-0.004407359 0.02734269 -0.0066998927 0.0014735792 -0.06564003 -0.07579813 0.0033988587 0.015813457
0.011368759 -0.0019541928 -0.018951753 -0.08387173 0.008991467 -0.011155416 0.010926603 -0.065793745
0.010962025 -0.09173537 0.0006562684 0.035849582 -0.031000825 0.015190834 0.023865573 -0.03366105
0.038007785 0.0072451355 0.0049636257 -0.02257499 0.009025947 -0.042782146 -0.040234614 -0.048277117
-0.029462902 0.0040911585 0.014902184 -0.04867051 -0.022942254 0.0018381465 -0.04195998 -0.03047041
0.0023123706 0.042274073 -0.0705697 0.023362312 -0.039491665 -0.03020377 0.04502803 0.01141578
-0.06455013 0.03162064 -0.032860547 -0.03351949 -0.036854062 -0.006797235 -0.043010272 0.036020134
-0.03274939 -0.054080497 0.026585337 0.0077359565 0.015326427 -0.004345733 -0.014218222 -0.009823505
0.022496974 -0.01198531 0.0050839894 0.0058796243 -0.030151594 -0.04439084 0.0007892062 -0.040178943
-0.0208076 -0.033065036 -0.0059694587 -0.02759838 0.035106484 0.0326849 0.013795585 -0.0628989
-0.010090082 -0.015150082 0.00245608 -0.03531674 -0.023281325 0.036136042 -0.042359974 0.03326955
-0.006208833 -0.025657402 -0.044804767 -0.01726192 -0.04592849 -0.040972672 0.009115499 -0.023575408
-0.02868433 0.0007099805 -0.026407914 -0.01721125 0.015050764 0.018892748 -0.035951227 -0.0376705
-0.044550225 -0.06445126 -0.0007010528 0.027573057 -0.04459025 0.05409712 -0.042295948 -0.014574462
0.03900392 -0.019489614 0.017306978 -0.059193622 -0.025309952 -0.048880547 -0.048054155 0.0023327526
-0.056433424 -0.027717419 -0.012870826 -0.027861398 0.002747244 -0.014079117 0.015095589 -0.06983397
-0.0029080247 -0.04605676 -0.03572958 0.010980852 0.011610828 0.0017071348 -0.03212622 0.0587642
0.003864844 -0.05911668 -0.0020817644 -0.04899794 -0.024310654 -0.017959256 -0.031994745 -0.018965628
-0.021007476 -0.019137166 -0.04233463 -0.011999628 -0.049932003 0.021945417 0.028687464 -0.00083448814
-0.049424734 -0.020755047 -0.06372808 0.029643454 -0.011006008 -0.020583501 -0.022485454 0.011937765
-0.08778922 -0.0513218 -0.04118838 -0.032906268 -0.01893134 -0.05373578 -0.028080119 0.027436767
-0.033648502 -0.050039724 0.026184855 0.038007215 -0.050567217 -0.01265411 -0.03754568 -0.05317106
-0.034508467 0.03645946 0.03730632 -0.049108237 -0.054442205 -0.06096364 0.016193857 -0.02933693
0.0100799855 -0.06646177 -0.046884593 -0.015510412 -0.051799014 -0.021010451 -0.016182125 0.030617183
-0.005811868 -0.02487615 -0.074198894 -0.033953164 0.015606131 -0.06345171 -0.0067050545 -0.0067875446
-0.0075437287 0.012063402 -0.024383655 -0.060425937 -0.00027603516 0.019589419 0.06551805 -0.023020864
-0.015954752 0.013687985 -0.026519034 0.025326522 -0.068890885 -0.05673947 -0.018077588 -0.062955596
0.006230907 -0.051640186 -0.0122275585 -0.026661664 0.017591052 -0.033846404 -0.051037185 0.0007167473
-0.03396446 -0.030377332 0.031191733 -0.029692773 0.028710254 -0.031230519 -0.015037891 0.016009022
-0.045345016 -0.051611435 -0.031399496 -0.043341767 0.03610399 -0.03556783 0.025189199 0.03347456
0.008139759 0.023741608 -0.036890168 -0.0018392906 -0.006125241 0.03314578 -0.012279243 -0.0098554585
0.003940755 -0.0056230733 -0.011631869 0.006762522 0.0066501647 -0.07915009 -0.027353097 -0.03453126
00000000: 9b6b 90bb c7fd df3c c68a dbbb 1d25 c13a
00000010: 486e 86bd 0d3c 9bbd 63bf 5e3b 398b 813c
00000020: 0844 3a3c ea11 00bb b540 9bbc f1c4 abbd
00000030: f250 133c 35c5 36bc 7f05 333c dfbe 86bd
00000040: 119a 333c c1df bbbd 6d09 2c3a 03d7 123d
00000050: 71f5 fdbc fae2 783c bc81 c33c 2be0 09bd
00000060: 0dae 1b3d 9a68 ed3b e9a5 a23b 2fef b8bc
00000070: 91e1 133c 553c 2fbd 0dcd 24bd 3abe 45bd
00000080: 2f5c f1bc 200f 863b 4a28 743c bb5a 47bd
00000090: 65f1 bbbc f6ed f03a 3ade 2bbd 159d f9bc
000000a0: 248b 173b 9427 2d3d d986 90bd 5262 bf3c
000000b0: 03c2 21bd e66d f7bc 506f 383d 4009 3b3c
000000c0: dc32 84bd a584 013d c898 06bd bc4b 09bd
000000d0: 49f4 16bd 57bb debb 8a2b 30bd d989 133d
000000e0: 3924 06bd 8383 5dbd 7ec9 d93c e87d fd3b
000000f0: b21b 7b3c a766 8ebb 8cf3 68bc c4f2 20bc
00000100: 934b b83c 095e 44bc 9897 a63b dda9 c03b
00000110: 7a00 f7bc 2bd3 35bd bbe2 4e3a ad92 24bd
00000120: b374 aabc 346f 07bd 739b c3bb ff15 e2bc
00000130: d1cb 0f3d 9ae0 053d e106 623c 23d1 80bd
00000140: df50 25bc 0d38 78bc 2ff6 203b 49a8 10bd
00000150: 7ab8 bebc 6303 143d a781 2dbd a745 083d
00000160: 7773 cbbb 792f d2bc 3485 37bd df68 8dbc
00000170: 831f 3cbd f6d2 27bd 2d59 153c 3721 c1bc
00000180: 66fb eabc fc1d 3a3a 6955 d8bc 9bfe 8cbc
00000190: 7b97 763c f7c4 9a3c 9841 13bd 624c 1abd
000001a0: 4c7a 36bd 06ff 83bd dbc6 37ba e4e0 e13c
000001b0: 44a4 36bd f194 5d3d 843e 2dbd b9c9 6ebc
000001c0: 93c2 1f3d afa8 9fbc 5dc7 8d3c 0375 72bd
000001d0: d156 cfbc f836 48bd 6fd4 44bd 18e1 183b
000001e0: bc26 67bd a40f e3bc 28e0 52bc 963d e4bc
000001f0: 1b0b 343b 19ac 66bc 7d53 773c 1d05 8fbd
00000200: 8f94 3ebb 03a6 3cbd 2e59 12bd 08e9 333c
00000210: 583b 3e3c f0c1 df3a c996 03bd bbb2 703d
00000220: 5349 7d3b 5524 72bd 366e 08bb 10b2 48bd
00000230: 2327 c7bc 4a1f 93bc ec0c 03bd ce5d 9bbc
00000240: df17 acbc 8cc5 9cbc 1467 2dbd 169a 44bc
00000250: 8085 4cbd e0c6 b33c f901 eb3c 8dc1 5aba
00000260: 9771 4abd 7d06 aabc de83 82bd d4d6 f23c
00000270: 8b52 34bc bb9e a8bc 6a33 b8bc 9e96 433c
00000280: d6ca b3bd cf36 52bd 26b5 28bd b9c8 06bd
00000290: e615 9bbc 0d1a 5cbd 4708 e6bc 12c3 e03c
000002a0: 03d3 09bd 74f6 4cbd 9f81 d63c 74ad 1b3d
000002b0: 921f 4fbd 2f53 4fbc 80c9 19bd e6c9 59bd
000002c0: c058 0dbd 8456 153d 83ce 183d b825 49bd
000002d0: cafe 5ebd 03b5 79bd fba8 843c 0054 f0bc
000002e0: 8626 253c 1c1d 88bd 0f0a 40bd 621f 7ebc
000002f0: 342b 54bd 1c1e acbc 6090 84bc e3d0 fa3c
00000300: 7b71 bebb 11c9 cbbc 97f5 97bd 7912 0bbd
00000310: dcb0 7f3c f8f2 81bd 13b6 dbbb 0d6a debb
00000320: 6231 f7bb 93a5 453c 3bc0 c7bc 3081 77bd
00000330: d0b8 90b9 fd79 a03c 542e 863d 4096 bcbc
00000340: 8ab3 82bc 9243 603c 723e d9bc 9179 cf3c
00000350: aa16 8dbd a667 68bd 7317 94bc ddee 80bd
00000360: a32c cc3b a984 53bd 1956 48bc 9069 dabc
00000370: 1c1b 903c 87a2 0abd 5e0c 51bd 19e4 3b3a
00000380: 511e 0bbd e2d9 f8bc ce85 ff3c 423e f3bc
00000390: c431 eb3c 25d7 ffbc 7d61 76bc 5a25 833c
000003a0: b2bb 39bd 8366 53bd c29c 00bd 2387 31bd
000003b0: c7e1 133d 93af 11bd 9459 ce3c 9f1c 093d
000003c0: a05c 053c c37d c23c 251a 17bd 5a14 f1ba
000003d0: 3fb6 c8bb dfc3 073d e12e 49bc ca78 21bc
000003e0: 7321 813b c241 b8bb 9893 3ebc 2598 dd3b
000003f0: a0e9 d93b 7119 a2bd 9a13 e0bc a770 0dbd

bias f4 [200]
0.0075626834 -0.24875207 -0.021937912 -0.002934165 -0.13912177 0.3495387 -0.034778044 -0.0034371587
-0.0804575 -0.00030668252 0.017091794 -0.07862665 0.00389633 -0.061076473 -0.016435253 -0.0462951
0.024857223 0.38767195 0.0062712166 -0.10367575 -0.05919336 -0.020538677 -0.46252406 -0.07292744
-0.03990811 0.11079026 -0.00015126208 0.10632528 0.08528399 -0.13638023 -0.025198318 -0.097097866
0.11779555 -0.073372565 0.02999535 -0.02477556 -0.016520454 0.18831603 -0.053211767 -0.17463504
-0.049612444 -0.35728148 -0.13280301 -0.00024064365 -0.007639222 -0.067919746 -0.055428017 -0.045413353
-0.044502378 0.16818075 0.23212719 -0.14541611 0.0049907267 -0.02845378 -0.009024983 -0.050128084
0.020930657 0.2622308 0.07354689 0.2603181 -0.058081254 -0.041690875 0.020912275 -0.0022864577
-0.015007165 -0.111440174 -0.0029080065 -0.0689421 -0.014772244 -0.047827337 -0.20362124 -0.08474842
-0.0064367503 -0.1481977 -0.17919824 0.105597384 -0.033873226 -0.010624687 -0.017845001 -0.24763091
0.0057300767 -0.024682319 0.18324825 -0.27579445 -0.0144634 0.33777332 -0.11904216 -0.051409207
0.20664974 -0.0498258 0.026567133 -0.023571527 -0.00909959 0.005502581 0.059203934 -0.07098824
0.12365294 -0.057600405 -0.041047815 -0.013097883 -0.03809572 -0.025005542 0.16851969 -0.041529633
0.17175913 -0.25591755 -0.032655533 -0.43285048 0.016017964 -0.06778864 0.082066596 -0.049167827
-0.0011458714 -0.05480097 -0.03996661 -0.12192475 -0.0010458014 0.23603262 -0.024657119 -0.0051399153
-0.024782207 -0.0060921153 -0.1836922 0.28040025 0.25791997 -0.17924747 -0.026192632 -0.048449174
0.017123727 0.01170895 0.19192229 -0.0049077 0.08000459 0.17847921 -0.008625538 -0.08256687
-0.0139892595 -0.03614026 0.23325998 -0.07149392 -0.09544963 0.009354539 0.005627603 -0.43057385
-0.016539268 -0.05528316 -0.0054240203 -0.09042879 -0.23270296 -0.06789738 -0.11487785 -0.06327323
-0.13444822 -0.18663481 -0.028622618 -0.008722499 -0.034451187 -0.13617098 -0.0074909637 -0.0023882117
-0.103372395 0.24063343 -0.03424115 0.024591828 -0.035164874 0.062326685 -0.011471725 -0.038640954
0.054079913 0.29991785 0.08878801 -0.051321223 -0.045921963 0.01634422 -0.056096908 -0.11547955
0.020073289 0.012564675 -0.1744096 -0.14353314 -0.10746739 0.17933083 0.22550882 0.037268255
-0.21105176 -0.17314866 -0.010768347 -0.013724306 -0.0033612968 -0.06465531 -0.0066361567 -0.10973315
0.27499628 -0.017064031 -0.031755686 -0.0225029 -0.02897065 -0.3447014 -0.031790636 0.003960643
00000000: 63d0 f73b ddb8 7ebe 23b7 b3bc 1f4b 40bb
00000010: f075 0ebe bdf6 b23e 6c73 0ebd f441 61bb
00000020: e7c6 a4bd 3bca a0b9 1704 8c3c 0207 a1bd
00000030: 9259 7f3b 532b 7abd 39a3 86bc ee9f 3dbd
00000040: 60a1 cb3c f07c c63e c77e cd3b f453 d4bd
00000050: bd74 72bd ba40 a8bc f4cf ecbe fb5a 95bd
00000060: b076 23bd 01e6 e23d 1b9c 1eb9 12c1 d93d
00000070: 5fa9 ae3d 42a7 0bbe b46c cebc 3fdb c6bd
00000080: cb3e f13d 5b44 96bd cfb8 f53c 1df6 cabc
00000090: e755 87bc ebd5 403e 95f4 59bd 87d3 32be
000000a0: 6b36 4bbd 99ed b6be 83fd 07be 4a55 7cb9
000000b0: 7052 fabb 8219 8bbd 7d08 63bd 5a03 3abd
000000c0: 2048 36bd 9337 2c3e c0b2 6d3e f6e7 14be
000000d0: 4089 a33b e717 e9bc 86dd 13bc 1b53 4dbd
000000e0: c576 ab3c 1e43 863e c09f 963d 6a48 853e
000000f0: 9ce6 6dbd 0dc4 2abd 3850 ab3c 65d8 15bb
00000100: 9de0 75bc bf3a e4bd 4194 3ebb 8431 8dbd
00000110: 4807 72bc 99e6 43bd 1682 50be 9490 adbd
00000120: 60eb d2bb 23c1 17be be7f 37be 7143 d83d
00000130: a7be 0abd 2b13 2ebc ae2f 92bc f592 7dbe
00000140: 5ec3 bb3b 9332 cabc 6ea5 3b3e ee34 8dbe
00000150: e5f7 6cbc a0f0 ac3e 60cc f3bd 7692 52bd
00000160: fd9b 533e 2316 4cbd 51a3 d93c 1319 c1bc
00000170: 7216 15bc ff4e b43b d37f 723d 4862 91bd
00000180: c13d fd3d 67ee 6bbd c121 28bd 8198 56bc
00000190: 420a 1cbd 6cd8 ccbc 6d90 2c3e fa1a 2abd
000001a0: a0e1 2f3e a007 83be cfc1 05bd 949e ddbe
000001b0: 1b38 833c c5d4 8abd 8812 a83d 3464 49bd
000001c0: 1031 96ba fb76 60bd 07b4 23bd afb3 f9bd
000001d0: 4613 89ba 89b2 713e bafd c9bc bc6c a8bb
000001e0: 0e04 cbbc 5ea0 c7bb cf19 3cbe 9f90 8f3e
000001f0: 160e 843e a68c 37be ee91 d6bc a472 46bd
00000200: 0f47 8c3c e5d6 3f3c 4787 443e c5d0 a0bb
00000210: 72d9 a33d 41c3 363e 2152 0dbc d218 a9bd
00000220: 3533 65bc cf07 14bd b4db 6e3e 686b 92bd
00000230: 187b c3bd c843 193c c167 b83b 2d74 dcbe
00000240: 5c7d 87bc 9870 62bd fbbb b1bb bb32 b9bd
00000250: af49 6ebe c80d 8bbd 1445 ebbd 6595 81bd
00000260: cbac 09be 321d 3fbe fb79 eabc d0e8 0ebc
00000270: b01c 0dbd 6870 0bbe c276 f5bb 8b83 1cbb
00000280: e8b4 d3bd 9c68 763e 7340 0cbd cd74 c93c
00000290: 0b09 10bd 444a 7f3d e7f3 3bbc fa45 1ebd
000002a0: e682 5d3d d58e 993e 7dd6 b53d 3436 52bd
000002b0: ab18 3cbd 50e4 853c dfc5 65bd 8b80 ecbd
000002c0: bd70 a43c 11dc 4d3c 6e98 32be 5afa 12be
000002d0: dd17 dcbd 80a2 373e c9eb 663e 99a6 183d
000002e0: f41d 58be e24d 31be b96d 30bc e9db 60bc
000002f0: 3449 5cbb 016a 84bd 1e74 d9bb c6bb e0bd
00000300: 50cc 8c3e dec9 8bbc 4012 02bd 0058 b8bc
00000310: db53 edbc b47c b0be e636 02bd 48c8 813b

weight f4 [2, 200]
-0.007145367 0.36035344 0.08946479 0.031336863 1.0825962 -0.4671032 0.013028461 0.025594164
-0.10176753 -0.04282893 -0.007825845 0.41669664 0.013379353 -0.09488119 0.06279643 0.036988333
1.408198 -1.3983754 -0.032603532 0.5412654 -0.087634034 -0.0023726814 0.72964627 0.25454384
0.07156946 -0.07930139 0.027342865 -0.44518745 0.11051349 -0.39673287 0.74199814 0.54508924
-0.041594718 0.051587928 2.616484 0.006730247 -0.37123445 -0.2271735 0.07304893 0.20365116
-0.011796364 0.8014656 -0.10790361 -0.040255528 0.028228829 0.08431973 -0.060496043 -0.1644989
-0.03299391 -0.6378365 0.075345926 0.24063444 -0.03622634 0.033373736 0.022533404 0.065836206
0.15161233 0.35390794 -0.38683838 0.22249296 0.007832097 -0.023871904 0.0071237497 0.065670796
-0.010776769 -0.2539479 -0.013942039 -0.028407035 -2.626583 -0.019117601 0.27741933 0.07364375
0.047622353 0.47393292 -0.3130693 -0.5712867 0.029794084 -0.04615521 0.004775864 -0.08608434
0.70652485 -0.021502992 0.6968515 0.8352006 0.0011525073 -1.7269676 0.25815687 0.067321196
-8.4162855 1.0293815 -0.6866703 0.14261298 0.3651488 0.06045099 0.31967896 0.0079049375
0.023561873 0.016021142 -0.01955002 0.048613124 -0.04987701 0.047827136 0.039992 -0.062044866
-0.24868256 0.115997545 0.098075874 -0.5407599 -0.023586255 -0.1792551 -1.1347159 0.07377232
1.4388481 0.0064982395 -0.3327417 0.4881585 0.057794508 0.53739226 -0.0056241993 -0.031457707
-0.0002660219 -0.30575058 -3.6375039 1.942395 -0.52914625 -0.056265026 -0.025357848 -0.0019225805
-0.010609155 -0.013543649 0.06364225 -0.01975041 0.30520156 0.2969575 0.04985306 1.1094985
-0.021313952 0.0063323504 -0.8865729 0.16480422 -0.70736563 -0.049765196 0.031404372 0.82654774
0.09040219 -0.017491408 0.052313574 0.9915265 -0.33386996 -0.06682829 0.023452338 0.0065431907
-0.33286086 -0.5155945 0.006929811 0.01654154 0.15012035 -0.07810974 0.0073156753 -0.01654867
-0.1327674 1.3937049 0.016605306 -0.868287 0.7623975 0.05826416 0.23483664 0.00055695197
-0.42323247 -1.3094845 0.43472326 -0.69685453 -0.21250077 0.385387 -0.055208802 0.29983303
-0.009009856 0.051658474 -4.002015 0.47855273 -7.8344297 0.43432376 0.38503605 0.20242181
-6.2911158 0.62894326 -0.054875053 -0.7899121 0.067101985 0.030385645 -0.04316924 3.0595188
-1.2416383 -0.053451955 0.0041387165 -0.0022145621 -0.027219316 1.0876385 0.039260212 0.0077321674
0.036656607 0.105961114 -0.00074265175 -0.029710962 0.3108307 -2.0243595 0.01861961 0.019723032
-0.3022725 0.008093597 0.036944546 -2.3857148 0.013182362 1.0817417 0.012493664 0.041838482
-0.009849682 -0.49119177 0.0094135245 0.11164703 0.7718955 0.053428363 0.9606915 1.4903252
0.0080801 0.13174896 0.048601378 -1.0368313 0.3070543 0.24009739 -0.45006633 -0.4954338
-0.7786931 -0.029499296 -1.0350224 0.033908036 -0.3525704 0.19911313 0.0060761683 -0.27975798
0.044252887 -0.11235305 0.3508708 0.03705265 -2.7773142 -0.020267816 0.0028577335 0.3173545
-0.008001373 -0.54358256 -0.82057345 0.28204113 0.049934354 0.039814454 -0.09027633 0.03298053
00000000: af23 eabb 3f80 b83e 5139 b73d 155b 003d
00000010: 8392 8a3f 2728 efbe 5375 553c daaa d13c
00000020: 7f6b d0bd 636d 2fbd f937 00bc 4359 d53e
00000030: 1335 5b3c 1251 c2bd 6a9b 803d 1481 173d
00000040: d53f b43f f7fd b2bf 488b 05bd 5f90 0a3f
00000050: 7979 b3bd fd7e 1bbb 19ca 3a3f 9253 823e
00000060: 0293 923d c468 a2bd 25fe df3c 9cef e3be
00000070: e654 e23d 9220 cbbe 97f3 3d3f f88a 0b3f
00000080: 395f 2abd dd4d 533d 7974 2740 6789 dc3b
00000090: 7112 bebe 2ca0 68be ad9a 953d ee89 503e
000000a0: 8945 41bc d92c 4d3f 91fc dcbd fbe2 24bd
000000b0: 2540 e73c d3af ac3d b3ca 77bd 6672 28be
000000c0: 9f24 07bd 4149 23bf f74e 9a3d e068 763e
000000d0: 1262 14bd e6b2 083d f997 b83c 22d5 863d
000000e0: 4340 1b3e 6c33 b53e ae0f c6be 32d5 633e
000000f0: 3252 003c 038f c3bc 586e e93b 697e 863d
00000100: 0c91 30bc 7605 82be 266d 64bc dfb5 e8bc
00000110: f019 28c0 849c 9cbc e809 8e3e 89d2 963d
00000120: a80f 433d 56a7 f23e 9f4a a0be d83f 12bf
00000130: b912 f43c 3f0d 3dbd da7e 9c3b fd4c b0bd
00000140: d0de 343f 0b27 b0bc dc64 323f b5cf 553f
00000150: ba0f 973a 460d ddbf 232d 843e b2df 893d
00000160: 1ba9 06c1 c6c2 833f a0c9 2fbf 2309 123e
00000170: c9f4 ba3e 759b 773d f6ac a33e b683 013c
00000180: d404 c13c c53e 833c 5d27 a0bc 8e1e 473d
00000190: d64b 4cbd 63e6 433d a7ce 233d c222 7ebd
000001a0: a4a6 7ebe 1f90 ed3d 01dc c83d 3e6f 0abf
000001b0: f637 c1bc a68e 37be 5f3e 91bf f115 973d
000001c0: 2d2c b83f 2fef d43b 1f5d aabe e9ef f93e
000001d0: efb9 6c3d 8a92 093f 344b b8bb ccd9 00bd
000001e0: db78 8bb9 578b 9cbe ddcc 68c0 66a0 f83f
000001f0: 2176 07bf 2876 66bd 43bb cfbc 19ff fbba
00000200: 05d2 2dbc 2ee6 5dbc de56 823d 9dcb a1bc
00000210: 6143 9c3e d00a 983e b932 4c3d 0c04 8e3f
00000220: 999a aebc 9b7f cf3b 71f6 62bf 70c2 283e
00000230: ea15 35bf 97d6 4bbd dfa1 003d a298 533f
00000240: c924 b93d 244a 8fbc c246 563d aed4 7d3f
00000250: 01f1 aabe 45dd 88bd 1e1f c03c 4368 d63b
00000260: bd6c aabe 00fe 03bf 7813 e33b 2082 873c
00000270: 26b9 193e 00f8 9fbd 55b8 ef3b 1491 87bc
00000280: 2df4 07be ec64 b23f da07 883c 0f48 5ebf
00000290: 7c2c 433f 66a6 6e3d 0479 703e 6a00 123a
000002a0: edb1 d8be 309d a7bf 0c94 de3e 0f65 32bf
000002b0: cd99 59be 7251 c53e a022 62bd b783 993e
000002c0: 139e 13bc d697 533d 8210 80c0 dd04 f53e
000002d0: a6b3 fac0 af5f de3e 7223 c53e aa47 4f3e
000002e0: d250 c9c0 6d02 213f aac4 60bd ae37 4abf
000002f0: c46c 893d 51eb f83c 3bd2 30bd 28cf 4340
00000300: 01ee 9ebf 70f0 5abd 129e 873b 3022 11bb
00000310: 0bfb debc bd37 8b3f 51cf 203d 1f5e fd3b
00000320: 3d25 163d 2402 d93d 84ae 42ba 6764 f3bc
00000330: 3425 9f3e 1b8f 01c0 2788 983c 3292 a13c
00000340: 76c3 9abe 029b 043c 2a53 173d 8daf 18c0
00000350: d5fa 573c 8376 8a3f 3ab2 4c3c d45e 2b3d
00000360: 9060 21bc 7d7d fbbe 2f3b 1a3c 33a7 e43d
00000370: f29a 453f b3d7 5a3d e1ef 753f fac2 be3f
00000380: 6562 043c 33e9 063e 3d12 473d e3b6 84bf
00000390: 3936 9d3e 17dc 753e 186f e6be 80a9 fdbe
000003a0: 6e58 47bf 82a8 f1bc 9d7b 84bf 27e3 0a3d
000003b0: 1c84 b4be 50e4 4b3e 981a c73b 703c 8fbe
000003c0: 8442 353d 5b19 e6bd 56a5 b33e 85c4 173d
000003d0: 84bf 31c0 b108 a6bc d048 3b3b 4a7c a23e
000003e0: 3118 03bc 3a28 0bbf 1a11 52bf b267 903e
000003f0: f787 4c3d 7b14 233d cce2 b8bd 9816 073d

bias f4 [2]
0.18112063 0.28030097
00000000: b077 393e 9c83 8f3e
