lab2/problem3/neural-network-3-actor.pth (torch, 664071 bytes, 10 tensors)

weight f4 [400, 8]
0.124048024 -0.10693167 0.061959065 0.34219587 0.06161721 0.14466925 0.16119374 -0.031762592
-0.23625574 -0.057776924 0.07823323 -0.08710687 0.15028696 0.35439602 0.16314125 0.29097983
-0.12947291 -0.08243337 0.23734458 -0.06839408 0.05245762 -0.16681518 -0.09371054 0.1500618
0.11483559 0.3501016 -0.05291814 0.100211024 -0.19855885 0.068697646 -0.033898532 -0.09716526
0.30611578 -0.02808356 0.15526246 0.11685574 0.09134741 -0.2672119 0.11338234 -0.07784823
-0.276084 0.24237953 0.2962195 0.21052092 -0.26813945 -0.26723415 0.35470346 0.13005988
0.17611186 -0.110558584 -0.14462307 -0.08206865 0.011442388 0.05159753 0.06436725 -0.07647731
0.33941814 -0.15918216 -0.2953667 0.316869 -0.23785734 -0.1493148 -0.1819614 0.04525315
0.08180061 0.20297065 -0.068395 -0.29802707 -0.35698256 -0.12863384 0.10959346 -0.17928208
0.3074364 0.3218713 -0.10712764 0.3009927 0.13677152 0.05927747 0.2913976 0.2308142
-0.2488022 0.10194268 -0.1561118 -0.16093087 -0.2757101 -0.34795585 -0.060102273 -0.2930896
0.063395575 0.22609948 0.24005578 0.22687213 0.20209509 -0.025963767 0.33813512 0.24698837
0.12009826 0.13572092 0.21476407 0.09013698 0.13535613 0.26223925 0.35163343 0.22434787
-0.25385636 0.27562997 0.24761079 -0.35565493 0.061176542 -0.15772738 -0.05897925 0.026450891
0.13619423 0.20316908 0.1476911 -0.33002985 0.2730974 -0.2919796 0.08368916 0.28246823
0.23916389 0.08650336 0.33524156 -0.23808429 -0.28902066 0.28564346 -0.19963919 0.14646322
-0.24447642 0.32808664 -0.1728907 -0.32535413 -0.23181975 -0.19656032 -0.32095298 -0.0760176
0.0796839 0.2763146 -0.016164482 -0.20575625 0.1789511 0.3038483 0.3573759 -0.28579113
-0.19979487 0.32201874 -0.014941923 0.24812213 0.00048843387 0.30259386 -0.16078323 0.027368624
-0.23401813 0.29012352 -0.3436226 0.10270274 -0.05093855 -0.030510224 -0.30408168 0.06552635
-0.34558353 0.28769284 -0.26590905 0.21904674 -0.25995323 0.183762 -0.15862006 -0.15195186
0.33766568 0.31991583 -0.089139745 -0.31996468 0.067142375 0.3246741 -0.16520049 -0.17407009
0.30582795 0.08388204 0.10072624 0.24383643 -0.07670282 -0.318562 0.06218946 0.23944032
-0.31597528 0.24380094 0.08627659 0.29194814 0.2833835 -0.062239517 -0.2930847 0.19393748
-0.1320165 -0.25782996 0.25297758 0.08735821 0.32879266 0.12102872 -0.0632454 0.21978728
0.3025587 0.1037514 0.12995693 -0.35797998 -0.264803 0.13739306 -0.08483939 0.09434556
-0.011245712 0.014466683 0.1984521 0.20990466 -0.015276929 0.11047822 -0.06696853 -0.198848
0.3503234 0.02447169 -0.3451295 0.19081941 -0.022459518 0.31388503 -0.11743763 -0.104994744
-0.18174076 0.18142474 0.14591663 0.3220313 0.029635144 -0.07405551 0.36337963 -0.13951449
0.22036609 -0.26940328 -0.019630495 -0.3112977 0.3541799 0.111457735 -0.32181543 -0.32367912
0.046210896 0.12312231 -0.15599057 -0.20860702 -0.26019993 -0.27131358 -0.19662322 0.17216158
0.18574682 -0.14331667 0.3357538 -0.15634352 0.3424584 0.17926492 -0.3316763 -0.11066876
00000000: e40c fe3d fefe dabd cac8 7d3d 4c34 af3e
00000010: 5462 7c3d 2d24 143e f90f 253e 7e19 02bd
00000020: 06ed 71be 7fa7 6cbd be38 a03d 1665 b2bd
00000030: d3e4 193e 6573 b53e 800e 273e 4ffb 943e
00000040: 8c94 04be d4d2 a8bd 750a 733e 3212 8cbd
00000050: cddd 563d 99d1 2abe 50eb bfbd cda9 193e
00000060: ec2e eb3d 8440 b33e b1c0 58bd 703b cd3d
00000070: 0353 4bbe 5ab1 8c3d 30d9 0abd 94fe c6bd
00000080: 35bb 9c3e 7e0f e6bc 1ffd 1e3e 1052 ef3d
00000090: 5a14 bb3d 00d0 88be 0035 e83d e56e 9fbd
000000a0: e25a 8dbe 5732 783e 15aa 973e cc92 573e
000000b0: 9349 89be ead2 88be b19b b53e 6b2e 053e
000000c0: ab56 343e 8a6c e2bd 1218 14be 9c13 a8bd
000000d0: db78 3b3c ee57 533d fad2 833d 23a0 9cbd
000000e0: 37c8 ad3e a600 23be 4e3a 97be a73c a23e
000000f0: e090 73be fbe5 18be 1754 3abe 5e5b 393d
00000100: 1487 a73d 8ad7 4f3e ae12 8cbd 0197 98be
00000110: 6bc6 b6be 97b8 03be 8972 e03d b995 37be
00000120: 4e68 9d3e 51cc a43e bc65 dbbd b71b 9a3e
00000130: d50d 0c3e efcc 723d 1132 953e 8f5a 6c3e
00000140: 01c6 7ebe 53c7 d03d c6db 1fbe 10cb 24be
00000150: e029 8dbe 4527 b2be cd2d 76bd d70f 96be
00000160: 8ad5 813d 9f86 673e 2fd1 753e 2b51 683e
00000170: 04f2 4e3e f7b1 d4bc 0c20 ad3e 85ea 7c3e
00000180: 14f6 f53d 6dfa 0a3e 1deb 5b3e bd99 b83d
00000190: cc9a 0a3e 3944 863e 4c09 b43e 73bb 653e
000001a0: 76f9 81be 5f1f 8d3e af8d 7d3e 6718 b6be
000001b0: 4194 7a3d 4983 21be 3a94 71bd 8aaf d83c
000001c0: 8076 0b3e 8e0b 503e 563c 173e acf9 a8be
000001d0: 6cd3 8b3e 5a7e 95be 3965 ab3d ad9f 903e
000001e0: 61e7 743e ac28 b13d c8a4 ab3e 5ecc 73be
000001f0: 84fa 93be dc3f 923e 376e 4cbe 74fa 153e
00000200: 0758 7abe f9fa a73e 420a 31be d194 a6be
00000210: 2862 6dbe 1c47 49be f353 a4be 1eaf 9bbd
00000220: 5031 a33d 1b79 8d3e 606b 84bc c4b1 52be
00000230: f53e 373e 0192 9b3e f9f9 b63e 3753 92be
00000240: 0797 4cbe a4df a43e f8ce 74bc ba13 7e3e
00000250: 3e0a 003a 95ed 9a3e 5ca4 24be 2a34 e03c
00000260: 73a2 6fbe 128b 943e 4def afbe d055 d23d
00000270: f1a4 50bd 94f0 f9bc 98b0 9bbe ae32 863d
00000280: 53f0 b0be 7a4c 933e 3b25 88be ca4d 603e
00000290: 9718 85be 1b2c 3c3e 4c6d 22be 4599 1bbe
000002a0: 84e2 ac3e 02cc a33e e68e b6bd 69d2 a3be
000002b0: f181 893d af3b a63e 512a 29be 6e3f 32be
000002c0: 7b95 9c3e 59ca ab3d 8f49 ce3d 42b0 793e
000002d0: 5e16 9dbd 8f1a a3be 60ba 7e3d d82f 753e
000002e0: 83c7 a1be f4a6 793e c8b1 b03d 3a7a 953e
000002f0: a417 913e ddee 7ebd 330f 96be 8c97 463e
00000300: 552f 07be 4a02 84be 4786 813e dce8 b23d
00000310: 8357 a83e e8dd f73d ce86 81bd eb0f 613e
00000320: f9e8 9a3e 9d7b d43d 6e13 053e 2749 b7be
00000330: 4294 87be c4b0 0c3e 46c0 adbd 3f38 c13d
00000340: ef3f 38bc ab05 6d3c 0737 4b3e 3ff1 563e
00000350: 164c 7abc 6842 e23d cc26 89bd cf9e 4bbe
00000360: 975d b33e db78 c83c d0b4 b0be 2a66 433e
00000370: 06fd b7bc 8ab5 a03e 2483 f0bd 7c07 d7bd
00000380: 401a 3abe 68c7 393e 2b6b 153e 49e1 a43e
00000390: 67c5 f23c 6aaa 97bd e50c ba3e e3dc 0ebe
000003a0: a6a7 613e 3aef 89be 22d0 a0bc 6a62 9fbe
000003b0: 1157 b53e f443 e43d fec4 a4be 45b9 a5be
000003c0: a347 3d3d 8d27 fc3d febb 1fbe 149d 55be
000003d0: ed38 85be 9de9 8abe 9957 49be 204b 303e
000003e0: 6a34 3e3e 9bc1 12be ece7 ab3e 8418 20be
000003f0: b556 af3e 3991 373e 7ad1 a9be 4ea6 e2bd

bias f4 [400]
0.15859231 0.3021577 0.12397536 -0.32633746 -0.09848859 0.36189649 -0.33236387 -0.34690958
-0.32241616 -0.10332401 0.033222303 -0.21974796 -0.01012131 0.0830906 -0.15212902 -0.02915239
-0.24071681 0.14457153 -0.042480208 0.25489116 -0.19521295 -0.015479892 0.3672131 -0.25628063
0.305317 0.13798037 -0.14286467 -0.3341256 0.31300074 -0.3466456 0.23217593 0.14575474
-0.1441807 -0.0626465 0.095188625 0.29363403 0.26826623 -0.26711792 -0.1632586 0.015582327
0.23208122 0.15140004 -0.056797564 0.11661482 -0.20362626 -0.18806106 -0.022433912 0.35080326
0.31921467 0.14896445 0.25325948 -0.09816898 0.24193689 -0.2815418 -0.15510534 -0.13011898
0.27729502 0.22798364 0.15849945 -0.06273123 0.059502017 -0.27609518 0.100012064 -0.19449043
-0.254129 -0.020678116 -0.06883349 0.2844299 0.1554084 0.1890412 -0.033352096 0.047002386
0.0746046 0.23812301 0.01150239 0.051415734 -0.22489603 0.29594445 -0.08711259 0.043084588
0.19962825 0.13498823 -0.011698715 -0.31929553 0.1502089 0.2857273 -0.020579793 0.06995927
-0.102326356 -0.35628796 0.23579115 0.32422987 -0.21219495 -0.0077242972 -0.20692942 -0.3047904
-0.09571256 -0.012924147 -0.1928496 0.29882735 -0.07394322 0.09369798 -0.17370406 0.17379954
0.053086326 0.05421936 0.22246785 0.18202148 -0.25927743 -0.055551786 0.25155511 0.07491178
0.23923592 -0.03188146 0.010642046 0.12155757 -0.11635685 -0.29374596 -0.04422656 0.15833095
-0.29903433 0.059365723 0.034299273 -0.27813485 -0.10938107 -0.08073294 -0.31368032 -0.059498776
-0.0017704534 -0.03504364 0.021990685 -0.24242215 -0.20109345 -0.10483265 0.09808462 0.23032361
0.017942373 -0.23616439 0.2797217 -0.15447994 -0.27998582 0.32992095 -0.01142435 0.02206708
0.06251072 -0.07662326 -0.29873028 0.14584884 -0.27541283 0.01640826 -0.19422764 0.23798883
-0.0076581747 -0.080389276 0.23946571 -0.33487368 0.3222783 0.3521953 -0.29292095 0.049152598
0.34440067 0.18014197 -0.14723293 0.33801642 -0.112701006 -0.101033375 -0.20264588 0.056870602
-0.1988108 0.34580708 0.014924075 0.14042404 0.26167116 0.163403 0.33058882 0.09655527
0.13214499 -0.15789908 0.3021551 -0.1712977 0.18681069 -0.1649155 0.04597093 -0.0557118
0.2566507 0.13982971 -0.33987552 0.018966265 -0.19144846 0.35254574 -0.13132508 0.35738426
0.2647267 0.10450583 0.24827208 0.16991305 0.30102158 -0.14194667 -0.30510733 0.3375703
-0.23901111 -0.27905107 0.027974512 0.13307346 0.13579355 0.26594552 0.008081317 -0.24954706
0.3728228 -0.20001602 -0.20491686 -0.2076363 0.105725884 -0.31865644 -0.3039064 0.17403516
-0.08347549 0.03866398 -0.08185921 -0.038279463 0.13830675 -0.047940448 0.35145184 -0.3447341
0.1528752 0.15170339 -0.041259814 -0.3162328 -0.22733362 0.27544627 0.31862527 0.34550822
0.14566249 -0.08514933 -0.036140077 -0.080965444 0.16003257 -0.02516455 0.3425897 0.02711062
-0.25806037 0.11103686 0.32707363 -0.10370086 0.35571012 -0.26578143 0.36351183 -0.116912976
0.3436 -0.18891843 0.0032473607 0.11028496 -0.2919695 -0.32951525 0.08335573 -0.041775715
00000000: 0666 223e 6ab4 9a3e cbe6 fd3d b415 a7be
00000010: 63b4 c9bd 7f4a b93e 992b aabe 229e b1be
00000020: bb13 a5be 8a9b d3bd 1c14 083d 9c05 61be
00000030: dad3 25bc 682b aa3d b6c7 1bbe fed0 eebc
00000040: 787e 76be 8f0a 143e baff 2dbd 1881 823e
00000050: e7e5 47be 5f9f 7dbc 5b03 bc3e 3737 83be
00000060: 8352 9c3e ba4a 0d3e 1e4b 12be 8312 abbe
00000070: a241 a03e 887b b1be 87bf 6d3e bb40 153e
00000080: 1ba4 13be cf4c 80bd 41f2 c23d 3357 963e
00000090: 315a 893e aec3 88be 432d 27be 044d 7f3c
000000a0: b3a6 6d3e 9d08 1b3e 90a4 68bd c0d3 ee3d
000000b0: 6783 50be 1493 40be 53c7 b7bc 7c9c b33e
000000c0: 1b70 a33e 238a 183e 3aab 813e d10c c9bd
000000d0: 4ebe 773e 3f26 90be efd3 1ebe e93d 05be
000000e0: 9df9 8d3e 8b74 693e ae4d 223e 3b79 80bd
000000f0: 63b8 733d 595c 8dbe 20d3 cc3d 8028 47be
00000100: 321d 82be 2765 a9bc 93f8 8cbd cca0 913e
00000110: 6123 1f3e 0494 413e 359c 08bd 9385 403d
00000120: 4cca 983d 85d6 733e 8574 3c3c 4e99 523d
00000130: 254b 66be 0886 973e 1668 b2bd 7779 303d
00000140: 596b 4c3e 5b3a 0a3e f8ab 3fbc b47a a3be
00000150: 5dd0 193e d94a 923e f496 a8bc ce46 8f3d
00000160: 7b90 d1bd 606b b6be 3c73 713e 7501 a63e
00000170: a249 59be 1a1c fdbb 4ee5 53be 7d0d 9cbe
00000180: f204 c4bd cdbf 53bc 5e7a 45be e6ff 983e
00000190: 8b6f 97bd bae4 bf3d 7adf 31be 82f8 313e
000001a0: 0c71 593d 1f15 5e3d 9dce 633e d763 3a3e
000001b0: 03c0 84be 458a 63bd d5cb 803e 596b 993d
000001c0: 43fa 743e 2296 02bd fa5b 2e3c 2df3 f83d
000001d0: 804c eebd df65 96be e926 35bd 8221 223e
000001e0: 071b 99be 7929 733d 657d 0c3d b167 8ebe
000001f0: 2f03 e0bd 5057 a5bd b59a a0be fdb4 73bd
00000200: 8f0e e8ba eb89 0fbd cf25 b43c 833d 78be
00000210: 71eb 4dbe 80b2 d6bd 97e0 c83d f4d9 6b3e
00000220: e2fb 923c 14d5 71be af37 8f3e fd2f 1ebe
00000230: 4d5a 8fbe 66eb a83e 322d 3bbc 05c6 b43c
00000240: 9f05 803d a8ec 9cbd 2df3 98be 6659 153e
00000250: e902 8dbe 9e6a 863c 9ce3 46be 58b3 733e
00000260: 6df1 fabb 22a3 a4bd 8036 753e 9074 abbe
00000270: a901 a53e f152 b43e bcf9 95be 3c54 493d
00000280: 4955 b03e 2377 383e 3bc4 16be 7d10 ad3e
00000290: c9cf e6bd 96ea cebd 6782 4fbe 26f1 683d
000002a0: 0f95 4bbe a00d b13e 1c84 743c 52cb 0f3e
000002b0: c3f9 853e 1e53 273e f042 a93e c5be c53d
000002c0: 0451 073e 4cb0 21be 13b4 9a3e aa68 2fbe
000002d0: 4d4b 3f3e 9cdf 28be 044c 3c3d 0e32 64bd
000002e0: b867 833e 852f 0f3e 2a04 aebe 245f 9b3c
000002f0: 110b 44be e080 b43e 157a 06be 12fb b63e
00000300: 428a 873e 2707 d63d 093b 7e3e b0fd 2d3e
00000310: 801f 9a3e 785a 11be 0737 9cbe 04d6 ac3e
00000320: 54bf 74be c8df 8ebe ce2a e53c 6944 083e
00000330: 770d 0b3e 032a 883e 8067 043c 4489 7fbe
00000340: a1e2 be3e 00d1 4cbe bad5 51be 9c9e 54be
00000350: d086 d83d f026 a3be 9f99 9bbe 4636 323e
00000360: 33f5 aabd 1f5e 1e3d cda5 a7bd edca 1cbd
00000370: 49a0 0d3e 345d 44bd 7ff1 b33e fd80 b0be
00000380: 518b 1c3e 2258 1b3e 0d00 29bd 44e9 a1be
00000390: 25ca 68be 4b07 8d3e da22 a33e 74e6 b03e
000003a0: 8c28 153e c662 aebd 9e07 14bd 36d1 a5bd
000003b0: 94df 233e e325 cebc eb67 af3e 1717 de3c
000003c0: 7d20 84be 4b67 e33d 3276 a73e 1e61 d4bd
000003d0: a31f b63e 8114 88be 391e ba3e 1270 efbd
000003e0: 57ec af3e d573 41be acd1 543b 15dd e13d
000003f0: 077d 95be 39b6 a8be 69b6 aa3d 031d 2bbd

weight f4 [200, 400]
-0.01674659 -0.03597247 0.048649002 -0.021552606 -0.048872378 0.03578238 0.022763297 -0.049063645
0.0027476354 -0.047321953 -0.03198273 -0.013784027 -0.029418666 -0.024786472 -0.018080741 0.01949722
0.03369188 -0.046524443 -0.00869641 0.041732237 -0.016984971 0.019589914 -0.024641037 0.03633085
-0.0016552195 -0.030789157 -0.028681466 -0.026838148 0.025412245 0.014829104 0.054127466 -0.043159172
0.022367757 -0.012332462 -0.028466495 0.009082972 0.023542719 0.03833152 0.01647448 0.0402534
-0.03814976 -0.03034555 -0.013950801 -0.028578911 -0.020014342 0.039789107 -0.010096188 -0.018163722
-0.023229223 0.025210844 0.020080134 0.050005157 0.02565272 0.044960715 0.028829496 0.027739657
-0.032917973 0.021804648 -0.00056788506 -0.01654472 0.028916141 0.006441769 0.030432997 0.024256943
-2.083257e-05 0.051065084 -0.023882754 0.041871667 -0.04496098 0.019957837 -0.010884546 -0.0034627623
-0.047971644 -0.02224418 0.03817408 -0.027325617 -0.030495986 -0.019288579 0.025153937 -0.0015585519
-0.030545745 -0.031825405 -0.015198405 0.004776838 -0.013356564 0.001722986 -0.024613608 -0.041405722
0.0146622425 -0.019292997 0.0010258994 0.048970617 -0.04128928 -0.0075337263 -0.006227699 -0.034713652
0.014192083 -0.004589953 0.022245731 0.045548726 -0.03509497 0.035587177 -0.04729941 0.026627887
-0.051356554 -0.01359046 -0.011153558 0.016163845 -0.040098555 0.022618888 -0.03533679 -0.03620532
-0.027553888 -0.022366615 -0.040236734 -0.0226192 0.011357597 -0.005628632 0.04247293 0.05099087
-0.04918893 -0.004622241 -0.027642524 -0.018780481 0.0048998925 -0.023595931 0.010270832 0.016163768
-0.004098104 0.01699369 -0.021081079 0.048245087 0.008814898 -0.003923869 0.017302435 -0.023773601
0.030103335 -0.04732023 0.032418948 -0.02578103 -0.02563883 0.038611066 0.042331185 -0.036244567
-0.011736408 0.014297095 -0.0038974518 0.03375229 -0.04466222 -0.01857525 -0.0058204634 -0.009156682
-0.012651108 0.02220385 0.009347228 0.020173518 0.04317631 0.02416935 0.018879775 0.019194972
0.0072338344 0.018014684 0.03889195 0.0027165317 0.027811324 0.033418264 -0.02341805 0.00042012756
0.03559611 -0.028941948 -0.004868169 0.037183527 0.020473039 0.029601943 -0.003569452 0.03363241
0.023184659 -0.004649902 0.04750939 0.0077207056 -0.04886211 0.028893396 0.0047664153 -0.021371938
-0.027672784 -0.024036402 -0.0052298317 0.051451556 0.027538396 0.019301118 -0.017597824 0.032383796
0.03147767 0.035068702 0.011822822 -0.03344748 0.02877401 0.0038912632 0.024685372 -0.04068217
-0.049675643 -0.01862861 0.013358697 -0.028890211 -0.023138264 -0.018214257 0.0032964281 0.00010785906
0.019622013 -0.02039023 0.0069352444 0.021436835 0.014891888 0.01924414 0.007837656 0.026245488
-0.026110569 -0.013732882 0.011474604 0.023440037 -0.062316246 0.053214237 0.02253171 0.0047599087
-0.05196107 -0.055026013 -0.017524512 -0.018346036 0.04710034 0.021059476 0.041949693 -0.04730845
-0.042102575 0.012412691 -0.026150487 -0.026483731 0.020311655 -0.042687967 0.011393092 0.03843191
-0.03325549 -0.04499079 0.0015550792 -0.044284124 -0.035054035 0.026888097 0.018883552 -0.0055665975
0.010203042 -0.020675233 0.01769797 -0.014784729 -0.01807418 -0.054613084 -0.039968304 -0.0053777555
00000000: 2530 89bc de57 13bd 2d44 473d 178f b0bc
00000010: 672e 48bd 8b90 123d 187a ba3c f6f6 48bd
00000020: ac11 343b aad4 41bd 5300 03bd 66d6 61bc
00000030: 6aff f0bc 000d cbbc 101e 94bc a2b8 9f3c
00000040: 7f00 0a3d 6a90 3ebd 637b 0ebc 6cef 2a3d
00000050: 1124 8bbc 077b a03c 00dc c9bc a8cf 143d
00000060: f3f3 d8ba 8b39 fcbc 65f5 eabc addb dbbc
00000070: 572d d03c c5f5 723c c3b4 5d3d acc7 30bd
00000080: 963c b73c 180e 4abc 9132 e9bc bfd0 143c
00000090: a9dc c03c 8301 1d3d 7df5 863c c0e0 243d
000000a0: ec42 1cbd 3b97 f8bc e791 64bc 521e eabc
000000b0: 1ef5 a3bc e7f9 223d 7b6a 25bc 16cc 94bc
000000c0: 364b bebc f986 ce3c 187f a43c 35d2 4c3d
000000d0: a725 d23c ba28 383d d62b ec3c 473e e33c
000000e0: ffd4 06bd a99f b23c 1fde 14ba cb88 87bc
000000f0: 8be1 ec3c 7a15 d33b 9f4e f93c 7fb6 c63c
00000100: 9ac1 aeb7 9f29 513d c4a5 c3bc a081 2b3d
00000110: 0129 38bd 9e7e a33c 1855 32bc 83ef 62bb
00000120: ea7d 44bd 6d39 b6bc 6d5c 1c3d f9d9 dfbc
00000130: b8d2 f9bc 1503 9ebc a10f ce3c 5348 ccba
00000140: 123b fabc 5b5b 02bd bb02 79bc 0587 9c3b
00000150: 7dd5 5abc d1d5 e13a 7aa2 c9bc 0c99 29bd
00000160: e739 703c 590c 9ebc 7977 863a 6a95 483d
00000170: f31e 29bd 7add f6bb ba11 ccbb e72f 0ebd
00000180: e985 683c 5167 96bb ae3c b63c 4d91 3a3d
00000190: bebf 0fbd dcc3 113d 07bd 41bd ba22 da3c
000001a0: 405b 52bd 85aa 5ebc 6abd 36bc 0a6a 843c
000001b0: 623e 24bd 3f4b b93c 4fbd 10bd 084c 14bd
000001c0: b1b8 e1bc 313a b7bc 46cf 24bd e74b b9bc
000001d0: 3715 3a3c 6370 b8bb 18f8 2d3d cddb 503d
000001e0: 557a 49bd 2b76 97bb 9372 e2bc 86d9 99bc
000001f0: 478f a03b 414c c1bc fe46 283c e169 843c
00000200: 6349 86bb 5a36 8b3c 3ab2 acbc a49c 453d
00000210: 5d6c 103c cd93 80bb d6bd 8d3c dbc0 c2bc
00000220: 459b f63c dcd2 41bd bbc9 043d bd32 d3bc
00000230: 8608 d2bc a326 1e3d 7763 2d3d 2f75 14bd
00000240: 104a 40bc 5d3e 6a3c 646c 7fbb d73f 0a3d
00000250: bbef 36bd 1f2b 98bc 96b9 bebb e805 16bc
00000260: 9846 4fbc d9e4 b53c 1e25 193c ef42 a53c
00000270: a4d9 303d cdfe c53c c2a9 9a3c c63e 9d3c
00000280: cd09 ed3b 8893 933c 2a4d 1f3d d707 323b
00000290: 93d4 e33c 97e1 083d 36d7 bfbc 9144 dc39
000002a0: 3acd 113d aa17 edbc 2985 9fbb c14d 183d
000002b0: 13b7 a73c c67f f23c 78ed 69bb 23c2 093d
000002c0: c1ed bd3c 355e 98bb 3599 423d f9fd fc3b
000002d0: a323 48bd d8b1 ec3c 972f 9c3b 3414 afbc
000002e0: 09b2 e2bc fde7 c4bc 025f abbb debe 523d
000002f0: 3498 e13c 611d 9e3c 5029 90bc dfa4 043d
00000300: bbee 003d 33a4 0f3d 82b4 413c 3a00 09bd
00000310: 79b7 eb3c 9004 7f3b fa38 ca3c 59a2 26bd
00000320: b078 4bbd 079b 98bc 70de 5a3c 2aab ecbc
00000330: 758c bdbc 1136 95bc e308 583b 6432 e238
00000340: 58be a03c 6909 a7bc 0c41 e33b 4d9c af3c
00000350: 1bfd 733c e3a5 9d3c 8369 003c c700 d73c
00000360: d5e5 d5bc e2ff 60bc faff 3b3c 5205 c03c
00000370: 523f 7fbd 2cf7 593d 6c94 b83c 02f9 9b3b
00000380: 22d5 54bd f562 61bd 918f 8fbc 6d4a 96bc
00000390: 49ec 403d ec84 ac3c 71d3 2b3d 81c6 41bd
000003a0: c073 2cbd 995e 4b3c 8c39 d6bc 69f4 d8bc
000003b0: a164 a63c 94d9 2ebd 17aa 3a3c c76a 1d3d
000003c0: e936 08bd 4348 38bd cdd3 cb3a 4563 35bd
000003d0: d294 0fbd 6d44 dc3c aeb1 9a3c 0168 b6bb
000003e0: a92a 273c 1b5f a9bc 55fb 903c a63b 72bc
000003f0: 4e10 94bc f8b1 5fbd ceb5 23bd e237 b0bb

bias f4 [200]
0.03055277 -0.0058170687 -0.045966845 0.028862787 -0.032923657 0.046762075 0.024504129 0.044955213
-0.022977276 -0.00613136 0.036749344 -0.016040009 -0.04663134 0.0012972591 -0.025180275 -0.031014252
-0.034402367 -0.043056987 -0.007564949 0.018822594 0.0105919195 0.012346756 -0.034727573 -0.0034290683
-0.010556358 0.026758794 0.006596389 0.039337263 0.010209096 -0.037646685 0.015232324 0.013230823
-0.04468632 0.030147444 0.013903617 0.025254454 0.045477446 0.014957869 0.03823464 -0.019109296
0.052271977 0.016381707 0.048068326 0.03237409 -0.029146627 -0.0021163914 0.035506286 -0.00419707
0.04031205 0.033810776 -0.011306884 0.045833066 -0.00025068357 -0.0012295736 -0.019025104 -0.023714142
-0.0065345964 0.034501262 0.0029137288 0.04670832 -0.044523727 0.021110987 -0.026303316 -0.03795179
0.012194357 0.035279367 0.04393297 -0.019374495 0.034088507 -0.025968725 0.026598178 -0.0070764176
0.04259543 0.01663769 -0.049101867 0.007537524 0.011318113 -0.019797673 0.019265242 0.046141822
0.030097459 0.03854268 -0.005313086 0.03952793 -0.024005644 -0.0018936165 -0.026079511 -0.018967787
-0.016842695 -0.045030806 0.024986321 0.010983416 0.043960974 0.03711685 -0.03811741 0.01546556
0.02540565 -0.004397408 -0.009093472 -0.03520965 -0.041912585 -0.021158984 -0.028958175 0.017319504
-0.0052141333 0.037799373 -0.015239017 0.050553497 0.024243336 0.037299972 -0.023133747 0.023724798
-0.008376009 -0.023244118 -0.028284613 -0.025045147 0.03737268 0.03779013 0.036633838 -0.015284954
0.03390578 0.014790755 0.011365729 0.0062342063 0.0021727295 -0.04388051 -0.026679223 -0.018692834
0.02003012 0.024258703 0.04305825 -0.022956977 0.048467845 0.038516995 0.0462994 -0.0058572413
-0.017531458 0.017985933 0.029910311 0.016817974 -0.047401555 0.008420482 -0.02958076 0.016630452
-0.0066459496 -0.015120268 -0.044798367 0.023534171 0.03754672 -0.037063967 0.037721913 -0.027646573
0.029758343 0.012572457 -0.04099736 0.024522021 -0.011367178 -0.004397517 0.03579196 0.008852959
-0.0019305405 -0.01093064 0.008485414 0.021195052 -0.01293407 0.04336627 -0.0073004155 0.041237514
0.034335162 -0.047786277 0.032102473 -0.032315414 -0.0034491841 0.030765058 0.022261078 0.01053995
0.0043884926 0.025495615 -0.012386822 -0.035246234 0.017412182 0.010691691 -0.03662705 -0.035543133
0.030303491 0.021404946 0.02908015 -0.03434316 0.0009810239 -0.032425426 -0.020169908 0.03338924
-0.042964403 0.036023572 -0.00026745698 0.046829227 -0.016453035 0.026550869 0.015509019 -0.04303365
00000000: cd49 fa3c 1c9d bebb bb47 3cbd a771 ec3c
00000010: f5da 06bd 9789 3f3d e2bc c83c f522 383d
00000020: d73a bcbc 93e9 c8bb 7b86 163d 5666 83bc
00000030: 8100 3fbd cb08 aa3a dd46 cebc 9a11 febc
00000040: 7fe9 0cbd 865c 30bd 64e3 f7bb d731 9a3c
00000050: bb89 2d3c 0c4a 4a3c 803e 0ebd 38ba 60bb
00000060: 93f4 2cbc 4235 db3c 8626 d83b 1c20 213d
00000070: 0d44 273c 6933 1abd ff90 793c 18c6 583c
00000080: 0109 37bd c6f7 f63c ffcb 633c 6ee2 ce3c
00000090: 8f46 3a3d da11 753c ed9b 1c3d 198b 9cbc
000000a0: 241b 563d ee32 863c 4be3 443d b29a 043d
000000b0: e8c4 eebc 28b3 0abb 0a6f 113d 9387 89bb
000000c0: 401e 253d 2b7d 0a3d 8240 39bc 74bb 3b3d
000000d0: 2e6e 83b9 a529 a1ba 89da 9bbc 2944 c2bc
000000e0: 2b20 d6bb 3251 0d3d 42f4 3e3b 3951 3f3d
000000f0: 835e 36bd f3f0 ac3c 0d7a d7bc 5673 1bbd
00000100: d7ca 473c 1981 103d 0ff3 333d 43b7 9ebc
00000110: 64a0 0b3d 5dbc d4bc 6ce4 d93c 4be1 e7bb
00000120: 8c78 2e3d c44b 883c 0a1f 49bd 56fd f63b
00000130: 9b6f 393c bb2e a2bc 24d2 9d3c 35ff 3c3d
00000140: f28e f63c eede 1d3d 6519 aebb 0ae8 213d
00000150: 7ca7 c4bc 3a33 f8ba b3a4 d5bc 5562 9bbc
00000160: b1f9 89bc 3972 38bd 1db0 cc3c c9f3 333c
00000170: 6c10 343d d707 183d 0021 1cbd 4363 7d3c
00000180: 821f d03c 2218 90bb c9fc 14bc fe37 10bd
00000190: 88ac 2bbd 9b55 adbc b239 edbc a2e1 8d3c
000001a0: 52db aabb 84d3 1a3d 12ad 79bc 2f11 4f3d
000001b0: f699 c63c dbc7 183d fc82 bdbc 825a c23c
000001c0: 873b 09bc 736a bebc 22b5 e7bc 7b2b cdbc
000001d0: 1814 193d d3c9 1a3d 5d0d 163d be6d 7abc
000001e0: cae0 0a3d ec54 723c 5337 3a3c 5048 cc3b
000001f0: 5a64 0e3b 0dbc 33bd 638e dabc b721 99bc
00000200: 3516 a43c 30ba c63c d95d 303d 4510 bcbc
00000210: 3886 463d ffc3 1d3d 71a4 3d3d 1aee bfbb
00000220: 229e 8fbc 3c57 933c 7806 f53c d9c5 893c
00000230: 2228 42bd 10f6 093c 5a53 f2bc 963c 883c
00000240: 44c6 d9bb 00bb 77bc 7e7e 37bd bcca c03c
00000250: 97ca 193d 63d0 17bd 4b82 1a3d 117b e2bc
00000260: c5c7 f33c b5fc 4d3c d9ec 27bd 68e2 c83c
00000270: 663d 3abc 0c19 90bb 979a 123d 000c 113c
00000280: 310a fdba 6d16 33bc 6806 0b3c 3fa1 ad3c
00000290: 6ce9 53bc d4a0 313d 5338 efbb abe8 283d
000002a0: 07a3 0c3d 8bbb 43bd e27d 033d 2b5d 04bd
000002b0: b50b 62bb 0107 fc3c dd5c b63c c1af 2c3c
000002c0: 58cd 8f3b 2edc d03c 19f2 4abc 5b5e 10bd
000002d0: fea3 8e3c 342c 2f3c 3f06 16bd ad95 11bd
000002e0: 073f f83c 6d59 af3c 7f39 ee3c 6aab 0cbd
000002f0: b395 803a 86d0 04bd 5d3b a5bc 28c3 083d
00000300: 71fb 2fbd 748d 133d 7839 8cb9 01d0 3f3d
00000310: 84c8 86bc 3581 d93c 8a19 7e3c 0d44 30bd

weight f4 [2, 200]
0.00047192525 0.033161696 0.040408246 -0.082884744 -0.0777495 0.05391581 0.015474619 0.04018109
0.0242133 -0.010509011 -0.0010185404 0.06657235 -0.031170009 0.07483931 0.073678285 -0.007608831
0.011949838 0.07159635 0.028607324 0.032418095 -0.025746284 -0.06870959 -0.05709333 0.013333369
-0.032652892 0.03794547 0.042662337 0.051066346 0.010536335 -0.068048015 0.069645815 0.07725554
0.009701228 -0.08267578 -0.0047289548 0.01296518 -0.044378918 -0.0027267265 0.05996264 0.042548507
0.024183622 -0.044643182 -0.04599636 0.06291553 -0.008830225 -0.0355132 0.03442992 0.024950765
-0.05224426 -0.07525553 0.031051947 0.031569753 0.06327894 -0.044775084 0.0063515077 -0.054697316
-0.04489652 0.069780715 -0.057070345 0.02785591 -0.00066459965 0.080540344 -0.07382717 0.08137742
0.049216557 0.04389162 0.0010754649 0.071733594 -0.07176986 0.07974107 0.039655324 -0.048236784
-0.02559128 -0.073726006 -0.019120775 0.07559434 -0.022551369 0.027654238 -0.02490206 -0.012952633
-0.0768049 0.028220914 0.052385226 0.068836555 0.04538122 0.047425665 -0.063827455 -0.0441897
-0.04026664 0.057045113 0.03972001 -0.063697875 0.044944957 -0.021337679 -0.0008745592 -0.06308463
0.06284007 -0.0017839284 0.07122313 0.038069468 -0.041010823 -0.035595093 -0.04132859 0.033772953
-0.0071634045 -0.016709113 -0.019589586 0.034284078 -0.03109401 0.005460701 0.053950705 0.023409627
0.041168455 -0.06469454 0.06655367 0.073477134 0.0131689245 -0.050552797 -0.0744611 0.016498806
0.05472604 -0.07134416 0.018478159 0.057796493 -0.05185103 0.04017199 4.6473317e-05 0.052347466
0.060992014 -0.044458766 0.0021052903 -0.037327003 -0.030790357 0.06240475 0.03967106 0.05710863
-0.04604572 -0.0067906734 -0.031881396 0.015291648 -0.042918835 0.028109279 0.041002106 0.05729333
0.040440768 -0.024956178 -0.03642705 0.024453819 -0.056472287 -0.025731027 0.065017514 -0.042939346
-0.06273999 0.0042127343 -0.013721941 0.033401337 0.020970827 -0.053860556 0.042152025 -0.029933771
-0.017401798 -0.054111578 -0.022588698 -0.06465186 0.079663895 0.06159155 -0.080821335 -0.06784449
-0.01981633 -0.0055752103 -0.040435378 0.011081288 0.067166224 0.00016506287 -0.06011279 0.0527017
-0.070518315 0.021714129 -0.016088426 -0.03900927 0.0343575 -0.020065712 -0.06066144 -0.02729346
0.028556729 -0.0032689918 -0.00692122 0.041834276 -0.01517839 0.018568013 -0.05608651 0.019936686
0.06800387 -0.05571336 0.073691316 0.03547343 0.03774196 0.08735319 -0.06065158 0.03520534
-0.07708117 -0.055006642 0.015831504 -0.043607086 0.041525338 0.032714583 0.05456698 0.03094447
0.01321587 -0.013375588 -0.021911558 -0.025002437 -0.020888265 -0.032224532 0.04606859 -0.04515279
-0.021000534 0.0020633712 -0.0144291585 0.051022686 0.06797115 -0.048132595 -0.009696783 0.048519567
-0.05812451 -0.076094046 0.017654652 -0.03202802 0.044593804 -0.036963966 0.05264065 0.047786534
-0.046776816 0.06105303 -0.08449095 -0.018235752 0.0031061985 0.05227162 0.0008130791 0.05654788
0.021819385 0.049375083 0.02670327 -0.03807523 -0.023886388 -0.010077414 -0.023928437 -0.057392314
-0.0064238277 -0.05151017 -0.07184327 -0.07079174 -0.00027941802 0.03489706 -0.023718623 -0.03425533
00000000: bc6c f739 8fd4 073d 1e83 253d 7abf a9bd
00000010: 213b 9fbd d3d6 5c3d 4289 7d3c ed94 243d
00000020: f85a c63c fd2d 2cbc 8b80 85ba 1657 883d
00000030: 3f58 ffbc 5a45 993d a4e4 963d 8053 f9bb
00000040: 41c9 433c 1ba1 923d e859 ea3c d6c8 043d
00000050: dfe9 d2bc 9db7 8cbd b2da 69bd 3474 5a3c
00000060: 0abf 05bd b66c 1b3d b4be 2e3d f22a 513d
00000070: 98a0 2c3c c25c 8bbd 77a2 8e3d 2738 9e3d
00000080: e6f1 1e3c eb51 a9bd 59f5 9abb e86b 543c
00000090: abc6 35bd e1b2 32bb 639b 753d 5847 2e3d
000000a0: bb1c c63c c5db 36bd ae66 3cbd dbd9 803d
000000b0: a6ac 10bc 4a76 11bd 6306 0d3d 8c65 cc3c
000000c0: 14fe 55bd 921f 9abd a760 fe3c 494f 013d
000000d0: 6498 813d 1466 37bd 4f20 d03b 4b0a 60bd
000000e0: 6ae5 37bd 31e9 8e3d 98c2 69bd 1432 e43c
000000f0: 8738 2eba 56f2 a43d b332 97bd 34a9 a63d
00000100: 4d97 493d b3c7 333d 9df6 8c3a 10e9 923d
00000110: 14fc 92bd 494f a33d 9f6d 223d ef93 45bd
00000120: cea4 d1bc a9fd 96bd 2ca3 9cbc 35d1 9a3d
00000130: a6bd b8bc 248b e23c 68ff cbbc 4837 54bc
00000140: e34b 9dbd 8c2f e73c e491 563d 2efa 8c3d
00000150: a8e1 393d 6a41 423d f8b7 82bd 4200 35bd
00000160: a2ee 24bd 23a8 693d 73b1 223d 0874 82bd
00000170: 3418 383d 5bcc aebc ad42 65ba 8432 81bd
00000180: 4bb2 803d b4d2 e9ba 6fdd 913d bbee 1b3d
00000190: f7fa 27bd 29cc 11bd 2b48 29bd 8255 0a3d
000001a0: feba eabb 8de1 88bc 577a a0bc 766d 0c3d
000001b0: deb8 febc aeef b23b 6afb 5c3d 8cc5 bf3c
000001c0: 41a0 283d 927e 84bd 4a4d 883d 2e7b 963d
000001d0: 79c2 573c 7310 4fbd 107f 98bd 8128 873c
000001e0: 6a28 603d e31c 92bd 825f 973c 04bc 6c3d
000001f0: bf61 54bd 628b 243d 58ec 4238 4c6a 563d
00000200: c3d2 793d 651a 36bd e9f8 093b 33e4 18bd
00000210: 0f3c fcbc 209c 7f3d 1f7e 223d bdea 693d
00000220: 709a 3cbd 4c84 debb 1196 02bd d289 7a3c
00000230: a9cb 2fbd 6e45 e63c d3f1 273d 69ac 6a3d
00000240: 38a5 253d e670 ccbc 8834 15bd 6053 c83c
00000250: 7c4f 67bd e0c9 d2bc e727 853d 2be1 2fbd
00000260: d37d 80bd fa0a 8a3b fed1 60bc d7cf 083d
00000270: 03cb ab3c e39c 5cbd 9aa7 2c3d ab37 f5bc
00000280: 378e 8ebc 1aa4 5dbd ef0b b9bc 3268 84bd
00000290: d326 a33d 6c47 7c3d a885 a5bd 0df2 8abd
000002a0: db55 a2bc 41b0 b6bb 919f 25bd 4a8e 353c
000002b0: 728e 893d ba14 2d39 d438 76bd bddd 573d
000002c0: e86b 90bd d4e1 b13c e0cb 83bc 2fc8 1fbd
000002d0: 73ba 0c3d d960 a4bc 2178 78bd 8996 dfbc
000002e0: cdef e93c 953c 56bb 67cb e2bb 6b5a 2b3d
000002f0: c8ae 78bc f21b 983c f8ba 65bd 4352 a33c
00000300: 9d45 8b3d b133 64bd 79eb 963d 964c 113d
00000310: 5097 1a3d 3be6 b23d cb6d 78bd 7933 103d
00000320: bcdc 9dbd a54e 61bd 12b1 813c 589d 32bd
00000330: 7916 2a3d baff 053d a081 5f3d 427f fd3c
00000340: 6087 583c 4825 5bbc de7f b3bc e9d1 ccbc
00000350: de1d abbc dffd 03bd 6bb2 3c3d 22f2 38bd
00000360: 5009 acbc a039 073b 4768 6cbc 2afd 503d
00000370: 7534 8b3d af26 45bd 41df 1ebc 74bc 463d
00000380: f713 6ebd 32d7 9bbd 7da0 903c d02f 03bd
00000390: fea7 363d 8767 17bd b99d 573d d0bb 433d
000003a0: 0c99 3fbd be12 7a3d 9709 adbd 2563 95bc
000003b0: 5d91 4b3b c41a 563d d124 553a c09e 673d
000003c0: 91be b23c 873d 4a3d d1c0 da3c c6f4 1bbd
000003d0: 63ad c3bc bd1b 25bc 9205 c4bc 3414 6bbd
000003e0: f97e d2bb 54fc 52bd 9022 93bd 43fb 90bd
000003f0: da7e 92b9 38f0 0e3d 8f4d c2bc 514f 0cbd

bias f4 [2]
-0.010797453 0.05017816
00000000: cde7 30bc 9d87 4d3d

weight f4 [200, 400]
0.030710805 -8.940589e-06 0.033032577 -0.0065530483 0.040556893 -0.004517075 0.001413238 -0.02666153
-0.016474852 0.011907854 -0.03302363 0.0035498615 -0.011655165 -0.006194239 -0.006208359 -0.037115093
0.0023680367 -0.020241791 0.006036972 -0.03449426 0.017105745 0.014990103 -0.034927275 0.043786105
-0.025917992 0.035806965 0.024712196 0.0071822293 0.052349314 0.03338712 0.013393503 -0.053100504
0.01775948 0.034360416 0.020567503 0.04334083 0.04725825 0.02611099 -0.036493097 -0.008874273
0.04098827 -0.0210313 -0.013908476 -0.02442941 -0.032835446 -0.0023776789 0.039238676 0.007859365
0.0431365 0.007904186 -0.021055542 0.041283086 -0.02007863 0.032405335 -0.009554332 0.025750285
-0.0017411273 -0.02864902 -0.006356548 -0.010818504 -0.03336674 -0.017425388 0.025903456 -0.013598095
-0.018338688 -0.043827407 -0.022026505 -0.03484295 -0.018139629 -0.044169445 -0.01996615 0.017708587
-0.012319786 0.021257164 0.0073912726 0.04745007 0.04678818 0.0328443 0.04073959 0.023151742
0.022271866 -0.044455633 0.027385557 0.04127366 -0.006629064 -0.037738577 0.03444039 0.046972953
-0.008559495 0.009055169 -0.031928226 0.038492445 -0.025731055 0.0056105885 0.040564205 -0.025538862
0.00966274 0.027380375 0.0048151915 -0.034561183 -0.00072870834 -0.0401996 -0.040678505 -0.005611951
-0.003996867 0.029674252 0.038327966 -0.036255512 0.013515284 -0.039107107 0.016305925 -0.030766645
-0.009828777 -0.031501874 -0.027212024 0.0006625474 0.043820497 0.009463023 -0.001945809 0.0037916852
-0.03139856 -0.031586584 0.02753781 -0.041711394 -0.052757546 -0.020264473 0.027230993 -0.032761283
-0.032318316 0.0469725 0.037736967 0.040996227 0.015510474 -0.03783205 -0.035816874 -0.025939994
0.03974694 -0.02361512 -0.021189442 0.03127599 -0.027311701 -0.00982456 0.0038783923 -0.029721504
-0.043923434 0.0372041 0.015178972 0.023126815 0.038247585 -0.004652736 -0.031515613 0.009478267
0.017975042 -0.0015554434 0.025075004 0.00866337 -0.015131929 -0.03140337 -0.025482833 0.01957532
-0.0023814137 0.019622223 -0.028372342 0.012390893 0.0029475682 -0.016055427 -0.048405003 -0.019592647
-0.022479488 -0.028842408 0.040472522 0.03161749 -0.03818097 0.0028279845 -0.0042662346 0.011479294
0.021089045 0.03617796 -0.022363393 0.03531531 -0.009558202 -0.011429863 0.045137174 0.03227847
-0.0025489575 -0.006265155 -0.0065452973 -0.0330159 -0.05247941 0.0402312 0.038171623 0.014348803
-0.04751441 0.021069922 -0.017745636 0.018069098 0.038194813 -0.036684573 -0.038838558 -0.03558436
-0.036383882 -0.04099554 0.024483891 -0.0032418217 0.0019785655 -0.052893613 0.0072504077 0.024959804
0.031199627 0.041457657 0.014715103 -0.027592586 -0.018775275 0.006937646 0.03241392 -0.014617472
-0.0014087791 -0.010410411 -0.008561348 0.0054422556 0.036590915 -0.023295103 -0.049488384 -0.048544496
-0.0061705345 0.0007193479 -0.028979568 -0.03931735 0.0014747496 -0.0036558604 0.030148987 0.025343154
-0.03444545 -0.047230642 0.008336158 -0.049802937 0.02408663 -0.04829043 -0.0126679195 0.01835597
-0.007743412 0.0230819 -0.01100408 0.01151335 -0.021170953 0.011518881 0.020327913 0.010233213
0.011848454 -0.053900342 0.01730962 0.033186484 -0.04091781 0.033857167 0.011623879 -0.047525365
00000000: 3a95 fb3c 8aff 15b7 2b4d 073d f4ba d6bb
00000010: fc1e 263d f903 94bb 663c b93a 4869 dabc
00000020: 45f6 86bc 2919 433c c943 07bd cba4 683b
00000030: 4ef5 3ebc 0bf9 cabb 7d6f cbbb ff05 18bd
00000040: 1031 1b3b 1dd2 a5bc cbd1 c53b da49 0dbd
00000050: 5921 8c3c 0d99 753c e70f 0fbd 0f59 333d
00000060: f851 d4bc 53aa 123d 3b71 ca3c e858 eb3b
00000070: 3c6c 563d efc0 083d 6c70 5b3c ea7f 59bd
00000080: 547c 913c 82bd 0c3d 2e7d a83c 2786 313d
00000090: de91 413d b7e6 d53c c979 15bd 6665 11bc
000000a0: 51e3 273d d549 acbc 60e0 63bc 3020 c8bc
000000b0: 767e 06bd d5d2 1bbb bcb8 203d 91c4 003c
000000c0: e6af 303d 8f80 013c ac7c acbc 7418 293d
000000d0: f07b a4bc 75bb 043d c689 1cbc 43f2 d23c
000000e0: 8a36 e4ba 59b1 eabc 974a d0bb 1840 31bc
000000f0: 90ab 08bd b0bf 8ebc 7c33 d43c 8bca 5ebc
00000100: 043b 96bc 5e84 33bd ee70 b4bc 7bb7 0ebd
00000110: 8f99 94bc 05eb 34bd 0d90 a3bc 9911 913c
00000120: edd8 49bc 8123 ae3c 7d32 f23b 015b 423d
00000130: f6a4 3f3d bf87 063d 8ede 263d b9a8 bd3c
00000140: 7d73 b63c 1c17 36bd ad57 e03c 920e 293d
00000150: 9f38 d9bb c493 1abd 5e11 0d3d b666 403d
00000160: 203d 0cbc 225c 143c 2cc7 02bd 41aa 1d3d
00000170: efc9 d2bc 07d9 b73b a726 263d e036 d1bc
00000180: 7850 1e3c cf4c e03c c1c8 9d3b 0790 0dbd
00000190: ca06 3fba 56a8 24bd 819e 26bd 75e4 b7bb
000001a0: 27f8 82bb 6b17 f33c c9fd 1c3d a980 14bd
000001b0: 366f 5d3c c62e 20bd 0194 853c 550a fcbc
000001c0: e108 21bc 1c08 01bd c0eb debc ceae 2d3a
000001d0: 1f7d 333d cc0a 1b3c 840a ffba ec7d 783b
000001e0: c79b 00bd ef60 01bd f996 e13c 91d9 2abd
000001f0: 4c18 58bd ae01 a6bc 8813 df3c b230 06bd
00000200: 3660 04bd 3c66 403d 1492 1a3d a9eb 273d
00000210: a51f 7e3c c8f5 1abd b7b4 12bd 1c80 d4bc
00000220: b0cd 223d 7f74 c1bc 7b95 adbc 411b 003d
00000230: cabc dfbc 31f7 20bc a02c 7e3b 837a f3bc
00000240: 0fe9 33bd 5463 183d 39b1 783c 7274 bd3c
00000250: 80a9 1c3d fa75 98bb 8416 01bd bc4a 1b3c
00000260: 6540 933c 05e0 cbba 186a cd3c cff0 0d3c
00000270: e9eb 77bc d2a0 00bd 60c1 d0bc 6c5c a03c
00000280: 7e11 1cbb c9be a03c 1d6d e8bc 2c03 4b3c
00000290: fd2b 413b ac86 83bc 5344 46bd c280 a0bc
000002a0: e726 b8bc ea46 ecbc 84c6 253d 5781 013d
000002b0: a663 1cbd b555 393b c5cb 8bbb a613 3c3c
000002c0: efc2 ac3c 572f 143d 6f33 b7bc c9a6 103d
000002d0: 019a 1cbc 5244 3bbc c2e1 383d 6e36 043d
000002e0: 690c 27bb ee4b cdbb ef79 d6bb ae3b 07bd
000002f0: a6f4 56bd 79c9 243d d959 1c3d 3e17 6b3c
00000300: 789e 42bd d49a ac3c 4c5f 91bc a505 943c
00000310: 2a72 1c3d 9042 16bd 2e15 1fbd e8c0 11bd
00000320: 4407 15bd f0ea 27bd 7192 c83c be74 54bb
00000330: d2aa 013b f9a6 58bd d494 ed3b 8178 cc3c
00000340: 5c96 ff3c 81cf 293d 9e17 713c d909 e2bc
00000350: 9bce 99bc 3155 e33b 75c4 043d 1f7e 6fbc
00000360: c8a6 b8ba 6e90 2abc e544 0cbc f354 b23b
00000370: 5be0 153d 5fd5 bebc 55b4 4abd 98d6 46bd
00000380: 3232 cabb 9f92 3c3a 8f66 edbc 3b0b 21bd
00000390: 634c c13a 2997 6fbb 02fb f63c 729c cf3c
000003a0: ac16 0dbd eb74 41bd 6194 083c 2afe 4bbd
000003b0: 5351 c53c 30cc 45bd 1b8d 4fbc 425f 963c
000003c0: 73bc fdbb 4116 bd3c 754a 34bc 7da2 3c3c
000003d0: b56e adbc b0b9 3c3c b986 a63c 35a9 273c
000003e0: 0520 423c 9bc6 5cbd e7cc 8d3c 8dee 073d
000003f0: 6f99 27bd d0ad 0a3d 1572 3e3c f5a9 42bd

bias f4 [200]
0.01803779 -0.027244443 0.02232796 0.04061928 -0.02311262 -0.0034197734 0.040488943 0.057048157
0.016022235 0.017822616 0.035363946 -0.028268738 -0.003942012 0.04090809 0.061404888 -0.033285256
-0.038793538 0.015577847 -0.016035773 -0.027912589 0.051147517 0.013974872 0.038088817 -0.01942128
0.0028781442 0.043265354 -0.0059077083 0.0091094915 -0.027147198 -0.035627443 -0.004976875 0.01277957
0.035433874 0.025068698 -0.04304666 0.0072090365 0.048241373 0.047210477 0.0048288815 0.010298115
0.041435298 -0.034338955 0.021323267 -0.024697667 0.055469956 0.053911727 -0.04732621 0.035452303
0.023574667 0.04581791 -0.039740987 -0.0015573673 -0.036399238 0.040253457 0.03292375 0.024829248
-0.003627644 -0.031534676 -0.03995393 -0.02495515 0.043599878 -0.0017638037 -0.036551375 -0.018332731
0.03714103 0.02470958 0.04347985 -0.03873223 0.010075291 0.008282269 0.047596198 0.01751568
0.031831026 0.0057713347 0.0002998053 -0.021144792 -0.016418586 -0.024101475 -0.034087397 0.018325416
-0.014529232 0.02602554 -0.021083513 -0.021847002 -0.026476767 0.035391644 -0.0019003536 -0.017146703
-0.0051333588 0.03367207 0.010671078 0.005738419 0.051947195 -0.015802693 -0.006583596 0.042166
0.056904294 -9.342292e-05 0.017569743 0.017806724 0.03330625 -0.006134349 -0.006695295 -0.04014675
0.046898983 0.037971407 0.031152576 0.023721518 -0.007158491 -0.019618332 -0.028371675 0.022028677
0.039955076 0.020310596 -0.013254837 -0.0022766972 0.044962674 0.06816644 -0.01775149 0.03016309
-0.026449999 0.0063474206 0.014650723 0.0013291771 -0.043069873 0.030370044 -0.04597908 0.03211669
0.020775164 -0.007175102 -0.007553807 0.008762928 0.03752854 -0.014663701 0.0043846406 0.04032225
0.038067408 -0.012992112 -0.020462954 0.03919853 0.008615891 -0.028332237 0.020543 0.011094181
0.039509892 -0.01900492 -0.029590303 0.012830212 -0.042357538 0.034494065 -0.032058608 0.062890515
-0.0057734055 0.03869418 0.037053462 0.01145843 0.044061493 0.044942208 -0.044561617 -0.051162668
-0.030333353 0.024072787 -0.03857935 0.05282426 -0.043759648 -0.0280063 -0.039990447 0.030394543
0.01796979 -0.03817466 0.058132913 -0.013182487 0.044492893 -0.013871857 0.02560433 0.034259774
-0.015570036 -0.012575237 0.046195365 -0.007528185 -0.039614324 -0.04451434 -0.009326134 0.0071495567
-0.018694865 0.043861445 -0.020357547 -0.008840166 -0.022414498 -0.02090614 -0.028344234 -0.026559182
0.03418703 -0.01537086 0.037808616 0.053099506 0.007934744 0.011060317 -0.0071756 -0.020566473
00000000: fdc3 933c bd2f dfbc 20e9 b63c 6760 263d
00000010: ad56 bdbc 471e 60bb bcd7 253d 54ab 693d
00000020: 1041 833c bc00 923c c9d9 103d d793 e7bc
00000030: fe2b 81bb 3e8f 273d b183 7b3d 1f56 08bd
00000040: f9e5 1ebd 3a3a 7f3c 745d 83bc f1a8 e4bc
00000050: 0f80 513d ddf6 643c 0503 1c3d 6019 9fbc
00000060: 3f9f 3c3b 0337 313d 7395 c1bb fa3f 153c
00000070: cd63 debc 15ee 11bd 0e15 a3bb 6761 513c
00000080: 1c23 113d df5c cd3c b251 30bd c839 ec3b
00000090: bf98 453d c65f 413d 983b 9e3b 6db9 283c
000000a0: 0fb8 293d 01a7 0cbd 22ae ae3c c352 cabc
000000b0: 7734 633d 8bd2 5c3d 21d9 41bd 6f36 113d
000000c0: a91f c13c 90ab 3b3d 72c7 22bd 9320 ccba
000000d0: 5e17 15bd cfe0 243d 0edb 063d b566 cb3c
000000e0: c4bd 6dbb 812a 01bd bba6 23bd be6e ccbc
000000f0: c995 323d 6e2f e7ba e5b6 15bd 862e 96bc
00000100: 3121 183d bf6b ca3c ed17 323d b0a5 1ebd
00000110: d512 253c 5bb2 073c 3bf4 423d 0b7d 8f3c
00000120: 4061 023d 771d bd3b 302f 9d39 d837 adbc
00000130: 4580 86bc 7570 c5bc 3a9f 0bbd 2f1f 963c
00000140: 040c 6ebc 8333 d53c 55b7 acbc 7cf8 b2bc
00000150: cee5 d8bc d4f6 103d 4915 f9ba 3e77 8cbc
00000160: bc35 a8bb b9eb 093d bfd5 2e3c 5909 bc3b
00000170: 95c6 543d a674 81bc 35bb d7bb 41b6 2c3d
00000180: 7a14 693d 0cec c3b8 6cee 8f3c 68df 913c
00000190: 226c 083d a602 c9bb 3564 dbbb eb70 24bd
000001a0: 2619 403d e887 1b3d b033 ff3c a153 c23c
000001b0: c691 eabb a0b6 a0bc b76b e8bc 7c75 b43c
000001c0: efa7 233d 6862 a63c d12a 59bc a434 15bb
000001d0: c82a 383d d99a 8b3d 936b 91bc 9618 f73c
000001e0: abad d8bc 06fe cf3b 9609 703c c837 ae3a
000001f0: 096a 30bd 99ca f83c 8f54 3cbd ca8c 033d
00000200: ad30 aa3c 1e1d ebbb ed85 f7bb 6292 0f3c
00000210: 87b7 193d 0540 70bc 08ad 8f3b f228 253d
00000220: 92ec 1b3d dedc 54bc eda1 a7bc a38e 203d
00000230: ab29 0d3c 0219 e8bc cb49 a83c 5ec4 353c
00000240: 20d5 213d 35b0 9bbc 5d67 f2bc cf35 523c
00000250: 197f 2dbd a649 0d3d e34f 03bd becc 803d
00000260: d62e bdbb ca7d 1e3d 5fc5 173d 24bc 3b3c
00000270: d379 343d 5215 383d 3e86 36bd f28f 51bd
00000280: a77d f8bc 4b34 c53c 6105 1ebd 405e 583d
00000290: 513d 33bd 786d e5bc 06cd 23bd fafd f83c
000002a0: 6235 933c 085d 1cbd c71c 6e3d 5cfb 57bc
000002b0: 2e3e 363d c946 63bc 2cc0 d13c fa53 0c3d
000002c0: 7719 7fbc 5e08 4ebc 5a37 3d3d feae f6bb
000002d0: a142 22bd ab54 36bd a4cc 18bc d446 ea3b
000002e0: f925 99bc 0fa8 333d dfc4 a6bc 58d6 10bc
000002f0: 9c9e b7bc 5a43 abbc 2b32 e8bc a492 d9bc
00000300: b307 0c3d 0fd6 7bbc 35dd 1a3d de7e 593d
00000310: ba00 023c 5536 353c 4c21 ebbb 057b a8bc

weight f4 [2, 200]
0.044168368 -0.04112061 -0.0093784295 0.018388936 0.028169388 0.035519358 -0.03966205 -0.07579057
-0.053248126 0.01869696 -0.03945395 -0.055678945 0.017913342 0.07431569 -0.0650082 -0.05173572
0.057865806 0.050520305 0.060911037 -0.03711937 -0.08981458 -0.057153326 -0.07071235 -0.04107182
-0.057544343 -0.014546496 -0.06858773 0.07158351 0.0025498467 -0.06323038 -0.0053339354 -0.04801105
0.031027138 -0.042310204 -0.046527784 0.020505937 -0.023447264 -0.013125091 -0.05859192 -0.05541452
-0.02977 0.044706155 0.023662565 -0.09137051 0.009321218 -0.028931765 -0.00882859 -0.08660318
0.048169743 -0.04341671 -0.042004928 -0.052159853 -0.03515151 0.06434176 0.023877848 -0.08595245
0.06016776 0.052629415 0.043557815 0.064952135 0.048343368 -0.04231128 0.056844443 0.009600722
0.046393335 0.05433542 0.030638883 -0.03654377 -0.03353132 0.06513017 -0.085308164 -0.046323545
-0.025643507 -0.07641241 0.016166119 -0.008886633 0.037473954 0.04369784 -0.07167596 0.03874769
-0.058947485 -0.0807939 -0.008848592 -0.026864436 -0.04163371 -0.046051487 0.05337586 -0.061497014
0.06385731 0.06590511 0.04194132 -0.04860097 -0.01568324 0.038831506 0.00013246364 -0.016000276
-0.092778645 -0.0012345809 0.045130502 -0.05505807 0.05470629 0.020087922 -0.075465046 -0.06703559
0.031502116 0.007477778 0.06407987 0.0012182037 0.01746586 -0.056388322 0.026583627 -0.07044359
0.049676236 0.072644606 0.004099493 -0.043824933 0.04676279 -0.043886427 -0.04870655 0.07024784
-9.071809e-05 -0.07099206 -0.054040257 -0.02461917 -0.021198083 -0.042440347 0.024851635 0.00034373242
0.0701082 -0.0808548 0.010461014 0.018075494 -0.043513678 0.024898663 -0.0948398 -0.052166335
0.053892415 0.018735211 0.009007063 -0.044818338 -0.053763654 -0.038308747 -0.06618896 -0.020274067
0.010583191 0.014441413 0.032383703 0.023338415 0.055782076 -0.0080952775 -0.00991958 -0.035509
-0.09129 0.025134396 0.0578293 -0.06342199 -0.012304874 -0.057267226 0.04102706 0.00096909504
0.041420918 0.061162524 -0.044878244 -0.083879665 0.06749779 -0.0029311897 -0.05575188 -0.0867951
0.06815629 0.011722093 -0.04502225 0.05655509 -0.010291537 -0.08044776 -0.01984611 -0.009364429
0.0076247985 -0.07801719 0.055256218 -0.02948211 -0.07315981 0.037073348 -0.0032011596 0.007397511
0.03551151 -0.030106409 0.06887264 -0.06402552 -0.009385027 0.008936109 0.054553032 -0.057510704
-0.014914225 -0.06962768 0.026986983 0.008387498 -0.029306864 -0.032960743 0.0541078 -0.06311131
-0.07427327 0.012978412 0.010860477 -0.08115073 -0.061999828 0.022672532 0.0005852968 -0.04902385
-0.011891863 0.03191564 -0.07442304 -0.023984594 0.07445719 0.017308546 -0.08217133 -0.011686657
-0.0108596 0.058957107 0.050787985 0.033100788 -0.027561242 0.0025613315 0.032189257 0.04598769
-0.023606831 -0.032276236 -0.05326278 0.049058553 0.036153357 -0.061584204 0.036342725 -0.06810977
0.06937296 0.03368971 0.06736366 0.0045905225 -0.021558238 -0.023456592 -0.040386673 -0.06541439
0.047107685 -0.00867753 0.057063404 -0.022443684 -0.058845863 -0.03147046 0.052442897 -0.07751329
0.026634015 0.0031895423 0.06265235 -0.053895134 0.03785926 -0.06224174 -0.062018014 -0.01077273
00000000: e4e9 343d 166e 28bd fca7 19bc 65a4 963c
00000010: 7dc3 e63c bf7c 113d ac74 22bd 1638 9bbd
00000020: b51a 5abd 5e2a 993c 779a 21bd 9b0f 64bd
00000030: 00bf 923c d332 983d 0523 85bd d6e8 53bd
00000040: b204 6d3d 61ee 4e3d da7d 793d 7b0a 18bd
00000050: b5f0 b7bd 9b19 6abd a3d1 90bd ed3a 28bd
00000060: 9eb3 6bbd 6d54 6ebc b977 8cbd 609a 923d
00000070: 541b 273b ee7e 81bd 4bc8 aebb 3ca7 44bd
00000080: a02c fe3c 774d 2dbd eb93 3ebd 11fc a73c
00000090: 7a14 c0bc 9f0a 57bc 15fe 6fbd 56fa 62bd
000000a0: 37e0 f3bc cd1d 373d ffd7 c13c 7620 bbbd
000000b0: 06b8 183c 4f02 edbc caa5 10bc 025d b1bd
000000c0: a34d 453d b8d5 31bd 5c0d 2cbd 92a5 55bd
000000d0: 08fb 0fbd 9dc5 833d 7a9b c33c d707 b0bd
000000e0: 7872 763d f191 573d ae69 323d a005 853d
000000f0: b203 463d 984e 2dbd b8d5 683d 594c 1d3c
00000100: f006 3e3d d18e 5e3d 65fe fa3c ecae 15bd
00000110: 2358 09bd f762 853d 0cb6 aebd c2bd 3dbd
00000120: 5512 d2bc 1c7e 9cbd cf6e 843c 3e99 11bc
00000130: 4a7e 193d 82fc 323d d9ca 92bd e6b5 1e3d
00000140: eb72 71bd 4677 a5bd aff9 10bc ce12 dcbc
00000150: 1c88 2abd 7ca0 3cbd a5a0 5a3d 4be4 7bbd
00000160: 9fc7 823d 42f9 863d a9ca 2b3d d011 47bd
00000170: 237a 80bc c90d 1f3d f0e5 0a39 0313 83bc
00000180: bb02 bebd a9d1 a1ba c3da 383d 9284 61bd
00000190: b413 603d 6d8f a43c 6b8d 9abd f549 89bd
000001a0: 5d08 013d 2608 f53b 4f3c 833d 22ac 9f3a
000001b0: 9014 8f3c 71f7 66bd e8c5 d93c bb44 90bd
000001c0: 4f79 4b3d b2c6 943d 0a55 863b c681 33bd
000001d0: 578a 3f3d 41c2 33bd 8580 47bd 19de 8f3d
000001e0: e73f beb8 4964 91bd 5159 5dbd 24ae c9bc
000001f0: 9aa7 adbc eed5 2dbd a895 cb3c fc36 b439
00000200: e394 8f3d 3497 a5bd ac64 2b3c 0f13 943c
00000210: 663b 32bd 48f8 cb3c 5e3b c2bd 5eac 55bd
00000220: 4bbe 5c3d 967a 993c 5c92 133c 6f93 37bd
00000230: 4737 5cbd a2e9 1cbd 148e 87bd cd15 a6bc
00000240: 1f65 2d3c ad9b 6c3c c6a4 043d 3430 bf3c
00000250: bf7b 643d 0ea2 04bc bc85 22bc e371 11bd
00000260: 40f6 babd a6e6 cd3c 6bde 6c3d 63e3 81bd
00000270: 629a 49bc 0a91 6abd fe0b 283d de0a 7e3a
00000280: fba8 293d 8e85 7a3d 40d2 37bd 1ac9 abbd
00000290: 483c 8a3d 3419 40bb 155c 64bd a1c1 b1bd
000002a0: 8695 8b3d 060e 403c 4069 38bd 4fa6 673d
000002b0: d69d 28bc ccc1 a4bd 4f94 a2bc 436d 19bc
000002c0: 72d9 f93b 7ac7 9fbd 5854 623d 7784 f1bc
000002d0: cfd4 95bd 39da 173d 8cca 51bb d266 f23b
000002e0: 8474 113d b7a1 f6bc 190d 8d3d d01f 83bd
000002f0: a8c3 19bc c268 123c 0073 5f3d 5890 6bbd
00000300: cb5a 74bc f598 8ebd ce13 dd3c b76b 093c
00000310: f314 f0bc d801 07bd 24a0 5d3d 8140 81bd
00000320: 961c 98bd 68a3 543c 24f0 313c 5b32 a6bd
00000330: 88f3 7dbd bfbb b93c 9a6e 193a 3ccd 48bd
00000340: 17d6 42bc f9b9 023d 1b6b 98bd 577b c4bc
00000350: 037d 983d a7ca 8d3c 7149 a8bd 6479 3fbc
00000360: 77ec 31bc 027d 713d 1007 503d b194 073d
00000370: 1dc8 e1bc 03dc 273b e2d8 033d 975d 3c3d
00000380: 1d63 c1bc 1634 04bd 132a 5abd 9ff1 483d
00000390: 8b15 143d b83f 7cbd 1cdc 143d 237d 8bbd
000003a0: 6913 8e3d 39fe 093d f5f5 893d 186c 963b
000003b0: e79a b0bc 0a28 c0bc 7f6c 25bd fbf7 85bd
000003c0: fdf3 403d 332c 0ebc 51bb 693d d1db b7bc
000003d0: 5c08 71bd 2be7 00bd 5dce 563d 4abf 9ebd
000003e0: 942f da3c a407 513b e04f 803d 25c1 5cbd
000003f0: 5012 1b3d 32f1 7ebd 9a06 7ebd 1b80 30bc

bias f4 [2]
-0.040368807 -0.05742349
00000000: c359 25bd e534 6bbd
