lab2/ERIKSSON-OSCAR-AHRENDT-PHILIP-Lab2/problem2/neural-network-2-actor.pth (torch, 339927 bytes, 6 tensors)

weight f4 [400, 8]
00000000: adb3 04bf e638 4cbd 3866 8abd cdf4 653f
00000010: 24f3 5bbf 5b36 e7be 73e4 a83e 1cc6 08bf
00000020: 983e 8d3d 2104 0a3d cded 1e3f 49fb 253f
00000030: 0f77 2a3f 0799 8f3f 8072 30bd 2bc6 303e
00000040: af2f 073f 2bc6 13bd 154f 1b3f 7bb7 6c3e
00000050: bf48 4bbe 2edd 68be bbed c53d 0721 6b3e
00000060: ee81 db3e 831b f0be 53d2 91bf f81a a93f
00000070: e443 283d 06b5 d43e 343c b9bd 90ed 363e
00000080: 55f5 13be 0b31 9b3d 271e 96bd f83e e3be
00000090: 6509 483f a601 173f c013 acbe b14f d33d
000000a0: cd4e 51be 5ad9 38bf b146 40bd 6a33 51bc
000000b0: 5b83 00bd 9279 96be b63c 2cbe e2ed 343e
000000c0: 6aa3 97be 4622 e6be ec01 bb3d 3a36 35be
000000d0: ae2f 04bf ee74 d43e 2023 00bf a9f6 c1bd
000000e0: 13f1 39bf 5fa6 1ebf c36b 8abe dcb2 2ebd
000000f0: 8d84 b03e 3eac e4be b0e7 fdbe 2a4c 613e
00000100: 6220 b63c 0fb4 3e3f eeb3 6239 8e63 713e
00000110: 3634 0e3f cde1 d83d fb6c 133e b433 4d3c
00000120: 7881 2dbf 19f6 253e 32a4 1e3e 5f9b 36be
00000130: ed7a d73d dcc1 f23e c682 2f3e 2f2e f3bd
00000140: 645c 8e3e 24ca dcbd 55c5 2f3a 01f8 9d3f
00000150: 8520 37be df70 79bf a8f1 20be 8734 6f3e
00000160: e8de 80bd e6f9 e4be 63e3 0f3f d94d 0f3f
00000170: 7a14 5ebe 632d 1fbf ab3f 533d 199f 1bbe
00000180: 7905 fe3d 40b9 083f c015 293f ba0f fa3e
00000190: a43e 25bf f2ad db3d c898 84be 7355 42bd
000001a0: 3610 e3be e7f8 2ebf c30f c73e 0463 253f
000001b0: 6b56 ab3e 1fee fa3d d769 d73e 7453 afbd
000001c0: 2642 863e b906 ecbe 9f6b 01bf 093e 6b3c
000001d0: 13dc 8bbe 684b 143f 98ef 8fbe 047c fabe
000001e0: b782 033d 899c 7f3d 0332 0f3f 8ca5 07bf
000001f0: 1d50 36bd 4290 26bf b88a 1f3f 3e6e 80be
00000200: 2e1a 803e 4fbc 1fbd 522c febe 7439 663f
00000210: 6211 313f 03e8 ce3e 5a4f 2cbe 87a7 9e3d
00000220: b30c b83d 49c6 a43e 2a38 00bf 46ba 98be
00000230: bf47 1e3f a265 593e 3418 ef3e 9fc8 e2bd
00000240: a7cc 96bd a2c7 723e 9a88 09bf 7412 9cbe
00000250: 2db5 9c3f 6555 81bd 9e2e 0cbf 6fb7 25be
00000260: c6cb 4fbe 63c7 533e 714a ee3e 2ffe 05be
00000270: 212a 093f 7107 493f 2516 bb3e 79b0 39bd
00000280: 3d53 0e3e f4c3 e8be 1d54 a7be e92e f53f
00000290: 5f36 823e d8ba 25be d096 373e e399 bcbe
000002a0: 616a 2ebf a95d 9b3e e344 1f3f a960 713f
000002b0: 8fb2 8f3e fcd9 263e 870b 7a3d da89 b83d
000002c0: 151f 1c3e 4225 c83e 1f5e 0a3f c91f 943f
000002d0: b096 793e 06c4 573e 9649 1abf 35a6 a1ba
000002e0: 21d0 ccbe fe7a 9bba 90aa 08bf 55bd 7b3e
000002f0: 1192 c93c dcce 26bf 7849 3c3e 8d0a 023e
00000300: c844 3a3e 8075 113d ece4 733f 7efb 583e
00000310: 20c6 83bf d2d9 ac3c 2ca2 8e3e 1686 493d
00000320: 7e4b f5be 8394 c4bc 82ed 593e a9e7 893e
00000330: ba4f 853e 4cf3 ffbd 1cb6 a13e 348b 1e3e
00000340: 57c5 b23d da50 d9bd 951b 4c3d dfaa ba3c
00000350: e037 113f c333 87bf f20d 85bc 24d6 8ebd
00000360: f4f9 cbbe d63a 0a3f c945 1bbf 1188 b63c
00000370: 4cc0 293e affa 4dbd 227e 993e f2e0 5bbe
00000380: c755 b8be 3f75 0bbf ec0c 283f 8f41 0a3c
00000390: 311c f1bd 759d 47bf 8864 96bd 09c4 e3bd
000003a0: 073c f9be 85f9 adbc b41b dc3f 1688 103f
000003b0: 761e 4c3d 2dc1 d13e 1161 3e3e 7b43 3dbe
000003c0: 755e 2ebd 5e8b 393e a158 a0bd 1590 4740
000003d0: 372a c2be 79a9 bbbe b7c4 3dbd 2ff0 b5be
000003e0: 531e a6be eeb5 843d 643b a7be 7f57 c53e
000003f0: 1b6a 04bf 97fb 55bf 31f4 7cbe 39ec d43d
-0.51836663 -0.04985895 -0.06757778 0.8982666 -0.8591788 -0.45158657 0.32986793 -0.5342729
0.068967044 0.033695344 0.62081605 0.64836556 0.6658792 1.1218575 -0.043077946 0.17263095
0.52807134 -0.03607766 0.60667545 0.23116867 -0.19851969 -0.22740623 0.09664484 0.22961818
0.42872566 -0.4689599 -1.1392311 1.3211355 0.04108037 0.4154436 -0.09044686 0.1786406
-0.14449055 0.075777136 -0.0732997 -0.4438398 0.78139335 0.5898689 -0.33608818 0.10317934
-0.20440216 -0.7220665 -0.046942417 -0.012768606 -0.03137527 -0.29389626 -0.16820034 0.1766887
-0.29616863 -0.44948024 0.09131226 -0.17696467 -0.51635253 0.4149546 -0.50053596 -0.09470875
-0.72633475 -0.6197261 -0.2703534 -0.042651042 0.34476128 -0.4466266 -0.49590826 0.2200171
0.022232238 0.744935 0.00021620069 0.23573133 0.5554842 0.10589943 0.14397041 0.012524534
-0.6777568 0.1620716 0.15492323 -0.17832707 0.10521493 0.47413528 0.1713973 -0.11874043
0.27804863 -0.10780743 0.0006705125 1.234131 -0.17883499 -0.9743785 -0.15717185 0.23359881
-0.06292516 -0.44721907 0.5620634 0.5597816 -0.21687499 -0.6217863 0.05157439 -0.1519741
0.124033876 0.5340767 0.6604881 0.48840123 -0.64548707 0.10726537 -0.25897813 -0.047444772
-0.44348305 -0.68348545 0.38879213 0.6460421 0.3346437 0.12252449 0.42072937 -0.08560839
0.26222342 -0.4609888 -0.5055484 0.014358052 -0.2731634 0.5792756 -0.28112483 -0.4892274
0.03210708 0.062405143 0.55935687 -0.5298698 -0.044509996 -0.6506387 0.62321043 -0.25084108
0.25019974 -0.038997944 -0.4964319 0.89931417 0.6916715 0.40411386 -0.16827145 0.07746797
0.08986797 0.3218253 -0.500857 -0.29829615 0.61828226 0.21230176 0.46698153 -0.11073422
-0.07363253 0.23708966 -0.5372406 -0.3048283 1.224279 -0.06315116 -0.5475863 -0.16183256
-0.20292577 0.20681529 0.4654117 -0.13085245 0.5357991 0.7852698 0.36540332 -0.045334313
0.1389894 -0.45462 -0.3268136 1.9154941 0.25432107 -0.16184556 0.17928624 -0.36836156
-0.6813107 0.30344895 0.6221449 0.94288117 0.28065917 0.16294092 0.06104615 0.09010668
0.15246232 0.39090925 0.5404987 1.15722 0.24373889 0.21070871 -0.60268533 -0.0012332859
-0.4000254 -0.0011862216 -0.5338526 0.24583943 0.024605783 -0.6515939 0.18387401 0.12699337
0.181903 0.035512447 0.9527118 0.21189687 -1.0294838 0.021099959 0.27858102 0.04920014
-0.47909158 -0.023996597 0.21282008 0.26934555 0.2603739 -0.12497577 0.3158425 0.1548279
0.08729046 -0.10611124 0.04983099 0.022786556 0.56725883 -1.0562671 -0.016242001 -0.06974438
-0.39839137 0.53996027 -0.6065336 0.022281678 0.16577262 -0.0502879 0.29979044 -0.21472529
-0.36002943 -0.5447578 0.6564472 0.008438482 -0.11772955 -0.77974635 -0.073433936 -0.11121375
-0.4867861 -0.021237144 1.7195954 0.5645765 0.049833737 0.40967694 0.18591715 -0.18482773
-0.04257055 0.1811957 -0.078294046 3.118169 -0.37922832 -0.36652735 -0.04633018 -0.35534808
-0.3244501 0.06480013 -0.326625 0.38543317 -0.51724404 -0.8358702 -0.24702527 0.103966184

bias f4 [400]
00000000: 32cb 073c 15b3 0fbe fd62 82be 2488 243d
00000010: 74fd d13d c4ef 1a3e 8bf3 53bb e7da 0b3e
00000020: fd82 94be 5a36 833a 386e 73be ba43 dd3d
00000030: 7925 3bbe 0be6 7ebe bd28 4d3e 7468 80be
00000040: 25f7 06be 4bd7 f6bd 4491 c93c 64d2 89be
00000050: fcc9 463d 0e89 bdbd c330 75be 9519 dcbd
00000060: 4e63 2bbe bebc 02bd 8992 e3bd f0ea 38bd
00000070: 8cfd 97bd c541 143d dee3 753d ad1d 38bd
00000080: 03e2 1d3e a37d dbbd 6f40 293e 8c88 783e
00000090: bbba d93d c9c1 78be d858 adbe e526 113e
000000a0: 46d4 d63d fe6e cabe df6f 97bc 151c b9bd
000000b0: 7d99 b5be 7173 b6bc 3058 a6be fef3 45bd
000000c0: c04c a2be 95f0 43be 65d9 153d f178 8fbe
000000d0: 544b 893e 100f 86be 531e 6e3e 949c 86be
000000e0: 4dc8 f3bc bace 04be 7916 43bd b4dd 2fbe
000000f0: 66f6 42be 9306 7abe 3308 5a3e 8b85 23bd
00000100: e699 6d3d 57f8 9dba bc34 f2bd 09c0 51be
00000110: 02c4 0dbd a60d 49be c5b0 aa3c 358c 7dbd
00000120: 93b3 06be df0e b33d 33a2 99be f7ed d63b
00000130: c09f bd3d 342c 6fbd 556c 653e b5c7 80be
00000140: c7c9 cdbd 3a29 06be a232 be3d 2d20 ffbe
00000150: 4eb0 b1be 9418 dfbe 6d8e 733d dc7a eebd
00000160: 82e9 9c3e 0b39 7e3e 8f5f c1bd 022f dfbd
00000170: fd30 36be 6265 0c3e 6799 2abe aefc e8bd
00000180: 2fd4 233e 0046 933e 468e d63d d76e 80be
00000190: b5b1 4a3d 552c 9dbe e697 ef3d 5581 0cbb
000001a0: ee98 2cbe e938 f1bd 5e6e 7cbd 5c1d 313e
000001b0: e092 16be 2ac7 9fbd af19 04be b697 bcbe
000001c0: 79b3 493c 2568 74be 4132 e2bd 71a2 79bd
000001d0: c165 0b3e b3ad 7dbe a5c2 e83d ac78 e23d
000001e0: cb1a 21be 6a24 6e3e d29b 853e 30c8 61be
000001f0: 90ae 8ebc 8b32 92bb 0b0a 753c d300 d03d
00000200: bb91 9fbd bf91 2cbe fd37 20be df57 08be
00000210: a3b7 f6be 3750 c93d b626 0cbe 4216 c53e
00000220: 5d67 3dbe 629e 753d 4b2a b3bd f18d f1b9
00000230: 04ab 2ebd 84c8 953e 6866 48be 8052 a8be
00000240: 1fbc adbd d08e 193e b53e c9be 3225 653d
00000250: eb03 7ebe 1ec8 123e 8188 6bbe e471 e6be
00000260: 48cd 18be 8bc9 a7be 6441 2fbe ba91 edbd
00000270: e1a6 6ebe e107 11be 49ff 92be 6b2e 7b3e
00000280: 2c8e 30be 8393 e4be 1938 f53d 12a2 893c
00000290: e0f5 5dbe 93f4 6cbd a3fb 5dbe 1f8b d83d
000002a0: 2c46 26bd e04a 2bbe c9ac 4fbe 5fd5 f33d
000002b0: 4218 8b3c c7f6 e43c 1916 a1bc 3b99 933d
000002c0: 0763 afbe 9409 e33c 86c1 71bd 6332 a7be
000002d0: 4143 76be ca50 e1be ce76 573c e7fe ac3d
000002e0: 9d41 c8bd cef7 5a3d 1b23 223e 6101 7dbc
000002f0: 3024 0bbe 66a5 15be 67d1 60bb fe01 7ebe
00000300: 989a 9a3d 5d79 68be 2420 1dbe 264b 0dbe
00000310: 5814 ea3d 114d 54bc 308b a3be e404 f1be
00000320: 63ed 193e 205e fabd bb37 00bf a564 53be
00000330: dc2b 0c3d d35b 1abd b164 a2bc be6d 32bd
00000340: 73bf fcbd 154b 3e3d 515c 10be 8de4 32be
00000350: 68af b9be a2a7 283d 914a 883d 35e6 ea3d
00000360: 7aa9 6ebe 183b 2fbe dc42 6c3e d31a 3fbe
00000370: 5e3d 9ebe a30c 2ebe 6db1 643e 5909 883b
00000380: 913f da3c 1558 2fbe d82e 90bd 0480 92bd
00000390: a57c 90bc ac43 42bd c39b 81bd 39e5 823c
000003a0: 701b c2be 217b 90be 3284 2cbe 21ca ca3d
000003b0: f311 f23d cfb5 953e 0d99 80be a942 61be
000003c0: d6d8 5ebd eb11 73be e691 dabe 3ecf 793d
000003d0: 451c d5be 4ea0 e8be 52e1 b8bd caf2 203e
000003e0: befd f63d b925 b4bd b897 0b3e 6868 ab3d
000003f0: d358 d23d 2f71 7c3e a10a c63d 08b1 3dbe
0.008288192 -0.14033158 -0.25466147 0.040168896 0.102534205 0.15130526 -0.0032341208 0.13657723
-0.29006186 0.0010010705 -0.23772514 0.108039334 -0.18276013 -0.24892442 0.20035072 -0.2507969
-0.13180216 -0.120527826 0.0246054 -0.26918328 0.04853247 -0.09254657 -0.23944382 -0.10747067
-0.167371 -0.03191828 -0.11111934 -0.04514593 -0.07421407 0.036195535 0.060031764 -0.044950176
0.15418248 -0.10717323 0.16528486 0.24270838 0.10631319 -0.24292673 -0.33856845 0.14174993
0.10489707 -0.39537805 -0.018485961 -0.09038559 -0.35468665 -0.022271844 -0.32489157 -0.048328392
-0.3169918 -0.19134744 0.036584277 -0.28021958 0.26815283 -0.26183367 0.23253755 -0.26291335
-0.029758597 -0.12969485 -0.047628853 -0.17174417 -0.19039306 -0.2441657 0.2129219 -0.03992228
0.058008097 -0.001205216 -0.118264645 -0.20483412 -0.034610756 -0.19634113 0.020836243 -0.06190129
-0.1315444 0.08743071 -0.3000656 0.0065591293 0.092589855 -0.058391765 0.22404607 -0.25152364
-0.100482516 -0.13101664 0.09287001 -0.49829236 -0.34704822 -0.4357344 0.059462 -0.11644527
0.30646902 0.24826448 -0.094420545 -0.10897638 -0.17792125 0.1371055 -0.16660081 -0.1137632
0.1599891 0.28764343 0.10476355 -0.25084564 0.04948588 -0.30697885 0.11698894 -0.0021439393
-0.16855213 -0.11778433 -0.06162869 0.17296356 -0.14704466 -0.078016594 -0.12900423 -0.36834496
0.012310856 -0.23867853 -0.110447414 -0.06094593 0.13613035 -0.24773292 0.113652505 0.110581726
-0.15732877 0.23256078 0.26095444 -0.22049022 -0.017417222 -0.0044615916 0.014956008 0.10156407
-0.07791468 -0.16852473 -0.15646358 -0.1331477 -0.4818698 0.09829753 -0.13686642 0.38493544
-0.18496461 0.0599655 -0.08748301 -0.00046072857 -0.042643562 0.29254544 -0.19570315 -0.32875443
-0.08483147 0.14995885 -0.39305654 0.055943675 -0.24806182 0.14334151 -0.23001291 -0.45008767
-0.14922059 -0.32770953 -0.17114788 -0.11600061 -0.23305847 -0.14163162 -0.28710392 0.24529426
-0.17241734 -0.44643793 0.119735904 0.016800914 -0.21675825 -0.05785043 -0.21678023 0.1057341
-0.040594265 -0.16727781 -0.20280756 0.11905932 0.01697934 0.027949704 -0.019663857 0.07206961
-0.3425524 0.027714528 -0.05902245 -0.3265563 -0.24049093 -0.4400695 0.013150884 0.08447056
-0.0977814 0.05345898 0.15833704 -0.015442223 -0.13588023 -0.14613876 -0.00343045 -0.24805447
0.07549018 -0.22702546 -0.15344292 -0.13798198 0.114296615 -0.012957827 -0.3194213 -0.47074044
0.15031962 -0.12224984 -0.5008504 -0.20643862 0.034221515 -0.037685227 -0.019823404 -0.04356169
-0.123412035 0.046458323 -0.14097716 -0.17469998 -0.36266637 0.041175492 0.066548474 0.1146969
-0.23306838 -0.17112386 0.2307238 -0.18662576 -0.30906194 -0.16997008 0.22333308 0.004151505
0.026641639 -0.17123444 -0.07040185 -0.07153323 -0.01763756 -0.04742782 -0.06328537 0.015978443
-0.37911558 -0.2821894 -0.16847304 0.09901834 0.1181983 0.2924027 -0.25116768 -0.21998085
-0.05440601 -0.23737304 -0.42689437 0.060988657 -0.4162313 -0.45434803 -0.090273514 0.15717617
0.12060116 -0.087962575 0.13632095 0.08369523 0.10270848 0.24652551 0.09669996 -0.18524563

weight f4 [200, 400]
00000000: c47c f0bc 458f 20bb 741b c03c ad1c 46bd
00000010: d89e a8bc b2e4 673c b2de 853c 5bff d83c
00000020: 5d8e ae3c 38bf a73b 58a9 57bd abcc ccbc
00000030: ce6b 183c a1e6 21bd 3f88 0abd 9cb6 2d3d
00000040: 7db2 a7bc f292 1fbb 4fdb 91bc 82de c9bc
00000050: 4319 c63c 2cb6 753b 8fa2 d63b 73d1 e6bc
00000060: 32e0 b4bb a029 5abd 3840 72bd a25b 523c
00000070: e330 093d 810c 23bd e360 bb3b 4006 e4bc
00000080: 97f6 a7bc b9f9 2d3d fe11 6dbc 425b ab3c
00000090: 4606 bf3c a36b 253c 34ae 0fbd be15 28bc
000000a0: 76dc 913b c88d 283d 0ace 6b3c 0d56 dfbc
000000b0: 5852 79bc c517 9f3b efdf b2bc b02e 48bd
000000c0: 4a1e e5bc 5d2e 50bc bf2b 48bb 8bb5 7837
000000d0: 5a6e d1bc 57ac 24bd e61b 23bc 2fb0 e03c
000000e0: e91d 8abd 2183 7ebc 580a c4bc d8ac 64bd
000000f0: 49df 8cbb 4cd2 f53b 01f6 32bc e426 22bd
00000100: 3b57 85bd 31ed 3bbc b868 95bc 47ff 0e3c
00000110: dc30 babb 982e 3cbd bd01 61bd e717 d13b
00000120: 134e 933b 86bc 37bd 1eab 02bc 5333 0ebd
00000130: 9c81 a33c bcd1 183d b614 72bb 4a34 003d
00000140: 4979 cf3c 0db3 6b3d 570c d2bc 6a02 f53c
00000150: d644 81bc c7ec d0bb a19a 77bd 473e c4bb
00000160: 5bbb 88bc bb06 cc3c 23f9 143c 98d6 1a3d
00000170: 78ec e13b b107 febc 8f96 9fbb d595 0abc
00000180: 8c9d e7bc 5005 b3bc 3ba6 1fbd 0d56 2b3d
00000190: fed1 893c 7ff5 bebc 6876 0dbd a4cb 06bd
000001a0: 8e5b b3bc 0de9 67bd 0305 6c3c 055c 473c
000001b0: 95f8 44bd d163 b73c 0d43 d6bc 5d31 bc3c
000001c0: a381 90bc 1b0e bdbc bcf6 493d 58ac 783c
000001d0: e924 bf3c b06e 3dbd 12db 5f3c 8d52 183d
000001e0: 2d91 f5bc 2d13 38bd e21e ed3c 872c edbc
000001f0: 0f08 0bbd 833d 8fbd d83d c13c e5b7 81bd
00000200: 74d6 16bd ab8a 8ebc 64cb b83c 09ce 873b
00000210: b31c 13bd a1ab 9abc 15d2 e33c b55b ad3c
00000220: 1a7e 033c a87f 67bd 8d87 34bd 564d de3c
00000230: cb2e 79ba 5893 1dbd ce2c 683c 1878 58bd
00000240: a743 5abd 52a7 ddbc f1a4 8cbc e56a a33c
00000250: 5765 c13c 4827 68bd 1110 43bd 4b06 77bc
00000260: a031 05bd edf2 fa3c 88ea 80bd e0d8 01bd
00000270: 063e e8bb 8e95 44bd 5ae3 3cbd 0ec0 5d3c
00000280: 9299 08bd a48e b03c 8adc 9fbc d944 06bc
00000290: e764 033d 3475 09bd 63ee 9abc 18be de3c
000002a0: 0371 df3c 508e 0dbd 7d1d cfbc b1e4 9cbc
000002b0: d63d c7bc 7429 85bb eab2 5cbd 1186 d0bb
000002c0: 10bf b8bb bbd7 60bc 8d4c bf3c b4f4 983c
000002d0: 5eff 57bc a159 ea3c e5ca 5dbd 8a10 c43c
000002e0: 65b3 12bd af13 ac3b 312e 46bd 9ef7 7dbb
000002f0: 6f3f a83c dec7 073d 43e0 f8bc d015 9a3c
00000300: b541 f6bc 54fa 58bd 170b f63c f38e 313d
00000310: de42 e93a fe44 05bd bef9 72bb 5d80 cf3c
00000320: 5986 9c3b 43d4 ec3c 837d 9c3c 5258 cfbc
00000330: 706b 58bd a9b4 bebb 9797 753c 6ab1 77bd
00000340: 12c1 74bd cabe 23bd d9b5 40bd 9f87 ddbc
00000350: 5a2e 0abd 75b9 e1bc e8ac 0b3d 32cd 3f3b
00000360: da73 0d3d 22a2 833c 5d02 90bc ed3d 063d
00000370: f3c5 f3bc 3267 b23c 1465 babc 30f5 afbc
00000380: 6a16 d7bb 805b 413d 0292 39bc 703d 223d
00000390: 5d9b a73c 8aef 1e3c 38db b6ba ccbb e2bc
000003a0: 1aac 2bbd 9d0d 053d e8a8 bf3c 12ef 11bd
000003b0: 695e 523c 63ea 32bd 6dbc f53c ea8e fe38
000003c0: 2af7 8ebd edc3 c5bc 6320 47bd 15c5 44bd
000003d0: 9b62 64bd 169d d5bc d97a 363d dea0 f1bc
000003e0: f9d7 3ebd 2f12 2dbd 2043 61bc a6a2 8a3b
000003f0: 841c 8d3c 9a1d 323c 87d9 3abd 3d2c 47bd
-0.029356368 -0.0024499458 0.02345059 -0.04836719 -0.020583555 0.014153646 0.016341541 0.02648895
0.021308118 0.0051192306 -0.052651733 -0.024999937 0.009303046 -0.039526585 -0.03382134 0.042410478
-0.020470852 -0.002434906 -0.01780477 -0.024642233 0.024181968 0.0037492616 0.00655014 -0.028176045
-0.00551989 -0.053262353 -0.059143275 0.01283923 0.033493888 -0.039806847 0.005718337 -0.027835011
-0.020503325 0.042474482 -0.014469622 0.020917539 0.023318421 0.010096463 -0.035078242 -0.01025909
0.00445133 0.041150838 0.014392385 -0.027262712 -0.015217386 0.0048551285 -0.021835295 -0.04887265
-0.027968545 -0.012706366 -0.0030543653 1.4824221e-05 -0.025565315 -0.04020342 -0.009955382 0.02742776
-0.06743986 -0.015534193 -0.023930714 -0.0558289 -0.0042990786 0.007501876 -0.01092291 -0.03958787
-0.065107785 -0.011470125 -0.01823841 0.008727855 -0.005682094 -0.045942873 -0.0549333 0.006381023
0.004495391 -0.044857524 -0.007975368 -0.034716915 0.019959264 0.037309393 -0.0036938614 0.031299867
0.025326388 0.057543803 -0.02564065 0.029908378 -0.015779894 -0.0063758823 -0.0604502 -0.0059888694
-0.0166909 0.024905553 0.009092602 0.03780231 0.0068946443 -0.031009527 -0.004870243 -0.008458574
-0.028273366 -0.02185312 -0.03897689 0.04183011 0.016823765 -0.023310421 -0.03453675 -0.03290905
-0.021894243 -0.05661874 0.014405492 0.012167935 -0.04808863 0.022386463 -0.02615502 0.022972757
-0.01763994 -0.023078015 0.04930757 0.015177809 0.02333303 -0.046248138 0.01366307 0.0371881
-0.029976452 -0.044940162 0.02894539 -0.028951896 -0.033943232 -0.06994154 0.02358906 -0.06333903
-0.036825612 -0.017400106 0.022557922 0.0041444344 -0.03591604 -0.018880667 0.027810136 0.021161893
0.00802567 -0.056518227 -0.044074584 0.027136486 -0.0009505569 -0.038470596 0.0141708385 -0.052848905
-0.053287175 -0.027057324 -0.017168494 0.019948432 0.023607893 -0.056678087 -0.047622744 -0.015077184
-0.03251803 0.030633414 -0.06294733 -0.03170097 -0.007087472 -0.04799419 -0.046115257 0.013534559
-0.03334958 0.021552391 -0.01951434 -0.0081951255 0.03207865 -0.03355904 -0.0189125 0.027190253
0.027275568 -0.034559548 -0.025282616 -0.019152017 -0.024321478 -0.0040637795 -0.053881563 -0.006363638
-0.005638011 -0.013723309 0.023351932 0.018671371 -0.013183443 0.028607192 -0.054148573 0.023933668
-0.035815615 0.00525137 -0.048383895 -0.0038752328 0.02053806 0.033149593 -0.030380374 0.01880923
-0.030060628 -0.052973107 0.030034585 0.043349218 0.0017796417 -0.0325365 -0.0037075127 0.025329763
0.0047767577 0.028909808 0.019102817 -0.02531067 -0.052836835 -0.005819876 0.014989755 -0.06047193
-0.05975444 -0.039976873 -0.047048423 -0.027042208 -0.03373561 -0.027554253 0.034100443 0.0029266593
0.034534313 0.016068522 -0.017579252 0.0327739 -0.029757475 0.021777723 -0.022753276 -0.02147922
-0.0065639513 0.0472064 -0.011326315 0.039609373 0.020459825 0.009700665 -0.001395083 -0.02767744
-0.041912176 0.032483686 0.02339597 -0.035628386 0.012839892 -0.04368056 0.029997075 0.00012138284
-0.069807366 -0.024141276 -0.04861487 -0.048039515 -0.0557581 -0.026075881 0.04455075 -0.029495653
-0.046592686 -0.04225367 -0.013748914 0.004230815 0.017225511 0.010871315 -0.045617606 -0.048626173

bias f4 [200]
00000000: 99e7 6dbd b574 7abd c68e 25bd c921 57bc
00000010: c5e9 7d3d 25b5 343d 235e 963d fa40 993d
00000020: ec06 37bc 60a2 14be 37cc 263d 2344 513c
00000030: 7d6d fc3b ffd5 04be 4c36 db3d c924 47be
00000040: ae32 2cbe e8c1 e9bd e4a7 283d b8e4 e73b
00000050: ce6f c7bc 1d46 2ebd 4ebf b4bd 7573 bdbe
00000060: ea39 24bc 35c1 73bd 9f16 08be 565c 68bd
00000070: 9c53 a73e c77e 113e 38ba 09be e346 c83c
00000080: bded 0ebd b735 68be 043f d33c ddaa 74be
00000090: 3b3d 253c c109 f33c c4e2 89be 7464 6abe
000000a0: 1ac1 1cbd ae0c 403c 869d 9b3c 1664 e2bc
000000b0: f791 533d 4619 d4bb 2aeb 2dbd 6812 ab3d
000000c0: bd8e d3bc 7934 7abe d10e bb3c 580c 9cbc
000000d0: c954 ffbc 6d16 59be 46e7 24bd 3268 f1bc
000000e0: 5013 efbc bb59 ab3e 01bd 7ebd 572b 523b
000000f0: c4a7 40be 87ed debd 6c6f f6bc 12c8 1cbd
00000100: ce9d 90bb 93bf d63c d296 38be d3ca 7ebd
00000110: 70d4 8f3c eb03 78bd 5c4c a1be c67c 0bbe
00000120: f6df 2fbd 0744 fdbd b5e0 8d3b c2b4 d6bc
00000130: a9f7 99be ad24 07be f796 4abc fc54 0abd
00000140: 8def 3abe 7b7d 57bd 074a 41bc afbd dd3d
00000150: e068 46be 1804 8fbe 34e2 b5bd a54c 9a3d
00000160: de76 6dbd b86e 56bd 4ce4 21be 3b21 afbd
00000170: 3555 6d3e 4580 1abd ffef 2bbd 0177 68be
00000180: 6d4b 8f3e 8ea6 12be 3a5b 473e 0003 c63d
00000190: 33e0 65bd df10 b73d 4f01 543d fc37 a7bd
000001a0: 9792 21bd bb56 3d3e a031 453d 058a 6dbd
000001b0: d41f 0cbe 21a4 99ba f15b e83c 894f c6bc
000001c0: 9468 813e ab17 543c 2210 ba3c aa8d ae3c
000001d0: 512e 2fbd 4394 54be b03e 4b3c 48a9 06be
000001e0: f4e9 86bc fa77 6cbe ba45 69bd 02e0 23be
000001f0: 4391 96bd 5229 79bd 67d0 bb3d 7a39 223e
00000200: f09b d4bc 7db9 7abd 6d90 40be 02e0 3dbd
00000210: a613 18be 8c74 c8bc d7ff 3abe adaa e33c
00000220: 5bb7 9abd 81a3 bbbd bce4 88be 4d2b 8b38
00000230: 5434 b9ba 5c23 d7bd d5f3 aabe 86d4 77be
00000240: 4c17 b03c c908 a13b 1579 10be 2f1c fbbd
00000250: d3ac 8cbc 9397 303d fa6f 053e ad94 cbbd
00000260: 077e 39be 3390 2cba a2d9 8d3c a579 91be
00000270: 5468 23bd 0900 863b 6f07 45bd a772 c9bc
00000280: 9741 08bc dd5c 9d3c 294f 38be 0421 28be
00000290: 589f 63bd 6e82 39bd 8ee7 31bc 27eb fbba
000002a0: fe7a 69bd 833c 3dbd 9d92 cdbd 3637 55bd
000002b0: ac34 ddbc 8fe6 9b3c 5cc1 14be eb98 d9bc
000002c0: d23f 233c a734 83be a0ac 69bc 3fde 23bd
000002d0: a44f 55bd 8c05 143e 9eb7 86be ab6e 18be
000002e0: d35d 92bc dbcd 993d e02a 713e 7239 1abe
000002f0: f7c7 cdbc 3e75 393e 554a 3fbb 388c 99bd
00000300: a3a2 0abd 20fc f7bc 0d98 86bd 29dd b23a
00000310: 908a dabd d1c7 fabd b738 87bd 84e5 7c3e
-0.058082197 -0.061146457 -0.040419362 -0.013130614 0.061990518 0.044118065 0.07342174 0.074830964
-0.011171084 -0.14515066 0.0407221 0.012772593 0.0077034817 -0.12972258 0.10703716 -0.19447626
-0.16816208 -0.11413938 0.041175738 0.007076826 -0.024345305 -0.042547334 -0.08825551 -0.3700215
-0.010023573 -0.05951043 -0.1328988 -0.056728683 0.32680976 0.14208518 -0.13449943 0.024447864
-0.034894694 -0.2267674 0.025786884 -0.23893304 0.010085399 0.029667737 -0.2693082 -0.22889882
-0.038270094 0.011721773 0.018996011 -0.027635615 0.051652875 -0.0064727394 -0.042460598 0.0835312
-0.025824899 -0.24434079 0.022834213 -0.019048855 -0.031168358 -0.21199961 -0.040259622 -0.02946863
-0.029184014 0.33466896 -0.062191967 0.003206929 -0.18813998 -0.108851485 -0.030082427 -0.03827674
-0.004413343 0.026214397 -0.18026283 -0.062205147 0.017557353 -0.06055061 -0.3150357 -0.13621816
-0.042938195 -0.12366491 0.0043297657 -0.026209239 -0.30071762 -0.13197584 -0.012365094 -0.033772454
-0.18255444 -0.052609902 -0.011797435 0.10827195 -0.19375944 -0.2793281 -0.088810354 0.0753415
-0.05797469 -0.052351683 -0.15809745 -0.0855126 0.23177035 -0.037719984 -0.041976925 -0.22701646
0.27987233 -0.14321348 0.19468394 0.09668541 -0.056122016 0.08938765 0.05175906 -0.08164975
-0.03944644 0.18490116 0.04814303 -0.057992954 -0.13684016 -0.0011721888 0.028364154 -0.024207847
0.252751 0.012945096 0.02271277 0.021307785 -0.04276878 -0.20759682 0.012405083 -0.13150513
-0.01646898 -0.23092642 -0.056951262 -0.16003421 -0.07351925 -0.06083042 0.09170609 0.15842238
-0.025953263 -0.06121205 -0.18805094 -0.04635621 -0.14851245 -0.024469636 -0.18261658 0.027791345
-0.075545035 -0.09162045 -0.2673701 6.636102e-05 -0.0014129975 -0.10504791 -0.33389154 -0.24202165
0.021495484 0.0049143774 -0.14108689 -0.12261235 -0.017172253 0.043113302 0.13030997 -0.09940467
-0.18114482 -0.00065827667 0.01731569 -0.2841312 -0.039894417 0.0040893597 -0.048102792 -0.024590803
-0.008316419 0.01920932 -0.17998947 -0.16418844 -0.055571884 -0.045290403 -0.01085843 -0.0019219861
-0.05700206 -0.046200287 -0.1003773 -0.052054606 -0.027002655 0.019030837 -0.14526886 -0.026562175
0.009963946 -0.25626108 -0.014262348 -0.040006872 -0.052077904 0.14455241 -0.26311964 -0.14885966
-0.017867004 0.07509967 0.23551512 -0.15060976 -0.025119765 0.1811113 -0.0029188592 -0.07497448
-0.03384651 -0.03027159 -0.0657197 0.0013646233 -0.1067096 -0.12245143 -0.066026144 0.24696928

weight f4 [2, 200]
00000000: 2ef6 aabc bac7 7dbc 80c5 6bc0 a625 fb3f
00000010: 7084 89be a3f8 f23a c383 99c0 f39c d93d
00000020: 1c24 56bf a484 3c3f 96ef 2e3f 22bc 82bc
00000030: b4fa 5b3f 6f9b ebbd 2e29 083f 8058 8c3e
00000040: 1b0c 0b3f 53e6 883e 33e9 c93e c31d a6bc
00000050: 3c91 14be 3df2 ddbc 2382 8c3b 9d28 acbd
00000060: 59b7 03be 3599 0940 57db 14bf 32fb 7c3f
00000070: 56c9 d9bf 3410 cabd d364 923e 0171 afbe
00000080: 971a 4dbd 183e 6ec0 8210 98bc 3b5b 153f
00000090: d481 f13f 9e06 bd3f 041b 22bf 230e 013f
000000a0: 5a6b dfbc a375 d2bc 1645 ae3f 4c46 473c
000000b0: 30fe 053f aefe 08bc 9677 173d 461e a43d
000000c0: e896 473e e8dc c13e 1eb7 573c 3a31 72be
000000d0: 779d 6839 4438 ee3e 916a 7abd 1fda 1bbd
000000e0: 853b 3dbd be1a cfbf c7a4 02bd 00d0 e5bc
000000f0: d9ae 3f3f 79b7 f73e 8994 b8bd 98bf eebc
00000100: 758a 5cbc 7384 80bd b7e4 8e3f 85bd 8abb
00000110: d4d2 1cbd 8e23 32bd 75d3 7f3f 799b 183f
00000120: 5fbd ac3c 8959 20be cbf5 3b3d 9aec 1b40
00000130: 1035 5dbf 24c8 193d 5e4a 37bd b74b b93c
00000140: 6233 c6be 3949 87ba 3a61 a6bb e4c9 963f
00000150: 7ab7 09bf 1b6c bebf cb4b 4fbe 6b48 98be
00000160: 0daf 843c 5563 5fbc 4cfc 943f 96fb 3cbe
00000170: 8f97 dcbe a803 ce3f be2d c8be 7c7b ff3e
00000180: a950 d73e 521c d1be 94e6 a4bf ebf7 58bf
00000190: 50c1 bdbc b5ca a2be 79f9 7e3f 3938 99be
000001a0: e0e4 df3d 5670 a8bf bca4 3bbe 572d 6ebc
000001b0: 3980 c6be d362 c33c 4e3f b6bc 8631 c8bb
000001c0: dca7 87bf b491 ed3c 64c4 49bd 1b03 b0bc
000001d0: 911a 773d e5d4 0e3f 52af ad3c 7acc 9e3c
000001e0: afd0 873c 3a81 193f cb86 253d 3cd4 cc3d
000001f0: e803 95be 2db2 31bd 8710 a4be e5cd 453f
00000200: d825 0240 affe 18bc 491f 533f ed3c 8d3c
00000210: ae0c 243e aa07 883f 97fb ec3e 7648 35ba
00000220: 4520 35c0 73d2 06bf 69d2 8b3f 9569 ce3e
00000230: 282a 43bd 039f b23f 5f0f 16be 2379 20c0
00000240: 9525 06bd fd84 50bc 42a1 d43d cd2c 093d
00000250: 22b5 3abe 78f7 85bd d134 e73d bfc4 afbd
00000260: 0f3e a03e 0208 35bd 80ae 173e e26b 9f3b
00000270: 9d69 133c 76bd ecbc 2ef9 cfbd 7dcd af3c
00000280: 7f1b c63c b9e0 26b9 a82d 613f cdd7 ef3e
00000290: 3828 2bbd 6fbe c3bc 5b79 e73f 709d 8fbe
000002a0: 7213 5dbd 4eb6 48bd 5d58 9d3e e842 a1ba
000002b0: 4f70 8b3c 0052 ffbb dea2 da3e da3f c13e
000002c0: 3203 bdbc ccb1 b23e 1861 e7bb 1877 32bd
000002d0: 2ff2 a53b 89af 6d3e ce80 1a3f a421 2fbe
000002e0: e8a8 a5bd 5961 6b3e 0b5b e3bd fd6a 92be
000002f0: a3c2 2bbf 67bd a4bf d237 033d 87ff c8be
00000300: ccf7 e8bc d6de 8e3d 703f 5ab8 5cc9 85bc
00000310: fd76 7cc0 beaf 9ebe 8953 8f3f fb12 f0bd
00000320: 8652 a93c 3a55 0bbc e297 0c3e a10f d0bf
00000330: a163 febf 0c7c 0fbf d035 5bbf a564 5dbf
00000340: 78d0 c23e ea26 46bf 5a4b acbe 8f97 2fbb
00000350: 9913 023f 8373 f4bc 1cba e23e 616e 53bf
00000360: 71b8 39bd ccea 3a3e c9c2 b4bf 4377 7c3c
00000370: 6847 a3bf b090 223c 9052 ca3f 6b60 0fbf
00000380: d845 f7bf 0190 a73e a857 98bf 7590 61bf
00000390: a814 78be 5c66 7b3f b6e2 443e c61d 58bf
000003a0: 3e24 883d 440d d13d 13dc 00bd 5a80 443e
000003b0: 4d6d 92bd ecf3 f43c df60 b43d c36f af3e
000003c0: 8056 1b3d f294 163d f0e7 08be 241e a1bc
000003d0: 15e0 b23f 1dc1 553d 91dd d7bc 8373 7b3f
000003e0: b14c 1ebe 7519 10bf 2016 9ebd e2e3 673c
000003f0: cb11 0fbd 78db a53f 35dc 8abc a873 4cbd
-0.02086934 -0.015489513 -3.6839294 1.9620864 -0.26858854 0.0018537234 -4.797334 0.10625639
-0.8364885 0.73639894 0.6833433 -0.01595885 0.8592942 -0.11504256 0.53187835 0.2741127
0.54315346 0.26738223 0.3943573 -0.020277863 -0.14508528 -0.027093047 0.0042879744 -0.08406184
-0.1286291 2.149976 -0.58147186 0.98820794 -1.7014568 -0.09866372 0.28592548 -0.34265903
-0.050074186 -3.72254 -0.018562559 0.5834233 1.8867745 1.4767644 -0.6332247 0.50412196
-0.027272869 -0.02569086 1.3614833 0.012162756 0.52340984 -0.008361502 0.03697928 0.08013587
0.1949116 0.3786385 0.013166217 -0.23651591 0.00022183904 0.46527302 -0.061136786 -0.038049813
-0.04619934 -1.6180036 -0.031895425 -0.028053284 0.7487617 0.48382166 -0.09012706 -0.029144093
-0.013460745 -0.06275263 1.1163548 -0.0042340183 -0.038287 -0.04349094 0.9993203 0.5961223
0.021086393 -0.15659155 0.045888703 2.436316 -0.8640909 0.037544385 -0.044748656 0.022619111
-0.38711077 -0.0010321505 -0.0050775083 1.1780362 -0.5379559 -1.4876741 -0.20243756 -0.2974275
0.016196752 -0.013634522 1.1639495 -0.18455347 -0.4308438 1.6094866 -0.390974 0.498989
0.42053726 -0.4084192 -1.2882867 -0.8475329 -0.023163468 -0.31795278 0.99599415 -0.29925707
0.10932326 -1.3159282 -0.1832456 -0.014537177 -0.387697 0.023850834 -0.022246983 -0.0061094193
-1.0598102 0.02900014 -0.04925956 -0.021485856 0.06032807 0.557936 0.021201763 0.019384611
0.016579 0.5996281 0.04041175 0.10001418 -0.29104543 -0.043382812 -0.3204386 0.77267295
2.0335598 -0.009338065 0.8246961 0.017240966 0.16020462 1.0627339 0.46285698 -0.00069153996
-2.8300946 -0.5266487 1.0923587 0.40314928 -0.047647625 1.3954777 -0.14654301 -2.5073936
-0.032750685 -0.012727019 0.1038232 0.03348999 -0.18233159 -0.065413415 0.11289371 -0.08582448
0.31297347 -0.04419709 0.1481266 0.0048651556 0.008997348 -0.028898936 -0.10154949 0.02146029
0.024183033 -0.0001591471 0.8796029 0.4684433 -0.041786402 -0.023894517 1.808391 -0.28049803
-0.053973623 -0.049001984 0.30731478 -0.0012303265 0.017021326 -0.0077917576 0.42702383 0.37744027
-0.023072813 0.34901273 -0.007061135 -0.043570608 0.005064271 0.23211493 0.6035279 -0.17102677
-0.08088857 0.22986354 -0.111013494 -0.2859725 -0.6709387 -1.2870301 0.032035656 -0.39257452
-0.028438471 0.06976096 -5.203433e-05 -0.016331367 -3.9447625 -0.30993456 1.1197368 -0.1172237
0.020669233 -0.008504206 0.13729814 -1.625477 -1.9874154 -0.56048656 -0.85628986 -0.86481696
0.38049674 -0.7740313 -0.3365124 -0.0026793217 0.50811154 -0.029840237 0.44282615 -0.825903
-0.045341913 0.1825363 -1.4121944 0.015409294 -1.2756166 0.0099221915 1.5806446 -0.560065
-1.931819 0.32727054 -1.190175 -0.8811105 -0.2422663 0.98203063 0.19227108 -0.8442043
0.06647538 0.10207608 -0.03145988 0.19189587 -0.07149754 0.029901467 0.08807539 0.34264955
0.03792429 0.03676314 -0.13369727 -0.019667692 1.3974634 0.05218612 -0.026350768 0.9822313
-0.15458943 -0.56288844 -0.07719064 0.014153453 -0.034929078 1.2957602 -0.016950706 -0.049914986

bias f4 [2]
00000000: bfe1 0a3b 7113 0a3e
0.0021191684 0.13483979
