lab2/ERIKSSON-OSCAR-AHRENDT-PHILIP-Lab2/problem1/neural-network-1.pth (torch, 22871 bytes, 6 tensors)

weight f4 [64, 8]
-0.7640632 0.40177727 -0.17234622 0.683705 -0.34644276 0.8442251 -0.061671123 0.08114281
0.16015172 0.09031094 0.057488974 0.6409768 -1.9950523 1.1767806 -0.20367017 0.15847021
1.3118069 0.37810534 -0.955526 0.373919 1.1125901 0.43724564 0.27009496 -2.023223
0.58035934 0.2978208 0.7517075 -0.5503301 -0.6719946 -0.046986386 0.08451709 -0.24390252
0.7301878 0.005491552 0.52962005 -0.7351823 -0.8899422 -0.30725685 -0.86307734 0.32083645
-1.0224332 0.31442446 -0.32853732 -0.9579199 -0.9625249 -0.010418204 0.6104988 -0.5500907
-0.11872907 0.34371603 0.033175632 -0.44912514 0.3752404 -1.0066308 -0.5705245 -0.22198637
0.07996407 0.23364058 0.38683575 -1.3640345 -0.10609175 0.33369416 0.19298589 -1.1025462
0.33014655 -0.8422115 -0.16713297 -0.31686813 1.3204446 0.41453502 -0.13538067 0.11050331
0.61862504 0.44055253 -0.26851255 0.73659414 0.003820769 0.60893583 -1.6972228 -0.42497754
-0.20789857 0.053124987 -0.36876047 -0.0872716 -1.2975328 -1.2818772 0.14318758 -0.66372573
-0.34156197 -0.8638437 -0.012350293 -0.00498151 -0.14648359 -1.0351524 0.059557986 0.6380994
0.8124689 0.03180632 0.46268967 -0.6894078 -1.1276226 -0.760395 -0.106860586 -0.05249306
0.11164707 -0.5880976 -0.44378346 -0.58497286 0.7369927 0.5881267 0.53560007 0.5358821
0.327432 1.5249239 0.44529742 -1.3422916 -0.017773118 0.40961218 0.18494014 0.06081947
0.08227404 -0.47273988 -0.15800297 -1.0282738 0.7730302 0.3160875 0.36987934 -0.103255175
-0.25533164 0.26030102 -0.13560742 -0.52797 -1.5472587 1.127404 -0.23515472 0.22815756
-0.57962155 -0.34846777 0.5485526 -1.2426103 -1.1092933 0.44255862 0.41657045 0.65846765
0.043222833 0.3491483 -0.30169052 0.4043649 0.16946071 1.1565393 0.09053977 -0.29977164
1.1946876 -0.5846051 -0.002267051 0.31201962 -0.8027406 -0.84831995 -0.0019824372 -1.0693139
0.33859536 -0.25361538 0.1881733 -0.039806705 0.6718675 0.25005144 0.040342666 0.9315587
0.7459072 -2.949933 0.87448823 -1.4473166 -1.0710962 -0.12454665 -0.28058034 0.21675743
-0.20291516 0.47433025 -0.2014375 -0.9809193 0.36717045 0.062463403 -0.23089366 0.36123157
-0.7772046 0.032512747 -0.2643861 -1.0315661 0.26866657 0.53275716 -0.82107353 0.062009238
-0.3330761 0.15905824 0.61521906 -1.156629 1.3162467 -0.17126082 -0.0027437203 0.55391777
0.48315495 0.31695986 0.6315861 -1.3337159 3.1761484 0.45212883 0.03533836 -0.45137104
-0.3715714 0.5108034 -0.123196185 -0.9292082 -0.546473 -0.31002542 -0.05796475 0.25561094
1.5762266 0.14947352 0.42347655 0.21241763 -0.29559076 -0.45743397 -0.31433296 -0.88777745
-0.9316863 -0.09828788 -0.024433924 -0.2275377 -0.5373861 -1.0481778 -0.13774294 0.41220143
-0.29736003 0.4616694 -0.027345756 -0.8871591 0.6108311 -0.1952377 -0.33003992 0.5698957
-0.36462855 -0.04409038 -0.27425858 0.4894942 0.449194 0.342394 1.1268827 -0.019075917
-0.06687287 0.09362124 -0.07969932 -0.062428012 1.5599476 0.7528119 0.22835429 1.1464279
00000000: a599 43bf c0b5 cd3e 877b 30be 4a07 2f3f
00000010: f260 b1be 231f 583f dc9a 7cbd 342e a63d
00000020: d0fe 233e f1f4 b83d 8f79 6b3d 0e17 243f
00000030: e05d ffbf bfa0 963f ea8e 50be 0446 223e
00000040: 4ae9 a73f 0697 c13e 5a9d 74bf 5072 bf3e
00000050: 5a69 8e3f a9de df3e e349 8a3e 7c7c 01c0
00000060: 6e92 143f f87b 983e e76f 403f 6fe2 0cbf
00000070: d707 2cbf cc74 40bd 4c17 ad3d 95c1 79be
00000080: 96ed 3a3f 7af2 b33b 2e95 073f e834 3cbf
00000090: 41d3 63bf c550 9dbe a3f2 5cbf ad44 a43e
000000a0: 17df 82bf 3efc a03e 0b36 a8be 3d3a 75bf
000000b0: 0868 76bf 1db1 2abc a649 1c3f bed2 0cbf
000000c0: 3a28 f3bd 8cfb af3e 2ce3 073d bbf3 e5be
000000d0: 821f c03e 47d9 80bf e50d 12bf 6550 63be
000000e0: 34c4 a33d 7a3f 6f3e 560f c63e af98 aebf
000000f0: a246 d9bd f6d9 aa3e 189e 453e 3c20 8dbf
00000100: f808 a93e 2c9b 57bf e824 2bbe 8a3c a2be
00000110: 5404 a93f ef3d d43e 3ba1 0abe 8f4f e23d
00000120: 365e 1e3f 1a90 e13e 7a7a 89be 6f91 3c3f
00000130: de65 7a3b 38e3 1b3f 993e d9bf a896 d9be
00000140: 5de3 54be 9699 593d 2cce bcbe 74bb b2bd
00000150: 8e15 a6bf 8d14 a4bf c49f 123e eee9 29bf
00000160: 36e1 aebe dc24 5dbf e258 4abc ef3b a3bb
00000170: cbff 15be e07f 84bf 13f3 733d 7b5a 233f
00000180: f6fd 4f3f 5847 023d a9e5 ec3e 087d 30bf
00000190: f055 90bf 3fa9 42bf b9d9 dabd f602 57bd
000001a0: 38a7 e43d 908d 16bf 9637 e3be c8c0 15bf
000001b0: 8eab 3c3f 798f 163f 161d 093f 922f 093f
000001c0: 2ba5 a73e b530 c33f 06fe e33e 36d0 abbf
000001d0: ee98 91bc b0b8 d13e f360 3d3e d61d 793d
000001e0: 4b7f a83d f60a f2be 88cb 21be 7a9e 83bf
000001f0: 4fe5 453f 39d6 a13e d360 bd3e 7377 d3bd
00000200: d4ba 82be 2d46 853e acdc 0abe 0b29 07bf
00000210: 930c c6bf c64e 903f 66cc 70be 23a2 693e
00000220: 1462 14bf 5e6a b2be f16d 0c3f db0d 9fbf
00000230: 53fd 8dbf 0b97 e23e b948 d53e 5691 283f
00000240: 6d0a 313d 91c3 b23e 2e77 9abe eb08 cf3e
00000250: 1c87 2d3e 7b09 943f ea6c b93d ab7b 99be
00000260: 86eb 983f aea8 15bf ce92 14bb 09c1 9f3e
00000270: 6880 4dbf 7f2b 59bf c7eb 01bb 47df 88bf
00000280: 5f5c ad3e e0d9 81be 80b0 403e 5b0c 23bd
00000290: 82ff 2b3f be06 803e 5a3e 253d a27a 6e3f
000002a0: c6f3 3e3f b4cb 3cc0 76de 5f3f ac41 b9bf
000002b0: ae19 89bf 5012 ffbd 3aa8 8fbe a9f5 5d3e
000002c0: fec8 4fbe 6adb f23e a245 4ebe 871d 7bbf
000002d0: c4fd bb3e a0d9 7f3d 636f 6cbe 58f3 b83e
000002e0: e1f6 46bf 162c 053d 9d5d 87be 5c0a 84bf
000002f0: aa8e 893e c662 083f e031 52bf 66fd 7d3d
00000300: f388 aabe 2ae0 223e ff7e 1d3f 6b0c 94bf
00000310: c67a a83f ff5e 2fbe fdcf 33bb 8ecd 0d3f
00000320: 1660 f73e 9048 a23e a0af 213f 34b7 aabf
00000330: 0446 4b40 6e7d e73e f5be 103d 1b1a e7be
00000340: 9b3e bebe 03c4 023f 484e fcbd 97e0 6dbf
00000350: a8e5 0bbf a7bb 9ebe 726c 6dbd 70df 823e
00000360: cbc1 c93f 960f 193e ebd1 d83e 0284 593e
00000370: ac57 97be c934 eabe 40f0 a0be 6245 63bf
00000380: fe82 6ebf 284b c9bd a729 c8bc a5ff 68be
00000390: 2392 09bf b12a 86bf 7c0c 0dbe 110c d33e
000003a0: 933f 98be ee5f ec3e 3504 e0bc dc1c 63bf
000003b0: 6d5f 1c3f 64ec 47be fefa a8be afe4 113f
000003c0: 98b0 babe 1d98 34bd 9f6b 8cbe fc9e fa3e
000003d0: c2fc e53e 444e af3e b13d 903f 1945 9cbc
000003e0: a5f4 88bd 7ebc bf3d 6639 a3bd 84b4 7fbd
000003f0: 5dac c73f 48b8 403f b5d5 693e 26be 923f

bias f4 [64]
0.593955 0.9469703 -0.15246008 0.12341703 0.30608016 -0.63831204 1.047528 0.2287578
-1.0923076 0.27638844 -0.04681193 0.63318855 -0.79110026 -0.09880913 0.1966736 -0.9328329
0.83267945 0.7666431 0.0048770243 -0.8035913 0.3494371 0.3153088 0.31179827 0.5599192
0.38226414 0.2873962 0.35060823 0.2151986 -0.065699086 0.20555381 -0.6877284 0.48687693
-0.52820134 0.44015986 -0.2671995 0.4806223 0.31072333 -0.6418905 -0.48409668 0.12509398
-0.18900052 -0.16204417 0.9776051 0.0669098 0.43735474 0.59710467 0.2590595 0.32688022
0.20247076 0.58627754 0.95862716 -0.1939785 0.07901682 -0.29852328 -1.4026806 0.62240297
0.6389762 0.49784997 -0.8088755 1.2969387 -0.6738132 0.8875389 0.7811631 1.0545046
00000000: 6f0d 183f a56c 723f 7f1e 1cbe 11c2 fc3d
00000010: 8ab6 9c3e 6b68 23bf 6615 863f 7c3f 6a3e
00000020: bcd0 8bbf c982 8d3e debd 3fbd a518 223f
00000030: 8c85 4abf 715c cabd ce64 493e 23ce 6ebf
00000040: 7b2a 553f b942 443f 72cf 9f3b 29b8 4dbf
00000050: 6be9 b23e 2870 a13e 06a4 9f3e dd56 0f3f
00000060: 20b8 c33e 9825 933e ec82 b33e 065d 5c3e
00000070: 3e8d 86bd b37c 523e f80e 30bf ef47 f93e
00000080: 3438 07bf a25c e13e 5fce 88be 2014 f63e
00000090: 2117 9f3e f052 24bf 85db f7be a318 003e
000000a0: 5a89 41be e8ee 25be 5444 7a3f 0108 893d
000000b0: f6ec df3e dadb 183f 72a3 843e d85c a73e
000000c0: 7f54 4f3e 4916 163f 9768 753f 4da2 46be
000000d0: 92d3 a13d 0bd8 98be 0a8b b3bf cd55 1f3f
000000e0: f293 233f 31e6 fe3e 7712 4fbf 1602 a63f
000000f0: 067f 2cbf c035 633f 4efa 473f 02fa 863f

weight f4 [64, 64]
0.64718866 -0.19123235 -1.1902918 0.06349446 0.11823532 -0.59418887 -0.11963 -0.21192425
1.6924864 0.20916037 -0.21982087 0.033395488 0.7632214 0.3315631 -0.15976869 1.5453455
-0.05132238 -0.62627107 0.26450565 0.29867 0.23570196 -0.66635156 0.59388274 0.60288924
0.30447364 -0.0759861 0.62025255 0.18369757 0.5743951 0.32611546 0.7672206 0.45248115
0.36616683 0.3347802 0.80950975 -0.09176074 0.2007042 1.0569667 0.21660712 -0.8779052
0.8399865 0.08658663 0.05866175 -0.47344708 0.027501464 0.06249913 0.13888203 -0.30124974
-0.018995767 0.44840696 0.13111015 -1.1787333 0.45298424 0.5031 1.8175166 0.35530788
0.13854915 0.24815428 0.98517436 0.132409 1.6427237 -0.15330137 -0.2626781 0.4085428
-0.06331017 -0.10744854 -0.0015083618 -0.049566 -0.0067347437 0.0051526427 0.11282023 -0.10699536
0.024177104 0.01270922 -0.00918977 -0.003891563 -0.11266436 -0.0062330514 -0.05892779 -0.08994757
0.10187204 -0.005196288 0.087787 -0.10629544 -0.08603342 -0.034260184 -0.08320084 0.007949993
-0.020323724 -0.11650643 -0.10566376 -0.05939257 -0.039133564 -0.11445835 0.05801103 -0.036529034
0.038784638 -0.11939018 -0.058593318 -0.117808595 -0.0944476 -0.06401685 -0.01981783 -0.016411854
-0.117783844 -0.0035070628 -0.11759698 0.10725789 0.046905357 0.116864085 -0.07212101 0.08961738
0.084621325 -0.105101444 0.039382786 -0.0031576084 0.09066367 0.079062 -0.0036561268 -0.0051902696
0.064046174 -0.071693495 -0.03399305 -0.044011515 -0.022635698 -0.08969403 -0.103347525 -0.12501751
0.7208479 -0.30425048 -0.9466779 0.100574724 0.21190974 -0.10246857 -0.22340705 0.015917927
1.7332045 0.5114475 0.08020962 -0.018192554 0.76031464 0.31671557 0.20681117 2.169094
0.0990528 -0.5235041 0.3183419 0.4452345 0.1409752 -0.70543516 0.35903934 0.5725989
0.363592 -0.15309335 0.4894719 0.50462884 0.74108464 0.353171 0.71619743 0.438951
0.09277795 0.34576073 0.63615096 0.0782845 0.261013 0.648041 0.36665094 -0.5327859
0.49956822 0.25283507 0.1962721 -0.10900683 0.25794557 0.096871324 0.12733503 0.053616893
0.26837018 0.275996 -0.019510161 -1.8775046 0.55869585 0.62342143 2.1652536 0.348681
-0.10288419 0.2498178 1.097231 -0.08460766 1.5487874 -0.06865754 -0.36709696 0.39338696
0.7813428 -0.13659835 0.2073916 0.2263694 0.4358956 -0.50969416 -0.20498283 -0.11118355
1.7226794 0.8083945 0.18618032 0.21729901 0.55694747 0.04397132 0.21401976 1.5614194
-0.026800068 -0.65140384 0.45494387 0.39333344 0.15950543 -0.6746155 0.14552751 0.4982381
0.23584302 -0.18902755 0.3483865 0.47679496 0.27193597 0.14739542 0.56818557 0.16122146
0.34310353 0.39876148 0.4718624 0.35630065 0.38744277 0.24827161 0.53412646 -0.603942
-0.102987856 0.12057376 0.069377065 0.29165617 0.5269873 0.25996393 0.27345315 0.3376625
0.26661018 0.07493798 0.027435722 -2.217888 0.3262084 0.6100588 2.4406552 0.43801025
-0.22776109 0.035538245 1.086049 -0.16123526 0.83867365 -0.11176183 -0.4288494 0.36176038
00000000: 28ae 253f 6ad2 43be 7b5b 98bf 6209 823d
00000010: 5c25 f23d c31c 18bf 9300 f5bd ac02 59be
00000020: 65a3 d83f 232e 563e b918 61be b5c9 083d
00000030: 7a62 433f a3c2 a93e 679a 23be e2cd c53f
00000040: 6a37 52bd 4d53 20bf 496d 873e 46eb 983e
00000050: db5b 713e 0496 2abf b308 183f f356 1a3f
00000060: f8e3 9b3e 9a9e 9bbd dfc8 1e3f 371b 3c3e
00000070: 8f0b 133f 9bf8 a63e 9268 443f 9cab e73e
00000080: 387a bb3e 4f68 ab3e 083c 4f3f 0eed bbbd
00000090: 6785 4d3e af4a 873f 42ce 5d3e 65be 60bf
000000a0: 5b09 573f 5554 b13d 4e47 703d a867 f2be
000000b0: c04a e13c 16ff 7f3d 1737 0e3e 683d 9abe
000000c0: 039d 9bbc 9995 e53e bd41 063e bce0 96bf
000000d0: 8ded e73e 29cb 003f 62a4 e83f eaea b53e
000000e0: d4df 0d3e 281c 7e3e 6334 7c3f 3a96 073e
000000f0: c544 d23f 09fb 1cbe be7d 86be 862c d13e
00000100: c3a8 81bd fb0d dcbd 39b4 c5ba b805 4bbd
00000110: 20af dcbb 80d7 a83b 4b0e e73d 6220 dbbd
00000120: 100f c63c 553a 503c b090 16bc 9809 7fbb
00000130: 92bc e6bd a03e ccbb 445e 71bd 6e36 b8bd
00000140: 4aa2 d03d a045 aabb acc9 b33d 6cb1 d9bd
00000150: 4a32 b0bd 6854 0cbd 3465 aabd b040 023c
00000160: f07d a6bc ec9a eebd 3e66 d8bd a045 73bd
00000170: 844a 20bd 2469 eabd f99c 6d3d 789f 15bd
00000180: a4dc 1e3d d782 f4bd 8cff 6fbd a245 f1bd
00000190: be6d c1bd 441b 83bd 0059 a2bc 2772 86bc
000001a0: a838 f1bd c0d6 65bb afd6 f0bd 06aa db3d
000001b0: d51f 403d 7056 ef3d 2eb4 93bd 5189 b73d
000001c0: f24d ad3d 6d3f d7bd d84f 213d e1ef 4ebb
000001d0: e0ad b93d 42eb a13d a19b 6fbb 2313 aabb
000001e0: a42a 833d 0ad4 92bd 4c3c 0bbd 6b45 34bd
000001f0: 806e b9bc 81b1 b7bd dea7 d3bd 9704 00be
00000200: 7d89 383f b8c6 9bbe 7c59 72bf 1ffa cd3d
00000210: defe 583e 0bdb d1bd d1c4 64be 5066 823c
00000220: a5d9 dd3f 39ee 023f f144 a43d 8d08 95bc
00000230: fba3 423f 8b28 a23e 4fc6 533e 70d2 0a40
00000240: 32dc ca3d 5d04 06bf b6fd a23e c7f5 e33e
00000250: ce5b 103e 6697 34bf 01d4 b73e d795 123f
00000260: bb28 ba3e 81c4 1cbe 109c fa3e 5b2f 013f
00000270: b9b7 3d3f d4d2 b43e b758 373f 2fbe e03e
00000280: 5e02 be3d 8d07 b13e cada 223f a053 a03d
00000290: 7fa3 853e 04e6 253f acb9 bb3e a864 08bf
000002a0: 68c7 ff3e 9973 813e 8efb 483e f93e dfbd
000002b0: 7111 843e 7964 c63d 1d64 023e 639d 5b3d
000002c0: d167 893e 594f 8d3e c6d3 9fbc 1252 f0bf
000002d0: b106 0f3f 8c98 1f3f 8493 0a40 5186 b23e
000002e0: f2b4 d2bd 3dd0 7f3e 1172 8c3f c846 adbd
000002f0: aa3e c63f 539c 8cbd 22f4 bbbe 046a c93e
00000300: 1506 483f 70e0 0bbe 775e 543e 61cd 673e
00000310: b52d df3e 517b 02bf 05e7 51be 33b4 e3bd
00000320: c280 dc3f f1f2 4e3f 0ea6 3e3e a283 5e3e
00000330: 1c94 0e3f 451b 343d ff27 5b3e 97dc c73f
00000340: d18b dbbc 67c2 26bf 67ee e83e 0063 c93e
00000350: 6455 233e 9ab3 2cbf 2a05 153e 1019 ff3e
00000360: d580 713e 7090 41be b75f b23e 781e f43e
00000370: 313b 8b3e d3ee 163e 9c74 113f 3d17 253e
00000380: 44ab af3e 772a cc3e f397 f13e 0a6d b63e
00000390: e65e c63e ea3a 7e3e 83bc 083f f19b 1abf
000003a0: 4ceb d2bd 60ef f63d 9015 8e3d f553 953e
000003b0: a4e8 063f fe19 853e 0d02 8c3e 19e2 ac3e
000003c0: 2181 883e 1579 993d e1c0 e03c e1f1 0dc0
000003d0: ca04 a73e d02c 1c3f b233 1c40 e142 e03e
000003e0: 343a 69be 8d90 113d a703 8b3f db1a 25be
000003f0: 51b3 563f 63e3 e4bd 2692 dbbe a838 b93e

bias f4 [64]
-0.1944679 -0.11229536 -0.1734983 -0.18375948 -0.97199684 -0.09377395 0.6644639 -0.5697545
-0.8997081 -0.35570467 -0.079151414 0.38558432 -1.0026506 -0.5184649 0.51071155 0.5103548
-0.76683074 -0.7168677 -0.38243386 -0.41012916 0.5424404 0.1249934 0.1215786 -1.1136498
-0.14889759 -0.056304287 0.38317364 -0.2227612 -0.3691277 -1.1431869 -0.30580217 -0.5739098
0.21204218 -0.5206434 -0.3769564 -1.2297946 -0.34558094 0.3169656 0.89550424 0.47858956
-0.42485097 -0.29057744 -0.7173406 0.40311515 0.7748729 -0.23913918 -1.3564333 -0.4602141
-0.85614717 -0.59005976 -0.28203842 -1.1910222 -0.13397755 -0.20702681 -0.29614902 -0.19685419
-0.1962925 1.124415 0.5900343 0.010673907 -1.1686583 -0.9899129 0.30612963 -0.38077343
00000000: 9822 47be 1cfb e5bd 8aa9 31be 722b 3cbe
00000010: c9d4 78bf 8f0c c0bd 4e1a 2a3f 6edb 11bf
00000020: 4553 66bf ec1e b6be 231a a2bd 4f6b c53e
00000030: db56 80bf 1eba 04bf febd 023f 9da6 023f
00000040: 054f 44bf a484 37bf 5fce c3be 73fc d1be
00000050: 60dd 0a3f 8afc ff3d 33fe f83d 148c 8ebf
00000060: 9c78 18be 539f 66bd 562f c43e 831b 64be
00000070: 4efe bcbe f353 92bf 1a92 9cbe c1eb 12bf
00000080: 9621 593e e348 05bf 6e00 c1be e969 9dbf
00000090: fcef b0be 5149 a23e c43f 653f b109 f53e
000000a0: 1186 d9be 91c6 94be a2a3 37bf 1c65 ce3e
000000b0: 125e 463f e7e0 74be 9b9f adbf 2fa1 ebbe
000000c0: 762c 5bbf 280e 17bf 5767 90be 6a73 98bf
000000d0: 6931 09be d6fe 53be d8a0 97be 2594 49be
000000e0: e700 49be d5ec 8f3f 7d0c 173f 9ce1 2e3c
000000f0: 9896 95bf ef6a 7dbf 06bd 9c3e bcf4 c2be

weight f4 [4, 64]
-0.5378472 0.0826226 -0.53793794 -0.6239167 -1.727704 -0.7853158 1.9005772 -1.1077265
-1.4868125 -1.4028465 0.12350683 3.4388926 -1.881445 -0.59728885 0.8507001 0.2616063
-1.1971385 -0.5831508 -0.73953193 -0.7503042 1.3549209 1.7885352 1.9306829 -1.7004273
-0.60999775 2.1815655 0.72147995 -0.7416714 -0.691906 -1.818652 -0.9240685 -1.3179331
1.7224326 1.1276861 -1.3373181 -1.8247176 -0.920412 2.527209 1.4759055 1.211781
-0.62982404 -0.638016 -1.6136076 2.1914647 1.4056683 -0.5264627 -2.5620139 -0.74963474
-1.6555603 -0.62604624 -0.59704214 -1.152308 0.09032598 -0.6506122 1.2899456 -0.4893513
-0.6484917 1.4197621 2.0484898 -0.081662655 -1.7796292 -0.96898025 1.6446878 -1.1431074
-1.0965782 -0.114913285 -0.90237373 -0.45386267 -1.1651931 -0.51901853 1.9873128 -0.4100117
-1.2227188 -1.5551467 0.0021805423 3.505016 -1.8210553 -1.0981382 0.8291707 0.7133118
-0.9975321 -1.6772846 -0.49583274 -0.6448528 1.2388613 2.2487962 1.8933197 -1.8850373
-0.5222228 2.6228437 0.9984549 -0.79015344 -0.83006877 -1.921457 -0.8606249 -1.207623
1.4554573 1.0961435 -1.4996976 -1.8184292 0.011056822 2.5560384 1.4358773 1.0925082
-0.4690848 -0.86294556 -1.572451 1.8205873 1.484612 -0.6666232 -2.393223 -0.94284636
-1.3311386 -1.3577462 -0.39969924 -0.548212 -0.039339736 -0.92218184 1.228028 -0.48246172
-0.49720094 1.4480428 2.3177307 0.016604746 -1.4947387 -1.2278837 1.2817307 -0.87508315
-0.2144655 -0.0369159 -0.19366635 -0.5825355 -1.8539516 -1.0619855 1.8687412 -0.829801
-2.3855834 -0.83025545 -0.09677616 3.3491836 -2.2052305 -0.7737106 1.3004131 -0.8422897
-1.515817 -0.4172825 -0.80657095 -0.46498886 1.1208978 1.2614433 1.878204 -2.0409117
-1.6560721 2.4135256 1.4495845 -0.3515895 -0.9333512 -1.9641552 -1.1036834 -2.3182502
1.8326228 1.9753374 -0.715765 -1.585844 -1.7638054 2.4718206 1.8133627 1.1234109
-0.56671125 -0.41936338 -0.9421787 2.1449354 0.80274165 -0.60155076 -0.4037901 -0.7966226
-2.8274698 -0.85885155 -1.2205461 -1.2519703 0.112408146 -0.41826057 1.879255 -0.8969424
-0.6871981 1.7416914 1.4949538 0.099454775 -1.5369346 -2.0126946 1.7984565 -0.93536097
-0.2351713 -0.002776384 -0.692384 -0.92200243 -2.605283 -0.8824573 1.7488214 -1.5437171
-0.5277919 -1.4334276 -0.0010574951 3.4304101 -2.0667932 -0.317815 0.56472385 -0.18388829
-1.7487592 -2.6797967 -0.7239668 -0.806613 1.7901632 1.6946151 1.7867131 -1.6766953
-0.026407603 2.1011753 0.42800343 -0.8109444 -0.3705241 -2.5233657 -0.9135264 -1.7218695
1.6472695 0.8981002 -0.88169795 -1.2274623 -0.7925667 2.3828008 1.3918933 1.2325488
-0.6206076 -0.4502451 -1.262583 2.4102645 1.5547351 -1.0846545 -3.07206 -0.7057208
-2.519535 -0.6943744 -1.1913841 -1.769438 -0.09966083 -0.45147374 1.27519 -0.8109683
-0.7271803 1.3601733 2.1670816 0.059596002 -2.0151007 -1.602806 1.7476943 -0.93314636
00000000: 5bb0 09bf 0a36 a93d 4db6 09bf 01b9 1fbf
00000010: 6825 ddbf 750a 49bf 1d46 f33f fbc9 8dbf
00000020: df4f bebf 7990 b3bf 26f1 fc3d d116 5c40
00000030: 31d3 f0bf ece7 18bf 7bc7 593f 43f1 853e
00000040: d63b 99bf 5f49 15bf f751 3dbf f013 40bf
00000050: 0c6e ad3f b9ee e43f 9e20 f73f 9aa7 d9bf
00000060: d028 1cbf c59e 0b40 e9b2 383f 2dde 3dbf
00000070: c020 31bf 97c9 e8bf c18f 6cbf 08b2 a8bf
00000080: ac78 dc3f 0558 903f 3d2d abbf 5990 e9bf
00000090: 1fa0 6bbf cbbd 2140 79ea bc3f a41b 9b3f
000000a0: 263c 21bf 0455 23bf b28a cebf f540 0c40
000000b0: f0ec b33f 42c6 06bf 09f8 23c0 10e8 3fbf
000000c0: 66e9 d3bf 9144 20bf c1d7 18bf d47e 93bf
000000d0: d4fc b83d 858e 26bf f01c a53f 418c fabe
000000e0: 8d03 26bf c4ba b53f 751a 0340 c03e a7bd
000000f0: e4ca e3bf 170f 78bf 2185 d23f 5851 92bf
00000100: ad5c 8cbf a857 ebbd f701 67bf b060 e8be
00000110: 0c25 95bf 66de 04bf 4460 fe3f 0eed d1be
00000120: 0d82 9cbf 0c0f c7bf 6ee7 0e3b 2f52 6040
00000130: 5718 e9bf cb8f 8cbf 8844 543f 9a9b 363f
00000140: 445e 7fbf 43b1 d6bf cadd fdbe 1315 25bf
00000150: 0293 9e3f 47ec 0f40 4d58 f23f e748 f1bf
00000160: 65b0 05bf acdc 2740 be9a 7f3f 7f47 4abf
00000170: 637f 54bf 4ef2 f5bf ea51 5cbf 6493 9abf
00000180: 6d4c ba3f 6e4e 8c3f 17f6 bfbf 4ac2 e8bf
00000190: ac27 353c 2296 2340 d4ca b73f 4fd7 8b3f
000001a0: e22b f0be 00ea 5cbf 1346 c9bf 0109 e93f
000001b0: c407 be3f d1a7 2abf 912a 19c0 615e 71bf
000001c0: c062 aabf a1ca adbf 61a5 ccbe 9f57 0cbf
000001d0: b422 21bd 1c14 6cbf 0630 9d3f 3905 f7be
000001e0: 1f91 febe 7759 b93f b355 1440 ad06 883c
000001f0: 9953 bfbf 4b2b 9dbf c00f a43f 7305 60bf
00000200: d89c 5bbe 2035 17bd 7950 46be 0c21 15bf
00000210: 494e edbf 24ef 87bf e932 ef3f d76d 54bf
00000220: 66ad 18c0 9f8b 54bf 9432 c6bd 0659 5640
00000230: 7f22 0dc0 e611 46bf f073 a63f 4ca0 57bf
00000240: 4b06 c2bf 0da6 d5be 6f7b 4ebf 0513 eebe
00000250: 9479 8f3f f976 a13f fd68 f03f 4c9e 02c0
00000260: 2cfa d3bf 3477 1a40 fc8b b93f 8a03 b4be
00000270: 1bf0 6ebf 7069 fbbf 7f45 8dbf 365e 14c0
00000280: 6293 ea3f dbd7 fc3f 603c 37bf f0fc cabf
00000290: 60c4 e1bf 4f32 1e40 451c e83f eecb 8f3f
000002a0: fd13 11bf ccb6 d6be a032 71bf 9f46 0940
000002b0: 7a80 4d3f 3bff 19bf 93bd cebe 75ef 4bbf
000002c0: 44f5 34c0 b2dd 5bbf db3a 9cbf 9040 a0bf
000002d0: 3e36 e63d 4026 d6be 6e8b f03f 049e 65bf
000002e0: 37ec 2fbf beef de3f a55a bf3f f2ae cb3d
000002f0: 46ba c4bf fdcf 00c0 d333 e63f d173 6fbf
00000300: bfd0 70be fef3 35bb 1440 31bf 5a08 6cbf
00000310: f5bc 26c0 b9e8 61bf 61d9 df3f 8698 c5bf
00000320: 5f1d 07bf 8e7a b7bf a69b 8aba d78b 5b40
00000330: 5746 04c0 a6b8 a2be be91 103f 364d 3cbe
00000340: 57d7 dfbf ca81 2bc0 e355 39bf 317e 4ebf
00000350: 1124 e53f 26e9 d83f 04b3 e43f f49d d6bf
00000360: c254 d8bc a879 0640 4423 db3e 0d9a 4fbf
00000370: 56b5 bdbe d37e 21c0 dedc 69bf 3866 dcbf
00000380: bad9 d23f e5e9 653f f5b6 61bf 7c1d 9dbf
00000390: a7e5 4abf cf7f 1840 8f29 b23f 29c4 9d3f
000003a0: 24e0 1ebf 8786 e6be 529c a1bf c641 1a40
000003b0: 8f01 c73f f5d5 8abf a29c 44c0 1eaa 34bf
000003c0: 1040 21c0 85c2 31bf 467f 98bf f27c e2bf
000003d0: fa1a ccbd 9127 e7be 6d39 a33f 9e9b 4fbf
000003e0: 7d28 3abf 291a ae3f 77b1 0a40 f01a 743d
000003f0: 69f7 00c0 bf28 cdbf 72b4 df3f aee2 6ebf

bias f4 [4]
0.42831075 0.34298477 0.3573134 0.14434905
00000000: 8c4b db3e b39b af3e c8f1 b63e 3dd0 133e
