lab2/problem1/neural-network-1.pth (torch, 22871 bytes, 6 tensors)

weight f4 [64, 8]
00000000: 8f4c 383e 7692 7a3e d148 bd3e 596a c4be
00000010: be39 31bf 0111 0d3f 10a5 923e 482b 74be
00000020: d05d 983e a2e0 36be 2daf 963e b9aa 68bf
00000030: 27eb e63e 8dc6 b73e 8d0c 133f b437 723e
00000040: ac55 c0bf 31ed 293d e76e 443e 7139 163f
00000050: b039 f8bd 3140 debe 9878 dcbe b700 b5bf
00000060: 776a c1be a4ad a53e 21ae 10bf 18cd 5e3d
00000070: f4c1 18c0 2169 943f fba8 cdbe 66ec 26bf
00000080: 695a 603f dcbd 003f 0d5c 07bf 8413 07bc
00000090: 9b81 6a3f e47b a63e 03e7 bd3e 2051 83bf
000000a0: a1a6 1bbe 839e b33e 2fc2 fdbe ba04 1d3e
000000b0: 644f bb3d 5372 a0bd 4aab 0e3f 6c1b d03e
000000c0: 5c2a 79bf 9882 aa3f 4755 b73f eb86 5dbf
000000d0: d059 42bf 3b1c 1d3f b790 393e bdc6 80be
000000e0: 92e6 ec3d 3cdb 2cbe a49d 2d3e ff50 05bf
000000f0: e16a 62bf 1f3c 9ebe 4407 913e f8c5 103e
00000100: fbbe 4abe b839 0c3f 4f69 52bf 4bef e6bc
00000110: 794d 763d 65e9 54be 0d7d 9c3e 19f2 0e3f
00000120: 74c0 20be 0367 c1bf 3ed2 b83d a77e a5bf
00000130: 69dd 0f3e 5a0f 0e3e 9378 e0bc bc64 7dbd
00000140: 34fb 93bf 3cf1 3c40 5b40 8bbf 9b02 18bf
00000150: e9e7 4fbf b784 ed3d 6a75 783d d907 28be
00000160: d74b 033f d2b1 d23d ce70 98bf 33c3 87bf
00000170: cbe6 75bf 1f39 8a3e 837f e7be d82f e6bb
00000180: 37a1 283e ea54 0cbe 61f9 7c3e 3a39 6abf
00000190: 22ad 62bf c077 e5be 006b cd3d 2684 523e
000001a0: 8b8c 25bc c9a4 523c a416 b53e 9e3f 2d3e
000001b0: c14e 85be fe65 2ebf 507b 8abf 1f5c 8f3e
000001c0: 6a8f b43e 7bbe fa3d 6f6c 083f 3e1f 99be
000001d0: 7d3d 99bf a6e9 63be 16f5 83be df6f 2c3f
000001e0: f3ac acbf 766b 8bbe 8fd4 e0bd db7e 8abf
000001f0: 3281 f8bf efb7 143d 7afb ea3e 7a24 3fbf
00000200: 62af 95bc e1c8 fc3d 60cb 823e 0879 d1bd
00000210: d5d2 c03f 06af de3e 26cc 283f 49c9 2ebf
00000220: c642 9dbe bbb3 ca3e 45ed 833d 6b18 74be
00000230: cedf 2a3e f564 8ebe fd88 c0bd 42d6 3f3f
00000240: 7b39 8cbe 9ea7 13bd 1f9f 15bf bb49 06bf
00000250: a810 f5be efca 183f 8656 d93e b693 49be
00000260: 5708 41bc e492 08be 7029 59bd ad54 233f
00000270: 3730 33bf 5030 8bbe c0fd 7bbf 238c 9bbf
00000280: 40f4 77bb d7f4 253f 5e1c 2abf 73cb 7e3f
00000290: a17d bd3f 5d59 ee3e b6f5 c83e 43d8 4ebe
000002a0: c37f 8a3d db4a 0f3f f738 0cbe 69a3 1dc0
000002b0: 00b9 213e 5909 5bbe 43fe cb3d 673b a03e
000002c0: fabe 823f 41ed d8be 713d 283f 203b 60bf
000002d0: 7aca 7fbe a7ab 993e 08ea da3e 9844 943d
000002e0: 8c4e 89bd 1408 903e eafa 80bf b476 a9bf
000002f0: 7fce 8f3e c191 5abf 3362 bfbf 9705 8dbe
00000300: 8050 4e3e 9b3f 173e 51b6 c23e 0570 4ebc
00000310: 4336 c9bd 0092 df3e 5160 1c3f acab dc3e
00000320: f295 e33d befa 1cbe 3549 623e 03b7 8bbe
00000330: 3866 73bf 638f 99be db2e 273e 29f9 fd3d
00000340: b3ac 8cbd 869e 5abf 2e11 ca3e 3e51 bfbe
00000350: b523 75be 13be 00bf 9718 35bf 58bc 17bf
00000360: 928d edbf b36f dabc 512c 2cbf 73b0 51be
00000370: cf37 5b3e 6f11 f13d 9d45 88bd 593d 6bbd
00000380: a851 a33d 6c27 14be c4f2 f03e 4e69 1a3f
00000390: e8e3 863e 78c8 93bf 1f86 e63e 5849 ee3e
000003a0: a051 1ebf 8a3a 72be 2a71 0fbe 71e5 59bf
000003b0: dfe1 563f 3a20 0a3f c51c 1f3e 5b67 08be
000003c0: 437f 1f3e cb00 153d 9d8a 08bf 047a 8bbf
000003d0: fe4f 483e 9e3b 1a3f 99c4 b13e bf3e babe
000003e0: 0e54 0d3f 0e60 123f af64 0cbf 1e2e 303e
000003f0: 4d5e c53c 5e10 abbe 3335 1d3f 819c ebbd
0.17997955 0.24469933 0.36969617 -0.38362387 -0.6922873 0.5510407 0.28641558 -0.23844635
0.29759073 -0.17859128 0.29430524 -0.908855 0.45101282 0.3589367 0.57441026 0.23654062
-1.5026145 0.04148597 0.19182931 0.586814 -0.12120378 -0.4340835 -0.43060756 -1.4140843
-0.3777654 0.3235904 -0.565157 0.05439481 -2.386838 1.1594583 -0.40167984 -0.65204465
0.87637955 0.502897 -0.52874833 -0.008244399 0.9160401 0.32516396 0.3709031 -1.0259132
-0.15200283 0.35081872 -0.49562213 0.15333834 0.09146002 -0.078343056 0.55730116 0.4064592
-0.9733026 1.3321104 1.43229 -0.86533993 -0.75918293 0.613712 0.1812161 -0.25151625
0.11567415 -0.16880506 0.16954666 -0.52076715 -0.88444334 -0.30905244 0.28325856 0.14138019
-0.19799416 0.5477557 -0.8219194 -0.028190276 0.060132477 -0.20792158 0.30564156 0.5583816
-0.15698415 -1.5109562 0.090244755 -1.2929276 0.14049305 0.13873044 -0.027401244 -0.061863646
-1.1561036 2.9522238 -1.0879015 -0.59378976 -0.8121324 0.11597579 0.06065885 -0.16409244
0.512876 0.10287823 -1.1909425 -1.0606445 -0.9605529 0.26996705 -0.4521447 -0.0070247464
0.16467749 -0.13704267 0.24704506 -0.9149357 -0.8854543 -0.44817924 0.10030174 0.20558223
-0.010104309 0.012856671 0.35368836 0.169188 -0.26036647 -0.6812438 -1.0818882 0.2799997
0.35265666 0.122433625 0.53290457 -0.29906648 -1.197189 -0.22257099 -0.25772923 0.673582
-1.349028 -0.27230424 -0.10978042 -1.0819963 -1.9414427 0.036308225 0.45894986 -0.74665034
-0.018272106 0.12343002 0.25545788 -0.10228163 1.5064341 0.43492907 0.65936506 -0.68275887
-0.30715007 0.39590248 0.0644174 -0.2383744 0.16686937 -0.278114 -0.094011284 0.74936306
-0.27387604 -0.036048524 -0.58445925 -0.52456254 -0.4786427 0.5968465 0.42448825 -0.19685254
-0.0117817735 -0.13337284 -0.053018034 0.6380108 -0.69995445 -0.27185297 -0.98434067 -1.2152141
-0.0037834793 0.6482672 -0.66449535 0.9952919 1.4803964 0.46552554 0.39249963 -0.20199685
0.0676265 0.55973595 -0.13693605 -2.4630988 0.15793228 -0.21390285 0.09960606 0.3129532
1.0214531 -0.4236851 0.6571875 -0.8759022 -0.24979582 0.30013773 0.42756677 0.07239646
-0.06704435 0.28131163 -1.0076573 -1.323935 0.28087232 -0.8537865 -1.4951843 -0.27543327
0.20147896 0.14770357 0.3802972 -0.01259995 -0.09824803 0.43666077 0.6108447 0.43099725
0.11112584 -0.15330026 0.22098239 -0.27288064 -0.9507785 -0.29992208 0.16326468 0.12401039
-0.06868877 -0.8539814 0.39466232 -0.3736667 -0.23939402 -0.5029003 -0.70740646 -0.59271765
-1.8558829 -0.02666459 -0.6725512 -0.20477466 0.21408008 0.11770903 -0.06653903 -0.057431553
0.07974559 -0.14468163 0.47060215 0.6031693 0.26345754 -1.1545553 0.450242 0.46540332
-0.618433 -0.23655143 -0.14008012 -0.85115725 0.839384 0.53955424 0.15538318 -0.13320677
0.1557589 0.03637771 -0.5333651 -1.0896611 0.19561765 0.6024722 0.34720305 -0.36375996
0.5520638 0.5717782 -0.5484113 0.17205092 0.024092818 -0.33410925 0.614093 -0.1150446

bias f4 [64]
00000000: 0023 883e 51db a5be 6e64 dd3d 854f 39bd
00000010: e5f4 8e3e 1138 773f f2dc 03be 5802 083f
00000020: 0d02 863f 35bf ae3f 1cc8 f83d 6283 1e3f
00000030: 1462 193f 2bf8 623d c0ce 3bbf ea0f 383f
00000040: 2431 653c 38c5 05bf c663 2bbf 6613 433f
00000050: 3aa1 e63e cef2 3dbd c7d4 18bf a7ac 77be
00000060: 8efb c5be 937e 2d3f 00f3 3a3f 6b19 0ebd
00000070: a677 abbe 9e81 2c3f 19d5 38bf 018d 9a3f
00000080: 6993 83bf 3331 58bd 983b ee3d 8610 733f
00000090: 4263 023f 4a20 6bbf 47a0 a73e 0317 833d
000000a0: 5580 0abf ddc4 9cbe 1737 3abf 439e 4dbf
000000b0: 68ef 2dbf 1387 803e 476f 61be a81b 6d3f
000000c0: 121b 3f3f 9f21 663f 3317 70be 96d0 3c3e
000000d0: 53d2 d0bc ca18 193f 1e08 1cbf 10eb 8a3e
000000e0: 2e8e 9a3f 4bd2 153f 5b5c e63e e8ca 183f
000000f0: 955f 8dbc fa2b af3e 68f8 ee3e cd27 cb3e
0.26589203 -0.32393888 0.10810171 -0.04524185 0.27921215 0.96569926 -0.12877253 0.53128576
1.0469376 1.3652102 0.12147543 0.61919224 0.5991528 0.055412453 -0.7336235 0.7189928
0.013988767 -0.52254057 -0.6694912 0.76201475 0.4504488 -0.046374135 -0.5969967 -0.24186955
-0.38668483 0.6777126 0.7302704 -0.03469221 -0.33489722 0.6738528 -0.7220016 1.2074281
-1.0279361 -0.052781295 0.1163246 0.9494709 0.50932705 -0.91846144 0.3273947 0.064008735
-0.5410207 -0.30618945 -0.7274031 -0.80319613 -0.6794343 0.25103053 -0.22015105 0.92620325
0.7465068 0.8989505 -0.2344635 0.18438944 -0.025490915 0.5980345 -0.60949886 0.27132463
1.207464 0.58524007 0.44992337 0.5968461 -0.017257491 0.3421324 0.46673894 0.39678803

weight f4 [64, 64]
00000000: c2a7 00be 409a edbd d437 f0bd 69d6 ab3d
00000010: 7480 183d 5fe8 4ebd 6439 9b3b 10f5 eebd
00000020: 0b8f 80bd 0ddb adbd d862 f5bd b5c7 91bd
00000030: 4cbd 473d 70a0 db3d e072 27bc 20ea dbbd
00000040: c2d9 e2bd d8c9 42bd 2a3f eb3d 12d8 f7bd
00000050: b414 2d3d df73 953d 9010 f03c 54ba d93d
00000060: 8cfa fcbc 20d1 d0bb 6809 8fbd bda5 8cbd
00000070: 801e b6bc 01d9 dcbd 6064 b7bd d23b d5bd
00000080: e498 0abd a0d3 dcbc cafa b33b 5a58 a7bd
00000090: 9250 efbd d65c bfbd 6c4d 4d3d d326 d43d
000000a0: 3ca4 ef3d f61e 83bd e8f8 2f3d 007e 8db9
000000b0: a6c0 bbbd 6cd5 263d 3657 c83d a1cf a0bd
000000c0: 163f c7bd 48f9 38bd 34db b5bd 131d 993d
000000d0: e3c3 a73c 80cf 953d 40f9 c23b 00de 953b
000000e0: 414a e6bd 100a ca3b f73e 003a 32c7 0dbd
000000f0: 769c c43d 1e1f cbbd 3659 cc3d cbe9 89bd
00000100: 5514 aa3e b223 e7bd c439 b0bd c5b5 c23f
00000110: d74e 50be 4ad1 1a3f ed81 763f c059 04c0
00000120: 0522 3f3f 5f05 b33e a3cf f33e 14f5 883e
00000130: 88ac 8dbf 7854 3fbf 9474 b9be 9d40 2b3e
00000140: ff8a a939 2404 1bc0 cf5d 5dbe 96b4 2cbf
00000150: 69ad 163f 86cf d63f 487a afbf 6343 883f
00000160: b2b3 1fbf d226 09c0 1350 29bf 7a3b c7bf
00000170: e891 95c0 093b febd 7968 20bf ab16 343f
00000180: da26 a7bf 8796 d0be 8254 963e df53 6b3f
00000190: 0307 4dbf cfca 003d 2990 cabf f472 c0bf
000001a0: 6fae 913d 9910 f5bf 52dc 57bf cf26 7abd
000001b0: 1acd 73bf 0ae9 a5bf 222b 3040 3274 843f
000001c0: 4079 20bf cf33 553f 55f8 5bbe ff0d 543e
000001d0: 83c2 873f 1ed1 bf3e 7c31 febe ae50 713f
000001e0: 405c 4d3f 84bf 033e ad85 0dc0 1f61 0e3f
000001f0: 2666 91be 3b94 5dbf 5029 393f f2af e7bf
00000200: ea7a a63d b66e 4f3d 9505 5ebe 43b8 babe
00000210: 7852 3a3f 5905 7ebd ec0a dbbd 4e4d 223e
00000220: 4d01 1fbd f0b4 69bf 370e 083f f0ca 1cbd
00000230: d5fc 023e 0ca3 073f a8ec d53f e996 aa3d
00000240: f432 6d3f f541 723f c711 793f c8fc bd3e
00000250: 6fd5 373f 064b efbe 841e c43e 6d03 d1bf
00000260: 1ee7 ef3d e645 ec3c 66d3 303f aa67 a13f
00000270: f989 9b3e 6998 2f3f 4e36 463f 0cca a9be
00000280: 20cb 9c3f 4242 0e3f 03f7 5b3f ac6f e9bd
00000290: 34c4 253e 3a16 7f3f 5570 ad3e 0e03 1d3f
000002a0: 91ec 7a3e 3a1f 153f 00f9 a73f b9ea 0040
000002b0: 1e70 a93f 1a2d 3a3d c498 4abf 5165 2abf
000002c0: 841c 153c 7021 28bd 3534 bf3e 95c4 903f
000002d0: 6740 85be 35ca 053e 8d8c 973f 6882 f83d
000002e0: f3bd 26bc aa4c ac3e cf62 933e 3f99 1e3b
000002f0: 9e82 0a3e f178 48bd 9990 38be 273e d23e
00000300: 49a5 bd3e 5568 903e e3b7 debe 854c 67bf
00000310: 7d83 2c3f 8fcc 933d 7d7b 68bd 8e1c ec3e
00000320: 7843 91bd 597b 62bf 7c45 913e 2c1e 8dbd
00000330: 5992 b73e 0f29 993d 5edb 8f3f cb15 8c3d
00000340: 854a 103f 54fc 243f cd81 043f e376 1a3f
00000350: 907d 0f3f 6008 36bf deb5 b63e 873a 37bf
00000360: ab0c ff3e 5220 883e 0230 563e f78c 683f
00000370: 16aa e73e 897b b73e dbfa a63e 7135 fbbd
00000380: 7ead 9e3f cf0a 1a3f 1494 1f3f 5dd7 c0bd
00000390: d995 923d efad 713f e0d9 163f 606d c93e
000003a0: 46f3 5c3f f5fe b93e e282 963f c102 d43f
000003b0: a9bf bb3f c0de 4d3e f4c9 b0bf bd99 29bf
000003c0: 4596 62be 2e7a 1fbe 79a4 163f c303 703f
000003d0: 2389 e2be eedf 7e3e 8cb6 923f 85b5 9c3e
000003e0: 502f abbd 025f 813e 8ac3 3d3e f50b 753e
000003f0: 2c53 bf3e f108 5d3e 4f00 a9be 71ee 093f
-0.12563995 -0.116016865 -0.11729398 0.08390505 0.037231877 -0.050514575 0.004737066 -0.11667836
-0.06277283 -0.08489046 -0.119817436 -0.07118169 0.048764512 0.107239604 -0.010220259 -0.10738015
-0.1107669 -0.047555774 0.11486657 -0.12101759 0.042256072 0.07297491 0.029304773 0.106312424
-0.030881189 -0.006372586 -0.06984216 -0.068675496 -0.02223134 -0.10783578 -0.08954692 -0.104118004
-0.033837214 -0.02695638 0.005492543 -0.081711486 -0.116852894 -0.09343879 0.050122663 0.10358968
0.11701247 -0.0640239 0.042961985 -0.00026987493 -0.09167604 0.04073088 0.09782259 -0.07852102
-0.097288296 -0.045159608 -0.088797 0.074762486 0.020479148 0.07314968 0.005950123 0.0045735836
-0.112446316 0.0061657503 0.0004892195 -0.034613796 0.09600155 -0.099180445 0.09977953 -0.067340456
0.33218637 -0.11286105 -0.08604768 1.5211722 -0.20342575 0.604756 0.96292 -2.067978
0.74661285 0.34965035 0.47619352 0.2674948 -1.1068277 -0.74738264 -0.36221755 0.16723867
0.00032337752 -2.4221277 -0.21617816 -0.6746305 0.5885835 1.6782081 -1.3709192 1.0645565
-0.6238357 -2.1429944 -0.6613781 -1.5565026 -4.674061 -0.12413604 -0.6265941 0.7034709
-1.3058732 -0.40739843 0.2936135 0.9192485 -0.80088824 0.031443413 -1.5825244 -1.5035081
0.07113349 -1.914569 -0.8432056 -0.061072167 -0.95234835 -1.2961743 2.7526326 1.034796
-0.6268501 0.8328218 -0.2148145 0.20708464 1.0606235 0.3746423 -0.4964713 0.9426373
0.8021889 0.12866026 -2.211284 0.55616945 -0.28398246 -0.86554307 0.7232866 -1.8100569
0.08128913 0.05064269 -0.21681817 -0.36468706 0.7278209 -0.06201682 -0.106954426 0.15849802
-0.0388196 -0.91291714 0.5314669 -0.038279474 0.1279176 0.52983165 1.6712847 0.08329565
0.92655873 0.9463189 0.9729275 0.3710692 0.7181005 -0.46736926 0.38304532 -1.632917
0.11714004 0.028841924 0.6907257 1.2609761 0.30378702 0.68591934 0.7742661 -0.33161962
1.2249489 0.5556985 0.85923785 -0.11398253 0.16188127 0.9964329 0.33874765 0.61332786
0.24504305 0.5825077 1.3122864 2.0143263 1.323734 0.04545317 -0.7913935 -0.66560847
0.009101037 -0.041047513 0.37344518 1.1309992 -0.26025698 0.13065417 1.1839768 0.12134248
-0.010177123 0.3365224 0.28786322 0.0024200229 0.13526389 -0.048943464 -0.1802391 0.41063043
0.37040165 0.282046 -0.4349967 -0.90351135 0.67388135 0.07216751 -0.056758393 0.46115535
-0.07092947 -0.88469464 0.28373325 -0.068905205 0.35853842 0.074785344 1.123882 0.06840094
0.5636371 0.6444752 0.5176056 0.60337657 0.5605097 -0.7110653 0.3568563 -0.7157368
0.49814352 0.26587158 0.20916751 0.90840095 0.45246953 0.35836437 0.32613263 -0.122660525
1.2396696 0.6017274 0.62335324 -0.09416077 0.071574874 0.94406027 0.589262 0.3934126
0.86308706 0.3632733 1.1758692 1.656334 1.4667865 0.20104504 -1.3811631 -0.6625021
-0.22127636 -0.15573952 0.58844715 0.9375574 -0.44245252 0.2489011 1.1461959 0.30607238
-0.083586335 0.25267798 0.18531623 0.23930342 0.37368143 0.21585442 -0.33008048 0.5387946

bias f4 [64]
00000000: 0664 fcbd 1b0e 733f e2be b2be 4d3b 82be
00000010: a29e ef3e e3d8 d23d ff49 8cbe dcba 7f3f
00000020: 559f 69be 8258 eabd 076e c1be 0f6c 09bc
00000030: cd93 14bf 5ce9 77be f875 9abe 548c 6cbe
00000040: 77b7 c43c fa07 ca3d 4db3 86be a365 2dbe
00000050: 80a8 f5be e73c d9be d108 16bf a70b 7bbe
00000060: 06eb b0be 59f4 fabe 0416 da3d 9ec3 6abc
00000070: 1593 f8be a53e 0bbf b4a7 88be 1f8e 69be
00000080: 696d 7cbe c27f 44bf d9b8 33be 2a8b 253d
00000090: 8cca 58bf 13ed bcbe 7c96 0a3f 4038 83be
000000a0: ade6 05bf 2004 6bbc c127 fabe b24d 6cbd
000000b0: 0d00 973f 3a5e a2bd 8b08 003f 4ba5 e8bd
000000c0: 069a 4abe a598 c9be 7f69 b13d 8272 bbbe
000000d0: 8cee e1be 373f 36bf 1e86 0bbf 5b99 ffbe
000000e0: 18b4 9fbe a7d8 0dbf 7ad2 7c3f b606 7abe
000000f0: 6e0b 7bbe 5200 1b3e 4c47 a5bd 89b6 43be
-0.123237655 0.949434 -0.34911257 -0.25435868 0.46800715 0.10295274 -0.27400205 0.998945
-0.22814687 -0.11442663 -0.37779257 -0.00838758 -0.58038026 -0.24210113 -0.30168128 -0.23100406
0.024013264 0.09864803 -0.2630867 -0.16933303 -0.47980118 -0.42429277 -0.586072 -0.24516164
-0.3455431 -0.49014547 0.106487304 -0.014328865 -0.48549715 -0.5439246 -0.26690447 -0.22808121
-0.24651112 -0.7675744 -0.17550983 0.04041592 -0.8468406 -0.36899623 0.5413587 -0.25628853
-0.5230511 -0.014344245 -0.48858455 -0.057691284 1.179689 -0.079281285 0.50013036 -0.11359652
-0.19785318 -0.3937427 0.086627 -0.366108 -0.4412731 -0.7119021 -0.5450152 -0.49921688
-0.31192088 -0.5540871 0.9875866 -0.24416623 -0.24516079 0.15136841 -0.080702394 -0.191126

weight f4 [4, 64]
00000000: be55 813d 0c22 dd3f 52af 94bf 40f9 19bf
00000010: 4e48 503f b8e4 783d 0503 333f c2f5 8d3f
00000020: 8363 3cbf dcea 27bd 9746 a1bf 4d80 a7be
00000030: 753c 8bbf 25b7 94bf 8d31 43bf 8577 1440
00000040: 9410 bc3d 86a0 c83d 1667 4bbf 9392 3ebf
00000050: ca92 84bf 3970 21bf c1a9 28bf 128c 04bf
00000060: f638 47bf 63de b6bf 3b79 0d40 c5e8 4d3d
00000070: a323 45bf cbe6 92bf c37e 9b3f 6866 24bf
00000080: f6cf 1bbf e526 0ec0 a3cc 2ebf d5a1 923d
00000090: 25e3 febf 99bd 19bf 82fd dd3f 7473 4abf
000000a0: 6bf5 0fbf f067 633c cc4d 5fbf 7ae1 b5be
000000b0: aec4 cf3f 8c97 49bf 1033 e33f 2a08 1ebf
000000c0: ffcf c7bf a6f5 19bf 2ba1 d13b 781a 3bbf
000000d0: 09c1 3dbf c159 9dbf 3b9f 5abf c6c7 5abf
000000e0: ca1f 5ebf f9ea d2bf 60cb c13f 5c78 71bf
000000f0: 8467 1cbf dd55 fd3f 34bd 203d 8b3b 2ebf
00000100: 1e69 debd af3c b83f 7a1f babf 4817 1fbf
00000110: 24d6 7a3f b869 393d cf01 f43d d235 8c3f
00000120: 260f 0abf bad3 b1bd b75e afbf 79cd e0bc
00000130: 77e2 b0bf a597 eebe f2c5 b5be e359 1740
00000140: a295 92bd 691b c1bc 888e 33bf ce3a 17bf
00000150: d198 abbf c644 1dbf c4df 59bf b208 0c3e
00000160: cfc5 43bf b9e8 cdbf b5c7 0d40 a4f8 9f3d
00000170: 835d 67bf f06d 9abf 27f4 e73f 7263 22bf
00000180: db1d 28bf 7cca 07c0 9d8e 96bf 1a22 c13d
00000190: 0785 06c0 9867 92bf f484 e53f 196e 0abf
000001a0: dd15 64bf d869 5e3d 222c 70bf e5e7 adbe
000001b0: 51a7 cc3f 1b0b 9bbf 6c66 e83f 0c45 5dbf
000001c0: 4dae c4bf a9b9 eebe c1db 57bd f38b 53bf
000001d0: 887f 66bf 9609 d9bf fbd9 33bf 7c3e 5ebf
000001e0: 6076 5fbf f199 f7bf b7f7 b73f e52e 87bf
000001f0: bcce 6ebf 9b0f e13f ae48 a63d 5089 93be
00000200: 6af5 063a 7ab2 d53f 417c 10bf 3ba2 34bf
00000210: 293c 823f 04bb e2bd b502 e03f daba 703f
00000220: 4b87 1fbf cce5 bb3d 309d 32be 6976 89bf
00000230: 3bf4 c2bf 2509 54bf a9aa 05bf 7f28 1640
00000240: 482e 313d 0799 283d 6a23 0dbf dbb3 5fbf
00000250: 1bca ccbf 4173 47bf 2f0e a0bf 08a1 9fbf
00000260: bc67 90bf 5102 d23e 7575 0a40 1abe 4abc
00000270: 1f4c 76bf 65aa 6cbf 2adf 513e 570f 3abf
00000280: e975 6cbf 7a8b d5bf 0705 79bf 23da d0bc
00000290: 184d a2bf c300 85bf 1564 dd3f 9555 32bf
000002a0: e47a 82bf 2a64 b83d caf7 f8be 673a 99bf
000002b0: 3858 cf3f 8b26 cabf 39e0 f73f 42ce 3bbf
000002c0: 4ff7 17be 10fb 69bf d679 6a3d 237c 4ebf
000002d0: e552 6ebf f490 39bf f9ea 6ebf ffcc 95bf
000002e0: 8bbb 15bf 0be3 17bf fcf5 d33f af90 5cbf
000002f0: 1533 cebd 76a7 fd3f ef6c a5bd f054 81bf
00000300: 982c bf3d 6f03 f03f 29dd 0fbf d026 22bf
00000310: 818a 2f3f c600 9b3d 70cc 513f 7d14 933f
00000320: 7332 25bf c6c8 dd3d 5e5b 5bbf 11ba 3dbf
00000330: 41fe 9abf 8775 29bf 99dc 86bf 6a19 1340
00000340: d330 dbbc eb08 f4bd 08ab 3ebf 5aee 97bf
00000350: ffcd 5fbf 36c6 4ebf 99a5 87bf a6d5 bebf
00000360: 29ab 51bf bd63 f4bf 85f7 0a40 2597 ed3c
00000370: c8a1 41bf 8ebf 78bf e936 863f 3e8f 33bf
00000380: ea95 17bf 84d4 18c0 875c 7dbf 0bd2 0fbc
00000390: dd6f 0bc0 5b62 e9be 4289 fe3f 8526 85bf
000003a0: efa1 81bf 009d afbc c654 1ebf 0593 33bf
000003b0: 946e bd3f 6a26 8e3d 013d d23f 8eaa 36be
000003c0: 6733 9fbf 5d29 2fbf bdae dcbd 9158 9dbf
000003d0: cf8c 46bf 7c77 93bf 8038 59bf 1410 2ebf
000003e0: d873 c8be 2ef3 09c0 d0df db3f d2b5 68bf
000003f0: 0f83 36bf 8e7c 1140 34ca 8e3d 4a70 82bf
0.06315182 1.7276015 -1.1616004 -0.6014595 0.8136033 0.060765 0.6992648 1.1090624
-0.7358934 -0.040995464 -1.2599667 -0.32715073 -1.0877825 -1.1618391 -0.76247483 2.319795
0.091828495 0.097962424 -0.7945417 -0.74442405 -1.0357296 -0.63061863 -0.65884024 -0.5177623
-0.7782129 -1.4286617 2.2105243 0.050270814 -0.770075 -1.1476682 1.214806 -0.6421876
-0.608642 -2.221124 -0.68281 0.07159773 -1.9913069 -0.6005493 1.734299 -0.7908242
-0.56233853 0.013879761 -0.87228084 -0.35523587 1.6231897 -0.7874687 1.7749958 -0.6173121
-1.561035 -0.60140455 0.0063973865 -0.73087263 -0.74122673 -1.2293016 -0.85399216 -0.8546108
-0.86767256 -1.6477958 1.514019 -0.9432428 -0.6109545 1.9791828 0.03924294 -0.68059605
-0.10859893 1.4393519 -1.4540856 -0.621449 0.97983 0.045266837 0.119144075 1.0953925
-0.53929365 -0.08682962 -1.370078 -0.027441727 -1.3819112 -0.4660007 -0.35502583 2.3648612
-0.071574464 -0.02357264 -0.7013936 -0.59074104 -1.3406011 -0.61433065 -0.85107064 0.13675192
-0.76473707 -1.6086646 2.2153141 0.07811096 -0.9037706 -1.20648 1.8121384 -0.6343299
-0.65670556 -2.1217337 -1.1762272 0.094303325 -2.1018693 -1.1437864 1.7931199 -0.54074246
-0.8909586 0.05430016 -0.9381734 -0.33965984 1.5988561 -1.2112764 1.8156257 -0.8643348
-1.5365692 -0.46626022 -0.052699808 -0.8263542 -0.9003835 -1.695605 -0.70254487 -0.86814094
-0.8729 -1.9343854 1.4372472 -1.0561186 -0.932842 1.7582887 0.08119331 -0.288157
0.0005148264 1.6695092 -0.56439596 -0.70560044 1.017461 -0.11070827 1.7500826 0.9403511
-0.62315816 0.0917469 -0.17442775 -1.0739261 -1.5230783 -0.82826453 -0.5221353 2.3462217
0.043257028 0.041161563 -0.5513216 -0.8738381 -1.5999178 -0.7791024 -1.2504328 -1.2471018
-1.1281657 0.41017392 2.163419 -0.012374425 -0.962099 -0.924475 0.20495287 -0.72679657
-0.92367417 -1.668319 -0.97273296 -0.02549464 -1.2679777 -1.0390857 1.7296168 -0.6966184
-1.0193753 0.0900348 -0.48626548 -1.1970948 1.6198797 -1.5793012 1.9365302 -0.733616
-0.14840434 -0.91398716 0.057245098 -0.8065817 -0.93095237 -0.72486806 -0.9332729 -1.1703185
-0.5848929 -0.59330815 1.6559443 -0.8615827 -0.10068337 1.981673 -0.08077418 -1.0104046
0.093346775 1.8751048 -0.5619684 -0.63340473 0.68570715 0.07568507 0.8195257 1.1490628
-0.64530104 0.1082931 -0.8568629 -0.7411204 -1.2108842 -0.6619496 -1.0536071 2.2984262
-0.02675668 -0.119157635 -0.7447972 -1.1869614 -0.874237 -0.80771196 -1.0597411 -1.490895
-0.81901795 -1.9092938 2.1713574 0.029002735 -0.75637484 -0.9716729 1.0485507 -0.70140445
-0.59213126 -2.387971 -0.9896931 -0.0087781055 -2.1787026 -0.45582852 1.9885638 -1.040238
-1.0127543 -0.021437168 -0.61848104 -0.7014621 1.4799371 0.06940921 1.6424867 -0.17838499
-1.2437562 -0.6842249 -0.10775516 -1.2292653 -0.77558607 -1.1520839 -0.8485184 -0.67993283
-0.39150882 -2.1554675 1.7177677 -0.90902436 -0.7129373 2.2732272 0.06972161 -1.0190518

bias f4 [4]
00000000: 601b e73e 07aa 263f 3af2 873e b81f 553f
0.45138073 0.6510319 0.26551992 0.83251524
